dl_ouptut/attn.pth (torch, 567545 bytes, 43 tensors)

rnn_layer.rnn_layer.weight_ih_l0 f4 [256, 50]
0.026414244 -0.0675549 0.21967435 -0.004533752 -0.02274747 0.06409423 -0.0053094295 -0.22496997
-0.20290439 -0.029230325 -0.09463324 -0.013372648 0.014278386 0.11509749 0.09373496 0.084212035
0.2160015 0.16649829 0.14599636 0.02072382 -0.034883987 -0.04190037 -0.06615009 -0.04825016
0.073829055 0.12065632 0.19067018 -0.034958016 0.17235398 -0.06954065 -0.04935552 0.12215901
-0.02041681 -0.068894185 -0.21177572 -0.05951022 0.12882529 -0.01880925 0.15557328 -0.091882356
0.045415908 -0.14078912 -0.025244283 0.042173147 -0.04519878 -0.04793313 -0.0478861 -0.17787501
-0.14533822 -0.1343679 -0.10727654 -0.101489365 -0.008243978 -0.060593646 0.027927808 0.024560686
-0.1943655 -0.0335778 -0.2136124 -0.07223936 -0.2400039 -0.19837403 0.030007927 -0.14767972
-0.08172059 -0.096553035 -0.019579059 0.0646801 -0.09561533 0.042567637 0.14204645 -0.034061637
0.0056795343 0.07996105 -0.028009392 -0.0992905 0.010937433 -0.04075564 -0.0015632033 0.06309018
0.049656942 -0.0951516 -0.08077341 -0.057699732 0.010010556 0.0068101934 -0.06686069 0.015762025
0.03533674 0.10241127 -0.091401145 -0.004758379 0.06811696 -0.06299466 0.053960435 -0.04242667
-0.022888483 -0.12215092 0.10333637 -0.0979072 -0.012678144 -0.03690698 0.0551229 -0.019254776
0.16261534 0.14490443 -0.012671214 0.039481673 0.10983831 0.066693515 0.02891758 0.18171659
0.0376457 0.042412534 -0.05054364 0.10119742 0.050826836 0.13149117 0.046119455 0.05743675
0.20355059 0.12316827 0.05365308 0.051370244 0.03244735 -0.09396657 0.03814638 0.01119854
-0.00750037 0.076434754 0.22877671 0.28402475 0.13386837 0.17245942 0.08213146 0.19998236
0.060235657 0.0042718383 0.04557332 -0.020715505 0.0070417942 -0.15073635 0.008309183 -0.0009437728
0.0794789 -0.07815965 -0.046739087 0.056474898 0.040183507 0.013358622 -0.09382599 0.06596062
0.027642889 0.116188526 0.23197518 0.27245903 0.058174927 0.21142723 0.031167002 0.1595078
0.080184415 0.030873861 0.120033376 0.12977315 0.12227394 0.12554802 0.113318406 0.008842281
-0.11258651 0.1342174 -0.062316515 0.107336506 -0.04562526 -0.004372912 -0.04549143 -0.04796485
-0.04999471 -0.04155576 -0.037664235 0.07954124 0.19785653 0.097111546 0.26700503 -0.013794791
-0.023998003 -0.1159942 -0.12841345 -0.0041351486 -0.09444478 -0.13040645 -0.16464792 -0.12055774
-0.02805978 -0.12024224 -0.09735385 -0.013879889 -0.13473414 -0.12708358 -0.18235058 -0.007295216
0.032540414 -0.089074686 -0.095542006 -0.27780876 -0.10276639 -0.2759478 -0.048958622 -0.16128014
-0.22156218 -0.112621374 -0.0858025 0.01856658 0.1530654 0.14440581 0.10212913 0.074457325
-0.1369875 -0.13262555 0.068157025 0.04424028 -0.05530386 0.0337986 -0.17058375 0.02249048
-0.092204146 -0.088579565 -0.14199232 -0.17629175 0.10853273 0.22487488 0.28014368 0.020755583
-0.07178313 0.0029376124 -0.004672884 0.009055833 -0.13599955 -0.12325134 -0.07963392 0.005926979
0.10079933 0.073244825 0.026109524 0.083512746 -0.059288207 0.024398845 0.05640641 -0.16597089
-0.16217686 -0.017880335 -0.012746033 -0.013226816 -0.08059474 0.08068616 0.064387366 0.05784487
00000000: af62 d83c 395a 8abd 50f2 603e de8f 94bb
00000010: e758 babc d643 833d b9fa adbb 875e 66be
00000020: 2bc6 4fbe 6f74 efbc 12cf c1bd f318 5bbc
00000030: e4ef 693c 3cb8 eb3d 1df8 bf3d 5c77 ac3d
00000040: 7f2f 5d3e 877e 2a3e 1280 153e 00c5 a93c
00000050: 83e2 0ebd b99f 2bbd b379 87bd f6a1 45bd
00000060: b033 973d a91a f73d 0b3f 433e 2330 0fbd
00000070: 907d 303e 546b 8ebd 0429 4abd 812e fa3d
00000080: 2741 a7bc 6518 8dbd bcdb 58be fdc0 73bd
00000090: c7ea 033e db15 9abc 9a4e 1f3e d12c bcbd
000000a0: 0806 3a3d 062b 10be 19cd cebc c0bd 2c3d
000000b0: 5b22 39bd 8855 44bd 3724 44bd de24 36be
000000c0: 8bd3 14be bd97 09be cdb3 dbbd a8d9 cfbd
000000d0: c011 07bc 0b31 78bd dcc8 e43c 7e33 c93c
000000e0: c007 47be e088 09bd 36bd 5abe 3bf2 93bd
000000f0: 95c3 75be 9022 4bbe 2fd3 f53c 5a39 17be
00000100: 205d a7bd 99bd c5bd 4364 a0bc 0077 843d
00000110: f8d1 c3bd 675b 2e3d a074 113e 3784 0bbd
00000120: 631b ba3b 9ec2 a33d f473 e5bc d158 cbbd
00000130: eb32 333c 63ef 26bd 66e4 ccba 6d35 813d
00000140: 1465 4b3d d8de c2bd 886c a5bd 8e56 6cbd
00000150: 5103 243c 0b28 df3b 42ee 88bd 5d1f 813c
00000160: 42bd 103d 00bd d13d 8630 bbbd 2dec 9bbb
00000170: e880 8b3d 5803 81bd 9e05 5d3d 97c7 2dbd
00000180: a180 bbbc 432a fabd 05a2 d33d 9283 c8bd
00000190: fdb7 4fbc c62b 17bd 8dc8 613d 31bc 9dbc
000001a0: a384 263e d461 143e ec9a 4fbc 89b7 213d
000001b0: e8f2 e03d 9c96 883d 90e4 ec3c ea13 3a3e
000001c0: 6132 1a3d c4b8 2d3d d906 4fbd 9840 cf3d
000001d0: cd2f 503d 9fa5 063e c1e7 3c3d cc42 6b3d
000001e0: 916f 503e a53f fc3d 55c3 5b3d 9b69 523d
000001f0: 83e7 043d 8c71 c0bd 613f 1c3d 157a 373c
00000200: aac5 f5bb d389 9c3d 7144 6a3e b16b 913e
00000210: ca14 093e 3499 303e 8a34 a83d 2dc8 4c3e
00000220: aab9 763d c7fa 8b3b 17ab 3a3d 90b3 a9bc
00000230: dabe e63b a15a 1abe 3d23 083c 8567 77ba
00000240: d5c5 a23d 2b12 a0bd 7c71 3fbd 3952 673d
00000250: 7697 243d 1fde 5a3c d727 c0bd 5d16 873d
00000260: 5773 e23c 40f4 ed3d e78a 6d3e c07f 8b3e
00000270: d548 6e3d 6180 583e f151 ff3c 0356 233e
00000280: ba37 a43d 2eeb fc3c 0fd4 f53d 41e3 043e
00000290: c26a fa3d a98f 003e 7b13 e83d 37df 103c
000002a0: c293 e6bd 4970 093e 9a3f 7fbd 3ed3 db3d
000002b0: 8de1 3abd a54a 8fbb 3955 3abd ca76 44bd
000002c0: 41c7 4cbd 5f36 2abd d045 1abd 85e6 a23d
000002d0: e79a 4a3e 6be2 c63d e2b4 883e 8c03 62bc
000002e0: 7697 c4bc 5e8e edbd d17e 03be 2480 87bb
000002f0: 446c c1bd 4589 05be 7799 28be fae6 f6bd
00000300: a0dd e5bc 9041 f6bd 7561 c7bd 7968 63bc
00000310: bff7 09be 3322 02be 1cba 3abe b50c efbb
00000320: 1949 053d ca6c b6bd 87ab c3bd f33c 8ebe
00000330: 2f77 d2bd 0849 8dbe d688 48bd 9f26 25be
00000340: 32e1 62be 09a6 e6bd 39b9 afbd f118 983c
00000350: 2dbd 1c3e 1edf 133e 1429 d13d 157d 983d
00000360: 7446 0cbe fece 07be e995 8b3d 4c35 353d
00000370: 4d86 62bd 6770 0a3d 82ad 2ebe f53d b83c
00000380: 87d5 bcbd 3469 b5bd 6f66 11be d385 34be
00000390: 6846 de3d 9a45 663e fe6e 8f3e 9d07 aa3c
000003a0: 0903 93bd f584 403b fe1e 99bb eb5e 143c
000003b0: 7743 0bbe 336b fcbd 1c17 a3bd 1a37 c23b
000003c0: e16f ce3d 6201 963d a4e3 d53c bb08 ab3d
000003d0: 31d8 72bd 16e0 c73c 680a 673d 46f4 29be
000003e0: b111 26be c879 92bc bdd4 50bc 4ab5 58bc
000003f0: db0e a5bd c93e a53d 86dd 833d beee 6c3d

rnn_layer.rnn_layer.weight_hh_l0 f4 [256, 64]
0.04940819 -0.082852535 -0.04333975 0.12262629 -0.08088211 -0.027499529 0.06928758 -0.08405417
0.15866123 -0.14800406 0.15402877 -0.11592934 0.028255032 0.099016935 0.028952152 0.063616216
0.0075875926 0.02860229 -0.1281007 0.13214284 -0.10140229 -0.05975981 -0.055517428 0.032857616
0.118111566 0.024045333 -0.05234197 0.008953457 0.057508986 -0.104596645 0.1037678 -0.021044048
0.10437171 0.099886976 0.014040599 0.026934037 -0.062491573 -0.001111197 -0.05126526 -0.008188503
-0.08403757 0.04206475 -0.12281427 -0.00095778506 0.13589627 0.1307903 -0.060768526 -0.094894454
0.11590314 0.08050755 -0.004646233 -0.1627837 -0.037033264 0.062049516 -0.031794842 -0.045927953
0.03732591 -0.15654896 -0.0846607 0.00226795 -0.0752319 0.11004849 0.017524216 0.1078895
0.09982057 -0.0026160812 -0.017559629 0.10564809 0.10155178 0.05500458 0.09288998 -0.109117545
-0.1029626 -0.034242768 -0.06415022 -0.08494177 -0.09430598 -0.12965834 0.12113019 0.07641902
0.020923896 0.05022062 -0.103097565 -0.009493407 -0.07875579 -0.10582503 0.06250195 0.10853554
0.1339694 0.09842818 0.17370865 0.045259256 -0.091001436 0.014999205 0.17221852 -0.17193832
-0.05665495 -0.09280087 0.1127716 0.051345684 0.028308067 0.043170866 -0.009835239 0.019712824
-0.03441363 0.03573664 -0.0059655677 -0.05063751 -0.055908225 -0.083981164 -0.069445685 -0.03356536
-0.16618879 0.116445355 0.11011336 0.081128456 0.03259451 -0.15147872 -0.14932275 0.0664272
0.09772414 -0.07391081 0.0077422466 0.07947508 0.07962986 0.12601627 0.07817292 -0.054644197
0.09687213 -0.13446893 -0.1253583 -0.09291828 -0.020204892 0.05768386 -0.018469825 0.10687139
-0.010027196 0.009085115 -0.07071698 -0.0070263804 0.14082398 -0.12615728 -0.14885654 -0.13480967
-0.0006054937 0.03577383 -0.059417993 0.13776009 -0.015979009 -0.043195773 0.040181056 0.065089464
-0.11939136 0.06734912 0.013906345 -0.118855216 -0.09882345 0.08052632 -0.025273144 0.004685213
-0.048401557 -0.018536724 -0.054617118 0.109508164 -0.042408466 0.060552236 -0.09411389 -0.11168662
-0.070082985 0.13269103 -0.036925822 -0.013059119 0.032674555 0.043776687 -0.031680558 -0.009839703
0.14251217 -0.12956989 -0.03189168 0.13637675 -0.12088884 0.090475544 0.018140418 0.10557189
-0.06692483 -0.13469082 0.07457932 0.077200696 -0.029558158 -0.09091752 -0.015353969 -0.11428009
-0.0018008903 0.10554153 -0.067236364 0.06313858 -0.009229266 -0.028563155 -0.11950229 0.024575034
-0.016016038 -0.06127732 0.029170657 0.12011798 0.12282456 0.03533134 0.08170349 0.005903239
0.09787287 -0.09526695 0.041890424 -0.029882275 0.07924143 -0.037497606 0.06019974 -0.035446186
-0.037130825 -0.068641365 0.21951552 0.17833132 -0.12303425 -0.0015576141 0.0865607 -0.04810133
-0.07796813 0.11134716 -0.052675392 0.10159429 -0.06580552 0.16754103 -0.16172877 0.010906073
-0.040800516 -0.0077098166 0.07957302 0.073201105 0.04334213 -0.10205466 0.060063332 -0.02795634
-0.1415265 -0.034101438 -0.02787451 0.10761213 -0.015634125 -0.14633256 -0.088408835 0.10447671
-0.117321625 -0.14273687 0.12100789 -0.004687274 0.16929425 0.17951193 0.17346054 -0.07674684
00000000: 3e60 4a3d 97ae a9bd 0685 31bd 7e23 fb3d
00000010: 85a5 a5bd b146 e1bc a6e6 8d3d 9824 acbd
00000020: 1778 223e 608e 17be b8b9 1d3e 5d6c edbd
00000030: 1977 e73c 64c9 ca3d 102d ed3c 3849 823d
00000040: 57a1 f83b 5a4f ea3c d42c 03be 7450 073e
00000050: 01ac cfbd b4c6 74bd 3e66 63bd b595 063d
00000060: 7ae4 f13d b8fa c43c 8964 56bd 85b1 123c
00000070: 8b8e 6b3d c436 d6bd 3684 d43d 9164 acbc
00000080: d6c0 d53d 8b91 cc3d 8a0a 663c c5a4 dc3c
00000090: 2af7 7fbd 96a5 91ba 85fb 51bd 1229 06bc
000000a0: e41b acbd 164c 2c3d 0c86 fbbd de13 7bba
000000b0: 6428 0b3e e4ed 053e 6be8 78bd 0658 c2bd
000000c0: a05e ed3d 24e1 a43d 6d3f 98bb c5b0 26be
000000d0: 31b0 17bd a227 7e3d 4f3b 02bd f31e 3cbd
000000e0: 0ee3 183d 5f4e 20be 9762 adbd e3a1 143b
000000f0: 2f13 9abd 1a61 e13d f28e 8f3c 2cf5 dc3d
00000100: ba6e cc3d 8f72 2bbb 36d9 8fbc 075e d83d
00000110: 61fa cf3d 7c4c 613d 1a3d be3d 0579 dfbd
00000120: 0ede d2bd 2542 0cbd 3161 83bd f3f5 adbd
00000130: 7e23 c1bd 28c5 04be 1b13 f83d 9381 9c3d
00000140: 9768 ab3c 23b4 4d3d d124 d3bd 3c8a 1bbc
00000150: b74a a1bd cbba d8bd 0601 803d e247 de3d
00000160: 462f 093e b794 c93d aee0 313e c561 393d
00000170: f65e babd 3abf 753c 0d5a 303e 9910 30be
00000180: 050f 68bd 620e bebd ccf4 e63d da4f 523d
00000190: 52e6 e73c efd3 303d fb23 21bc ca7c a13c
000001a0: 4ef5 0cbd 9560 123d cf7a c3bb 4769 4fbd
000001b0: 0600 65bd 51fe abbd 8a39 8ebd d57b 09bd
000001c0: 652d 2abe e77a ee3d 1d83 e13d ad26 a63d
000001d0: d281 053d 3d1d 1bbe 10e8 18be fc0a 883d
000001e0: 9823 c83d 8d5e 97bd acb2 fd3b d5c3 a23d
000001f0: fb14 a33d 690a 013e 2019 a03d 98d2 5fbd
00000200: e564 c63d 39b2 09be ed5d 00be f04b bebd
00000210: bb84 a5bc e945 6c3d 084e 97bc 63df da3d
00000220: 1c49 24bc bcd9 143c 10d4 90bd 8d3d e6bb
00000230: 2934 103e 602f 01be d96d 18be 8c0b 0abe
00000240: ffb9 1eba 9487 123d 4860 73bd fb10 0d3e
00000250: 69e6 82bc 0dee 30bd e494 243d a04d 853d
00000260: 7583 f4bd 56ee 893d 70d7 633c 5d6a f3bd
00000270: f363 cabd fcea a43d a009 cfbc 6a86 993b
00000280: b640 46bd 54da 97bc 33b6 5fbd d145 e03d
00000290: 80b4 2dbd 9f05 783d c8be c0bd f4bb e4bd
000002a0: ab87 8fbd 28e0 073e 883f 17bd eaf5 55bc
000002b0: c1d5 053d 2f4f 333d 79c3 01bd b536 21bc
000002c0: b6ee 113e f8ad 04be daa0 02bd 59a6 0b3e
000002d0: 9194 f7bd 3e4b b93d 379b 943c 1336 d83d
000002e0: e30f 89bd 64ec 09be 0bbd 983d 661b 9e3d
000002f0: f323 f2bc f732 babd 378f 7bbc ae0b eabd
00000300: da0b ecba 2826 d83d 38b3 89bd cd4e 813d
00000310: 5936 17bc 47fd e9bc 9ebd f4bd 9551 c93c
00000320: 1134 83bc edfd 7abd 4df7 ee3c 6a00 f63d
00000330: 718b fb3d 98b7 103d 2954 a73d f56f c13b
00000340: 9271 c83d 521b c3bd 4b95 2b3d accb f4bc
00000350: 5549 a23d 1797 19bd 0194 763d 0530 11bd
00000360: 7e16 18bd d893 8cbd adc8 603e 7c9c 363e
00000370: 62f9 fbbd db28 ccba bc46 b13d e605 45bd
00000380: c1ad 9fbd fb09 e43d 27c2 57bd ab10 d03d
00000390: 0bc5 86bd e08f 2b3e 3a9c 25be 63af 323c
000003a0: 711e 27bd a1a2 fcbb 2ef7 a23d 76ea 953d
000003b0: 8487 313d 0902 d1bd f804 763d b204 e5bc
000003c0: 53ec 10be f3ad 0bbd 1659 e4bc c063 dc3d
000003d0: 2313 80bc 34d8 15be b10f b5bd e3f7 d53d
000003e0: 5246 f0bd 9d29 12be fcd2 f73d b497 99bb
000003f0: 795b 2d3e fad1 373e a49f 313e 722d 9dbd

rnn_layer.rnn_layer.bias_ih_l0 f4 [256]
0.069715835 0.09714497 -0.027254961 0.14739071 0.143653 0.07566988 -0.029149555 0.13276611
0.05010565 0.116565436 -0.0036460548 -0.07431198 -0.048781425 0.10780504 0.1340384 -0.10663587
-0.06526984 0.03436051 -0.016308064 -0.06304072 0.05238844 -0.075062335 -0.05125944 0.20356147
0.06623647 0.042592622 0.029627953 -0.0627975 -0.05287907 0.06990393 0.23296547 0.061559834
0.16757144 0.07717763 0.112693675 0.09332556 0.03210427 0.022110304 -0.051174473 -0.08533574
0.0724454 0.13085157 -0.05724558 0.107010014 -0.08369182 0.0002964333 -0.024390437 -0.05282761
-0.05826088 -0.079016075 0.14958814 0.00770068 0.06632703 -0.015107759 -0.08333971 0.06801976
-0.10172609 -0.02309421 0.06793701 0.16768752 -0.066329695 0.12092094 0.15699482 0.08665844
0.07401389 -0.009985984 0.059653956 0.173366 0.035242207 0.07242122 0.041965134 0.07539014
0.10216696 0.11016553 -0.060199372 0.095843464 -0.03071381 -0.049779076 0.14762054 -0.023599936
0.012600049 0.0042806324 0.10804907 0.036840573 0.19741139 0.033948176 0.05699062 0.04401137
0.13653348 0.11910696 -0.012639371 -0.050161365 0.1429657 0.12247795 0.1676275 -0.086153515
-0.032763634 -0.03658017 -0.010936738 0.11490707 0.04293635 0.03303046 -0.03024957 -0.04438509
0.0019896477 0.014404576 -0.028650839 0.10581124 0.10614954 0.15629004 0.056643073 0.08789636
0.04598435 0.06909938 0.091745324 0.08535204 -0.06687851 0.06866932 0.03221187 0.1264532
0.0963819 0.16182508 -0.043918006 0.031411767 -0.021861015 0.05706712 0.015300517 -0.093262024
-0.13488898 0.09724134 0.043312877 0.036192536 -0.11179193 0.032663334 0.019288015 -0.051966283
0.07156656 0.12196596 0.063398965 0.037004735 -0.10551229 0.048995856 0.079638526 0.046393808
0.09836883 0.08327669 0.047742285 0.029558444 0.02868913 0.0013685742 -0.02619666 0.031695403
-0.11323647 -0.12485733 0.015291959 0.08741803 -0.0068802326 -0.10632282 0.15377927 -0.12663774
0.09146518 0.017081087 0.023423824 -0.05682293 0.092044175 -0.034509715 -0.09553691 -0.110177435
-0.09201416 -0.07133353 -0.10459942 -0.15255241 -0.03037232 0.11041916 -0.07682656 -0.10184338
-0.036066078 0.13499139 -0.07562674 -0.096816935 -0.008226462 -0.060733512 0.038583014 0.07507935
-0.046908576 -0.042960744 -0.027399734 -0.050356828 0.16528594 0.112637945 -0.0525493 0.05601651
-0.032191947 0.059549816 0.023935119 0.031061467 0.10025605 0.13505758 0.054861225 -0.048842866
0.008366896 0.04096208 0.00014700125 0.12976852 0.15425052 -0.050397057 0.1388111 0.053844802
0.034379117 -0.09747113 0.055259828 -5.4446573e-05 -0.0663487 0.051479146 -0.02684616 0.17258061
0.15423414 0.03860866 0.06936972 -0.07025971 -0.09259818 -0.069821075 -0.0066168355 0.068756595
0.09427879 -0.01625257 0.15168978 0.075422846 0.095425814 0.11763311 0.10550114 0.01049992
0.015741587 0.0067022424 -0.023526065 0.018716248 -0.0798651 0.012422582 0.07851242 -0.02809582
0.0019444191 0.08157571 -0.024791906 0.15281238 -0.06675282 0.032073922 0.10194244 -0.006175533
0.09835746 0.1803198 -0.05291707 -0.08026473 -0.04450963 -0.01444041 -0.020158345 -0.012768748
00000000: 2dc7 8e3d f1f3 c63d cc45 dfbc 97ed 163e
00000010: c619 133e cff8 9a3d 0ccb eebc d7f3 073e
00000020: 953b 4d3d dcb9 ee3d a6f2 6ebb e130 98bd
00000030: 08cf 47bd e4c8 dc3d 5d41 093e e863 dabd
00000040: 32ac 85bd 9bbd 0c3d 7d98 85bc 7e1b 81bd
00000050: 4395 563d 48ba 99bd 6bf5 51bd 6b72 503e
00000060: fda6 873d 9a75 2e3d 52b6 f23c fa9b 80bd
00000070: b997 58bd cb29 8f3d 808e 6e3e 2a26 7c3d
00000080: d997 2b3e 4e0f 9e3d f1cb e63d 7921 bf3d
00000090: c47f 033d ab20 b53c 539c 51bd 81c4 aebd
000000a0: 415e 943d f4fd 053e 577a 6abd 1128 db3d
000000b0: 9e66 abbd 9b6a 9b39 74ce c7bc c461 58bd
000000c0: f6a2 6ebd 2ed3 a1bd a22d 193e fc55 fc3b
000000d0: 77d6 873d 8986 77bc 03ae aabd f24d 8b3d
000000e0: c555 d0bd 1230 bdbc 8f22 8b3d 47b6 2b3e
000000f0: ddd7 87bd 66a5 f73d 40c3 203e fb79 b13d
00000100: 9894 973d 419c 23bc b557 743d db86 313e
00000110: 225a 103d 9451 943d a2e3 2b3d 2566 9a3d
00000120: e93c d13d 779e e13d 9e93 76bd 9449 c43d
00000130: 879b fbbc 25e5 4bbd d729 173e a754 c1bc
00000140: 7070 4e3c 8c44 8c3b d548 dd3d 24e6 163d
00000150: 3626 4a3e 3e0d 0b3d ff6e 693d 4445 343d
00000160: 6fcf 0b3e 5aee f33d 5d15 4fbc 0176 4dbd
00000170: 9a65 123e b8d5 fa3d 8ba6 2b3e 4171 b0bd
00000180: 2933 06bd 17d5 15bd 0130 33bc 6654 eb3d
00000190: 07de 2f3d f34a 073d f2cd f7bc 24cd 35bd
000001a0: c064 023b 2c01 6c3c 2ab5 eabc 90b3 d83d
000001b0: ee64 d93d 7f0a 203e 9102 683d 0203 b43d
000001c0: 165a 3c3d fa83 8d3d f9e4 bb3d 0dcd ae3d
000001d0: 9af7 88bd 80a2 8c3d 98f0 033d f37c 013e
000001e0: e063 c53d 79b5 253e 5ee3 33bd a0a9 003d
000001f0: df15 b3bc 36bf 693d 05af 7a3c 2900 bfbd
00000200: 5620 0abe 7826 c73d d868 313d a03e 143d
00000210: 2bf3 e4bd fdc9 053d e601 9e3c 99da 54bd
00000220: 7d91 923d 4ac9 f93d 51d7 813d 4792 173d
00000230: d416 d8bd e1af 483d 8619 a33d 6f07 3e3d
00000240: 9975 c93d f88c aa3d 6a8d 433d 8d24 f23c
00000250: 7705 eb3c bb61 b33a 619a d6bc 0ad3 013d
00000260: 86e8 e7bd 33b5 ffbd 208b 7a3c 3908 b33d
00000270: 9373 e1bb c7bf d9bd 5078 1d3e 53ad 01be
00000280: 1952 bb3d a3ed 8b3c 52e3 bf3c 29bf 68bd
00000290: a881 bc3d 0f5a 0dbd dba8 c3bd b5a4 e1bd
000002a0: eb71 bcbd 5017 92bd 3938 d6bd b336 1cbe
000002b0: 5fcf f8bc 7123 e23d 3e57 9dbd 4393 d0bd
000002c0: 06ba 13bd 2f3b 0a3e 31e2 9abd f547 c6bd
000002d0: 48c8 06bc b4c3 78bd 3909 1e3d 34c3 993d
000002e0: 3523 40bd 9bf7 2fbd 6875 e0bc f642 4ebd
000002f0: b840 293e b9ae e63d ef3d 57bd 9171 653d
00000300: b4db 03bd 82ea 733d 9513 c43c 9e74 fe3c
00000310: 0b53 cd3d 894c 0a3e 2ab6 603d 750f 48bd
00000320: 4e15 093c dbc7 273d 5924 1a39 0ae2 043e
00000330: d9f3 1d3e 256d 4ebd 7f24 0e3e 5e8c 5c3d
00000340: 1ed1 0c3d f29e c7bd 2158 623d 905d 64b8
00000350: d4e1 87bd ccdb 523d 7aec dbbc f9b8 303e
00000360: 8eef 1d3e 1d24 1e3d b611 8e3d 53e4 8fbd
00000370: 1da4 bdbd 5afe 8ebd 0ad2 d8bb 42d0 8c3d
00000380: 3d15 c13d 1c24 85bc 9154 1b3e 4b77 9a3d
00000390: 9c6e c33d a1e9 f03d fb10 d83d db07 2c3c
000003a0: 80f4 803c 7c9e db3b bcb9 c0bc d152 993c
000003b0: 5090 a3bd 1688 4b3c 1fcb a03d 3529 e6bc
000003c0: e1db fe3a 2a11 a73d 6518 cbbc d97a 1c3e
000003d0: b4b5 88bd f25f 033d 33c7 d03d 205c cabb
000003e0: a36f c93d c1a5 383e 92bf 58bd d661 a4bd
000003f0: bb4f 36bd 7897 6cbc 1d23 a5bc 0334 51bc

rnn_layer.rnn_layer.bias_hh_l0 f4 [256]
0.08135865 0.084020175 -0.11918395 0.16060612 -0.014925091 -0.043339454 -0.029439129 0.07350214
0.12650633 0.08120491 0.059035175 0.0010359276 0.030342842 -0.11320838 0.094123 0.0026638068
-0.07415522 0.08425795 0.08428413 0.070661515 0.061420623 -0.030366942 -0.060371745 0.1645462
-0.03907365 0.11213326 0.07142217 0.05001111 0.08692629 -0.055527177 0.2380604 0.08403313
0.05362614 0.058482822 0.10837561 0.10949023 0.095696785 -0.058288664 -0.025736913 -0.08267703
0.11882361 -0.047953304 0.11117394 0.07027484 -0.020589985 0.050233435 0.16125114 0.07101991
0.036788855 0.110407926 -0.035615686 0.12861507 0.018936973 -0.08466825 -0.11869218 0.043863248
-0.0075006336 0.16956066 0.07033831 0.12659538 0.13614854 0.19047436 -0.0372126 0.08645289
0.08516077 0.058174863 0.109237365 0.062015586 0.069846325 -0.06386343 0.0055145426 -0.05071389
0.11480083 -0.023464955 0.0769551 0.07154429 0.16365436 -0.13129982 0.13197014 -0.08522851
0.07149332 -0.06080935 -0.026465062 0.11091785 0.011671032 0.11192829 -0.052621283 -0.037020266
0.20941812 0.0472729 -0.021124072 0.086603425 0.08762893 -0.022335926 -0.04093683 -0.06196201
-0.0070814956 -0.0017518714 0.043621007 0.14834148 0.21870436 0.14480932 0.1126006 -0.05694573
0.1642692 0.15565886 0.123006575 0.1241317 -0.015868608 0.107742146 0.065532275 0.09666246
-0.019724341 -0.0043922686 0.13852625 0.029798413 0.001805693 0.050681412 -0.006928956 0.11461183
0.04193741 0.017925547 0.005742408 0.0010518711 -0.035453398 0.098903306 0.06432388 0.07464416
0.09101664 -0.021402398 0.072481394 0.011526578 0.0993454 0.060569122 0.013531498 -0.112572305
0.023392485 -0.030493524 0.033046734 0.10963693 0.047202215 -0.042815793 0.034874603 -0.106734246
0.07688858 0.010391198 0.090601034 0.0026610084 0.07964464 -0.03802299 -0.0050221346 -0.12340249
0.09663936 -0.10095467 0.10237935 0.089953214 0.06930445 -0.08496123 0.11586504 0.09194157
0.02917161 0.07066873 -0.033022363 -0.12706791 0.058351006 0.038325235 0.095705576 0.009402791
0.042354822 -0.009651774 0.07551229 -0.17354564 0.1027225 -0.10728005 -0.13458605 -0.013364511
0.028740698 0.109837584 0.037908856 0.015580738 0.050661974 0.0831654 -0.059565246 0.17701904
-0.024814704 0.076867804 -0.015267804 0.09931451 -0.046607994 -0.03058381 0.076770805 0.016396396
-0.07350836 0.121111296 -0.0642066 -0.09928296 0.13671158 0.0056550754 0.049903832 0.100912064
-0.009341069 0.17954832 -0.07794266 0.06335177 -0.026620857 0.053081337 0.066191494 0.067166336
0.025888056 -0.0288863 -0.0037564335 0.019326244 -0.056332547 0.023890786 0.0118293585 0.1315384
0.15963413 -0.010929229 0.15504064 -0.14294288 -0.070269234 -0.07012271 -0.043217942 0.02740032
0.0984742 0.13201463 0.15770172 0.1268211 0.20678182 -0.030297384 0.031822708 0.012606757
0.07567113 0.09653362 -0.093916535 0.044098802 -0.12152774 0.048620116 0.05249114 0.00044858488
0.07136082 -0.054120876 0.089290045 0.050887607 -0.06133514 -0.026590036 -0.027079148 0.124439046
-0.03505781 0.015010237 0.095189296 -0.05566701 -0.046304937 -0.033399094 -0.07127633 -0.1143238
00000000: 5d9f a63d c512 ac3d b716 f4bd ee75 243e
00000010: 5e88 74bc b684 31bd 542a f1bc 4a88 963d
00000020: e08a 013e c34e a63d dece 713d f6c7 873a
00000030: 8d91 f83c ccd9 e7bd 8fc3 c03d 4393 2e3b
00000040: b1de 97bd 6f8f ac3d 289d ac3d fcb6 903d
00000050: 3194 7b3d 18c4 f8bc 5d48 77bd cd7e 283e
00000060: b10b 20bd 1fa6 e53d c945 923d 73d8 4c3d
00000070: 6906 b23d 7770 63bd 1bc6 733e 9019 ac3d
00000080: 15a7 5b3d af8b 6f3d 08f4 dd3d 6a3c e03d
00000090: adfc c33d 18c0 6ebd 38d6 d2bc 9352 a9bd
000000a0: cb59 f33d af6a 44bd 2aaf e33d 41ec 8f3d
000000b0: 54ac a8bc 93c1 4d3d 051f 253e e372 913d
000000c0: e9af 163d 8d1d e23d c1e1 11bd abb3 033e
000000d0: b621 9b3c 8c66 adbd e314 f3bd f3a9 333d
000000e0: e0c7 f5bb 4fa1 2d3e 880d 903d 38a2 013e
000000f0: 866a 0b3e b60b 433e 3d6c 18bd 360e b13d
00000100: c568 ae3d c448 6e3d d7b7 df3d 0e04 7e3d
00000110: 970b 8f3d d4ca 82bd 56b3 b43b 5eb9 4fbd
00000120: b31c eb3d 9439 c0bc a39a 9d3d d085 923d
00000130: 0295 273e 7673 06be 2e23 073e 498c aebd
00000140: 176b 923d 3a13 79bd 42cd d8bc e628 e33d
00000150: db37 3f3c a93a e53d 6a89 57bd 90a2 17bd
00000160: b471 563e 3aa1 413d 640c adbc 235d b13d
00000170: cc76 b33d d5f9 b6bc 61ad 27bd e0cb 7dbd
00000180: e40b e8bb 0d9f e5ba f1ab 323d d4e6 173e
00000190: 09f4 5f3e e548 143e 259b e63d ed3f 69bd
000001a0: 2f36 283e 0965 1f3e dfea fb3d c338 fe3d
000001b0: e2fe 81bc eaa7 dc3d c935 863d f8f6 c53d
000001c0: f194 a1bc 05ed 8fbb d3d9 0d3e cd1b f43c
000001d0: 01ad ec3a 5097 4f3d 4c0c e3bb 9bb9 ea3d
000001e0: 90c6 2b3d 99d8 923c cf2a bc3b f0de 893a
000001f0: 9537 11bd d18d ca3d 3dbc 833d 0adf 983d
00000200: ef66 ba3d 1554 afbc 2071 943d f9d9 3c3c
00000210: 9a75 cb3d 5417 783d 37b3 5d3c 4f8c e6bd
00000220: 99a1 bf3c 8ecd f9bc 035c 073d 5489 e03d
00000230: 1c57 413d 9d5f 2fbd acd8 0e3d 7c97 dabd
00000240: c377 9d3d d83f 2a3c 098d b93d 5064 2e3b
00000250: bb1c a33d ffbd 1bbd b890 a4bb 72ba fcbd
00000260: dbea c53d 52c1 cebd 44ac d13d 6439 b83d
00000270: 7eef 8d3d 2700 aebd a64a ed3d dd4b bc3d
00000280: 4df9 ee3c c4ba 903d 7542 07bd 171e 02be
00000290: 7701 6f3d ecfa 1c3d 4901 c43d 2a0e 1a3c
000002a0: 407c 2d3d 7922 1ebc 30a6 9a3d f3b5 31be
000002b0: 2d60 d23d a5b5 dbbd edd0 09be d2f6 5abc
000002c0: 9d71 eb3c 87f2 e03d 5146 1b3d 5a46 7f3c
000002d0: ee82 4f3d 9f52 aa3d b0fa 73bd 7b44 353e
000002e0: 3548 cbbc de6c 9d3d d025 7abc 6865 cb3d
000002f0: 06e8 3ebd e68a fabc 033a 9d3d bc51 863c
00000300: 8d8b 96bd 3309 f83d c07e 83bd dd54 cbbd
00000310: 1ffe 0b3e 364e b93b f667 4c3d fcaa ce3d
00000320: 480b 19bc 84db 373e 67a0 9fbd 93be 813d
00000330: fc13 dabc d16b 593d 688f 873d 818e 893d
00000340: 3013 d43c f6a2 ecbc 7f2e 76bb 1252 9e3c
00000350: f5bc 66bd 9cb6 c33c edcf 413c 01b2 063e
00000360: 2177 233e 8210 33bc f9c2 1e3e 9e5f 12be
00000370: 51e9 8fbd 7f9c 8fbd 4c05 31bd a376 e03c
00000380: d7ac c93d d82e 073e 8f7c 213e 64dd 013e
00000390: 9dbe 533e 3832 f8bc 8758 023d 928c 4e3c
000003a0: 77f9 9a3d 6bb3 c53d 5057 c0bd f2a0 343d
000003b0: 89e3 f8bd e325 473d f300 573d 0b30 eb39
000003c0: 9f25 923d daad 5dbd b3dd b63d 866f 503d
000003d0: 8e3a 7bbd 59d3 d9bc 17d5 ddbc e6d9 fe3d
000003e0: c798 0fbd 7fed 753c 9bf2 c23d 1703 64bd
000003f0: 3faa 3dbd 7dcd 08bd 53f9 91bd 9922 eabd

conv1.conv_1.weight f4 [64, 1, 5]
0.086533725 -0.20107596 0.36037537 0.3121727 0.06179511 0.23944016 0.20908792 -0.2397989
-0.28969336 -0.033141434 -0.35070142 -0.14122397 0.031175366 0.19682866 0.07040798 0.12920657
-0.4375975 -0.26924598 0.3565971 0.24813402 -0.36894816 0.18750866 0.4057266 0.3499954
-0.41307676 0.4307519 0.003033285 0.20844258 0.161504 0.079147704 0.3964391 0.32505614
0.17287685 -0.4569739 -0.23640117 0.36478436 -0.16392593 0.38484594 0.06009399 -0.14956091
-0.20814537 0.36441356 0.31660503 -0.055719484 0.35117033 -0.16739368 0.31064764 -0.32156256
0.19890161 -0.36082828 0.2729993 0.1275975 0.060009014 0.26169378 0.35255098 0.12277147
0.27364758 0.39178887 0.23630716 0.43867427 0.37687156 -0.19200346 0.3525098 0.3339265
0.3115612 -0.20973726 -0.18707234 -0.028841516 -0.41022056 0.33468556 0.34263864 0.23723811
-0.34064198 -0.14372966 0.087444246 -0.26621273 -0.30588293 0.29670265 0.037784435 -0.112330005
-0.2608568 0.3589704 0.12805772 -0.3140933 -0.12513798 -0.3248725 -0.39174306 -0.3132132
-0.39197508 0.2468226 0.07623303 0.19155139 -0.3283715 -0.02053846 0.017847676 -0.028796876
0.0888156 -0.34126794 0.12313256 -0.17157134 -0.021945672 -0.0808098 -0.18117897 0.3653292
0.028340913 0.4342454 0.2652406 0.17282881 0.058467783 0.12052599 -0.3547729 0.027817702
0.29114112 -0.38954538 0.18382017 0.3420012 0.22961627 -0.361863 -0.3941335 -0.18430364
0.009224773 0.29841158 0.2329529 0.1557907 -0.41953582 -0.44124603 0.3449672 0.17576715
0.35986906 0.08695286 0.11135882 -0.066816814 -0.28175434 -0.28185323 0.43112528 0.124494985
0.16270122 0.34084937 0.34772682 0.2629748 -0.11586945 0.43524882 0.30834728 0.2630134
-0.3647722 0.15993434 -0.40031686 -0.0016825182 0.030423585 -0.24542707 0.3345995 0.07964509
0.12615514 -0.38134196 -0.3115062 -0.45201957 -0.28330868 0.38501516 0.36717182 0.12118902
0.43317327 -0.38672408 0.1574023 0.043604065 -0.34944865 -0.2633757 0.36397102 -0.037594315
0.35580873 -0.40310052 -0.11197543 -0.23062655 0.029207392 -0.09387576 0.34312075 0.091296054
-0.105391935 -0.30471262 -0.323587 -0.040840324 0.050989915 -0.22822922 0.20964195 -0.45876375
-0.42523137 -0.27651855 0.02222714 0.35515592 -0.29655528 0.22863582 -0.08189575 -0.31600922
0.2113623 0.18564221 -0.32947943 0.3279837 -0.23771031 0.32081327 -0.23382166 -0.23487668
0.10076169 0.2651656 0.43821055 0.08828386 -0.024976544 0.3491143 -0.35317025 0.0524575
-0.37705716 -0.4079836 0.32083812 0.0017903434 0.22421615 0.40741563 -0.29963627 -0.34328377
-0.047071736 -0.04856127 -0.14691916 0.2714702 -0.36998495 -0.29270443 -0.1904128 -0.22102462
-0.21324874 0.20103037 0.048134424 -0.06060724 -0.075509384 0.13177875 -0.3323673 -0.22211067
0.23412032 -0.009947949 -0.270266 0.31194595 -0.11524 0.038217444 0.38729143 0.1243194
-0.065572545 -0.4277371 -0.30348268 -0.22738482 -0.17736031 0.34213635 0.13318966 0.26749048
0.4155886 -0.009819765 0.075866036 -0.049478296 -0.21529335 -0.11254158 -0.08563612 0.47230205
00000000: 9838 b13d dbe6 4dbe 1f83 b83e 1ad5 9f3e
00000010: df1c 7d3d cd2f 753e 251b 563e d88d 75be
00000020: b052 94be 50bf 07bd 238f b3be 049d 10be
00000030: 7b63 ff3c 748d 493e 0f32 903d ba4e 043e
00000040: c80c e0be 9cda 89be e593 b63e d816 7e3e
00000050: c6e6 bcbe 4502 403e 66bb cf3e 9932 b33e
00000060: cc7e d3be 838b dc3e 14ca 463b f971 553e
00000070: 4e61 253e 3118 a23d 11fa ca3e c26d a63e
00000080: a106 313e 7cf8 e9be 2613 72be 04c5 ba3e
00000090: 33dc 27be 870a c53e 1e25 763d 7f26 19be
000000a0: 0f24 55be 6a94 ba3e 0e1a a23e 1d3a 64bd
000000b0: 99cc b33e 4069 2bbe 350d 9f3e d9a3 a4be
000000c0: ddac 4b3e 7cbe b8be 90c6 8b3e eba8 023e
000000d0: 03cc 753d bafc 853e 9081 b43e 9c6f fb3d
000000e0: 891b 8c3e 8d98 c83e 81fa 713e ea99 e03e
000000f0: 4ff5 c03e 8e9c 44be 2a7c b43e 6af8 aa3e
00000100: f384 9f3e 5dc5 56be e48f 3fbe 0b45 ecbc
00000110: 6e08 d2be e85b ab3e 556e af3e 8cee 723e
00000120: a068 aebe de2d 13be f815 b33d 094d 88be
00000130: b09c 9cbe 69e9 973e dac3 1a3d 460d e6bd
00000140: 068f 85be f8ca b73e 9021 033e d6d0 a0be
00000150: 2c24 00be b055 a6be 8c92 c8be 7b5d a0be
00000160: f5b0 c8be 10bf 7c3e 1020 9c3d 0c26 443e
00000170: 4f20 a8be 4640 a8bc 4a35 923c 6de7 ebbc
00000180: f4e4 b53d acba aebe ec2c fc3d 66b0 2fbe
00000190: 69c7 b3bc 9c7f a5bd fb86 39be 6e0c bb3e
000001a0: 342b e83c 6a55 de3e 9ecd 873e 09fa 303e
000001b0: ea7b 6f3d 55d6 f63d cba4 b5be f3e1 e33c
000001c0: 7310 953e 7e72 c7be 5b3b 3c3e c81a af3e
000001d0: 8720 6b3e 1b46 b9be decb c9be 18ba 3cbe
000001e0: 8123 173c 67c9 983e 348b 6e3e 9987 1f3e
000001f0: 66cd d6be 00eb e1be 8a9f b03e 4efc 333e
00000200: c240 b83e 5714 b23d 1810 e43d 41d7 88bd
00000210: 1b42 90be 114f 90be 74bc dc3e 3af7 fe3d
00000220: 269b 263e cf83 ae3e 4009 b23e a2a4 863e
00000230: f64c edbd efd8 de3e b2df 9d3e b1a9 863e
00000240: 6cc3 babe d4c5 233e 55f6 ccbe f187 dcba
00000250: e23a f93c 3c51 7bbe a050 ab3e f71c a33d
00000260: d02e 013e 413f c3be be7d 9fbe 1c6f e7be
00000270: d60d 91be b520 c53e f2fd bb3e f331 f83d
00000280: e3c8 dd3e b300 c6be 122e 213e 2d9a 323d
00000290: efea b2be 2ed9 86be 695a ba3e 7ffc 19bd
000002a0: 902c b63e 3163 cebe 6053 e5bd 5e29 6cbe
000002b0: 5744 ef3c ef41 c0bd 86ad af3e 6df9 ba3d
000002c0: bad7 d7bd 4b03 9cbe 32ad a5be 2f48 27bd
000002d0: cdda 503d ecb4 69be 61ac 563e 15e3 eabe
000002e0: edb7 d9be d793 8dbe b115 b63c ffd6 b53e
000002f0: 18d6 97be 821f 6a3e f5b8 a7bd f6cb a1be
00000300: 5c6f 583e fe18 3e3e 87b1 a8be 7bed a73e
00000310: 556a 73be a341 a43e f26e 6fbe 8383 70be
00000320: 255c ce3d c9c3 873e 225d e03e 2bce b43d
00000330: 9c9b ccbc 1cbf b23e bbd2 b4be addd 563d
00000340: a30d c1be 3ae3 d0be e544 a43e f5a9 ea3a
00000350: eb98 653e c898 d03e ed69 99be e4c2 afbe
00000360: 4bce 40bd 2fe8 46bd fa71 16be 24fe 8a3e
00000370: ab6e bdbe 5bdd 95be 93fb 42be 4754 62be
00000380: e15d 5abe e8da 4d3e 9a28 453d 4c3f 78bd
00000390: aaa4 9abd 02f1 063e 0c2c aabe fb70 63be
000003a0: 3dbd 6f3e b9fc 22bc 4e60 8abe 61b7 9f3e
000003b0: f302 ecbd e589 1c3d 104b c63e 2b9b fe3d
000003c0: e64a 86bd 5b00 dbbe 1562 9bbe 91d7 68be
000003d0: f19d 35be 7f2c af3e df62 083e 83f4 883e
000003e0: 07c8 d43e 14e3 20bc a75f 9b3d c1a9 4abd
000003f0: dc75 5cbe 337c e6bd fd61 afbd 93d1 f13e

conv1.conv_1.bias f4 [64]
0.32390544 0.44205314 -0.38736057 0.15026933 0.02144308 0.30182847 0.078285195 0.058327626
0.35590294 -0.010820345 0.38612813 -0.069967225 -0.2670419 -0.27080435 -0.13621226 -0.4636784
0.06586728 -0.25486264 0.196669 -0.4154587 0.42747092 0.19587284 -0.20436561 0.06984765
-0.12183794 0.17813902 -0.46151522 -0.39997113 -0.4177565 -0.11892539 -0.44181338 -0.19332038
-0.26121086 -0.37503916 0.26092124 -0.014854735 -0.1517062 -0.12934713 0.24554583 -0.29931867
0.36314595 -0.21973811 0.20920575 -0.019357195 0.3289559 -0.14730926 -0.1319318 -0.24756363
-0.3313099 0.45366535 -0.289213 -0.028648302 -0.1011763 0.19811183 0.36087635 -0.27274054
0.011509668 -0.034565996 0.038466405 -0.35099605 0.060973246 -0.0308175 -0.22751707 -0.25306767
00000000: efd6 a53e ca54 e23e 2054 c6be 34e0 193e
00000010: 66a9 af3c 4389 9a3e fd53 a03d f3e8 6e3d
00000020: e938 b63e d147 31bc 96b2 c53e fa4a 8fbd
00000030: b7b9 88be dea6 8abe 3a7b 0bbe 4167 edbe
00000040: 6de5 863d 5b7d 82be 9963 493e 01b7 d4be
00000050: 78dd da3e e492 483e 3845 51be 490c 8f3d
00000060: 2b86 f9bd 136a 363e b94b ecbe 04c9 ccbe
00000070: 2ee4 d5be 288f f3bd 5d35 e2be c7f5 45be
00000080: 6ebd 85be 2205 c0be 7897 853e 4661 73bc
00000090: df58 1bbe 9373 04be 5e70 7b3e 4c40 99be
000000a0: 44ee b93e 0703 61be 083a 563e fb92 9ebc
000000b0: e86c a83e 3dd8 16be 2119 07be 5281 7dbe
000000c0: 74a1 a9be d346 e83e ba13 94be d8af eabc
000000d0: 8535 cfbd d4dd 4a3e c9c4 b83e a6a4 8bbe
000000e0: 0c93 3c3c 1395 0dbd f38e 1d3d c1b5 b3be
000000f0: 15bf 793d fb74 fcbc 3cfa 68be 1692 81be

conv1.conv_2.weight f4 [64, 64, 5]
0.077901825 0.05465828 -0.026606848 -0.01555256 0.032174874 -0.010047557 -0.033536516 -0.10898769
-0.06584528 -0.020098774 -0.013065093 -0.024378262 -0.044481356 -0.08284377 0.001948099 -0.05442121
0.02399335 -0.0050405 0.03906079 -0.015553605 -0.022897206 0.035872623 0.025654573 0.044637945
0.016311772 -0.008592692 0.08028516 0.049109317 0.021198498 0.013175242 0.05150977 -0.0067078383
0.07432178 0.020188296 0.060196284 0.016976176 0.017504204 0.0051837964 -0.02215171 -0.0047380445
0.07348811 0.028115718 0.035428137 -0.021878554 -0.025884574 0.006635126 -0.07756745 -0.07206501
-0.05760133 -0.058110356 0.059790477 0.032097396 -0.030031012 0.053256337 0.029094918 -0.021274732
0.05854384 -0.029800095 -0.02677267 -0.04087626 0.023010915 0.026689168 0.02463689 -0.050954115
-0.035967413 0.014986734 0.025186958 -0.030988455 -0.08847089 -0.09400898 0.010938522 0.068275094
0.050200865 0.021433463 -0.019197196 0.0040328316 0.020471929 -0.047742493 -0.011991945 -0.07499784
0.0024344686 -0.083737224 -0.048845842 -0.03996051 -0.079525135 -0.028346812 -0.07450727 -0.028059646
-0.06811758 -0.046071008 -0.08732966 -0.0010296868 -0.01935801 -0.017734807 -0.036849946 0.0035515337
-0.052269373 -0.0238094 0.00018757895 0.0024979098 -0.026490718 0.004385365 -0.014611194 0.027556015
0.013029653 0.03695329 0.017649256 0.04987731 -0.025654951 0.047191825 -0.015978586 -0.06216614
0.02218056 -0.013552097 -0.09545931 -0.022280589 -0.04873181 -0.041812006 -0.053723514 -0.10403269
-0.024516344 -0.0093392525 0.08910759 0.030897781 0.031749744 0.06590376 -0.037091285 0.026287267
0.039632622 -0.05145254 0.024997506 0.012194043 0.0048091025 -0.058363687 -0.039770048 0.053250335
0.028848054 0.019155636 -0.043082915 -0.007360552 0.06741396 0.072471686 0.070554405 0.06224367
-0.010832415 -0.008987277 -0.07048702 -0.04726375 -0.05471258 -0.023808971 -0.052986246 -0.006112576
-0.039026685 -0.007027265 0.010210056 -0.026676195 -0.06645488 -0.019716224 0.015747778 -0.0767365
-0.07100399 -0.0017790317 -0.03287703 -0.013417594 -0.016409874 -0.007863015 0.043043427 0.04674268
-0.034335766 0.003925843 -0.051056758 -0.060596544 -0.06472216 0.043873265 -0.039733186 0.01707555
-0.014788839 -0.089380346 -0.032235797 -0.046188056 0.0009003865 -0.09884857 -0.057546865 -0.10577193
-0.08682771 -0.051166818 0.01614023 0.008371098 -0.025152853 0.02752611 -0.00933255 0.012894582
-0.0363384 -0.09047906 -0.085621916 -0.019771144 -0.08346428 -0.07453309 -0.0002451897 -0.002397397
0.09114859 0.022830026 -0.011042958 -0.00042684237 -0.037678514 -0.037678663 -0.02516175 -0.07565947
-0.058567174 0.001211201 0.06279564 -0.013442197 0.022389168 -0.011041912 0.03411417 -0.050864488
-0.043268763 -0.052086957 -0.061722707 -0.009686299 -0.013724875 -0.05315853 -0.0857328 -0.0025353555
-0.012935283 0.07017574 -0.0023044792 0.059312977 0.025403513 0.053045265 0.0012495175 -0.07123335
-0.06537836 -0.015395124 -0.019688394 0.080268756 -0.020523882 -0.01714597 0.013672772 -0.029996332
0.022909965 -0.005713062 -0.0663836 -0.027695915 -0.07162975 0.007506018 -0.0014173021 -0.028647587
0.037119657 -0.007888618 -0.047231507 0.010325944 -0.013589868 -0.026924795 -0.07871581 0.07057074
00000000: fe8a 9f3d 5ce1 5f3d 9bf6 d9bc 2ad0 7ebc
00000010: cdc9 033d 829e 24bc 965d 09bd f034 dfbd
00000020: e4d9 86bd 2fa6 a4bc f90e 56bc ecb4 c7bc
00000030: 1532 36bd ffa9 a9bd 5b57 ff3a c6e8 5ebd
00000040: b48d c43c c72a a5bb 35fe 1f3d 8cd4 7ebc
00000050: ec92 bbbc 2cef 123d 8a29 d23c 47d6 363d
00000060: 44a0 853c 5dc8 0cbc 8c6c a43d da26 493d
00000070: 79a8 ad3c f8dc 573c e9fb 523d 6dcd dbbb
00000080: 0436 983d ed61 a53c 6190 763d 9f11 8b3c
00000090: fa64 8f3c d6dc a93b 8177 b5bc 9941 9bbb
000000a0: ef80 963d ef52 e63c 181d 113d a73a b3bc
000000b0: e30b d4bc 796b d93b afdb 9ebd d296 93bd
000000c0: 5fef 6bbd 2005 6ebd dce6 743d 8f78 033d
000000d0: 9903 f6bc 5123 5a3d 7758 ee3c 5948 aebc
000000e0: aacb 6f3d 541f f4bc 5c52 dbbc dd6d 27bd
000000f0: 6381 bc3c 3ea3 da3c 4ed3 c93c 43b5 50bd
00000100: 9152 13bd eb8a 753c e154 ce3c 80db fdbc
00000110: 3a30 b5bd c887 c0bd 7d37 333c d0d3 8b3d
00000120: 6c9f 4d3d 3b95 af3c 7043 9dbc d825 843b
00000130: bfb4 a73c a28d 43bd dd79 44bc 7898 99bd
00000140: 9b8b 1f3b 6c7e abbd 9412 48bd a2ad 23bd
00000150: 13de a2bd 9337 e8bc 4497 98bd 58dd e5bc
00000160: 3b81 8bbd f4b4 3cbd e5d9 b2bd 8ef6 86ba
00000170: b094 9ebc 9648 91bc f8ef 16bd d9c0 683b
00000180: 6918 56bd ee0b c3bc d7b0 4439 f9b3 233b
00000190: 1003 d9bc 1cb3 8f3b ca63 6fbc 27bd e13c
000001a0: 537a 553c 555c 173d 2c95 903c 264c 4c3d
000001b0: 552a d2bc 374c 413d 86e5 82bc eca1 7ebd
000001c0: 01b4 b53c 9d09 5ebc 2c80 c3bd c885 b6bc
000001d0: 029b 47bd 1143 2bbd 300d 5cbd 170f d5bd
000001e0: 80d6 c8bc aa03 19bc 0a7e b63d 581d fd3c
000001f0: 050c 023d 8df8 863d 08ed 17bd 6558 d73c
00000200: d155 223d e6bf 52bd 92c7 cc3c 86c9 473c
00000210: ad95 9d3b c30e 6fbd ebe5 22bd 061d 5a3d
00000220: c152 ec3c 48ec 9c3c b677 30bd c930 f1bb
00000230: 5510 8a3d 096c 943d d47e 903d 38f3 7e3d
00000240: 717a 31bc 5f3f 13bc 805b 90bd a297 41bd
00000250: 4c1a 60bd 080b c3bc 1b08 59bd 014c c8bb
00000260: 72da 1fbd f944 e6bb 1448 273c 0988 dabc
00000270: 7f19 88bd eb83 a1bc 7c01 813c 0728 9dbd
00000280: 8a6a 91bd 662e e9ba 11aa 06bd 78d5 5bbc
00000290: 006e 86bc e0d3 00bc 4e4e 303d 4175 3f3d
000002a0: a9a3 0cbd 5ca4 803b e420 51bd 1534 78bd
000002b0: 0d8d 84bd 74b4 333d 44bf 22bd 06e2 8b3c
000002c0: e34c 72bc 0b0d b7bd af09 04bd b02f 3dbd
000002d0: ea07 6c3a 1e71 cabd 43b6 6bbd f49e d8bd
000002e0: bad2 b1bd 4c94 51bd 8438 843c ee26 093c
000002f0: 5b0d cebc 707e e13c 8de7 18bc cc43 533c
00000300: 93d7 14bd 164d b9bd 8b5a afbd 18f7 a1bc
00000310: 52ef aabd cea4 98bd ce8c 80b9 a61d 1dbb
00000320: 1dac ba3d 0906 bb3c 86ed 34bc d0c9 dfb9
00000330: c954 1abd f154 1abd 0420 cebc 5af3 9abd
00000340: 22e4 6fbd 29c1 9e3a 009b 803d a93c 5cbc
00000350: 7d69 b73c 23e9 34bc 4dbb 0b3d 4857 50bd
00000360: 963a 31bd 2259 55bd f3d0 7cbd 48b3 1ebc
00000370: 4cde 60bc c2bc 59bd ae94 afbd 3528 26bb
00000380: 82ee 53bc 4cb8 8f3d bf06 17bb 2af2 723d
00000390: 071b d03c fe45 593d dac6 a33a cae2 91bd
000003a0: 17e5 85bd d53b 7cbc 8e49 a1bc f263 a43d
000003b0: b321 a8bc b575 8cbc c303 603c deba f5bc
000003c0: aead bb3c a334 bbbb 20f4 87bd 8be2 e2bc
000003d0: 9eb2 92bd 0bf5 f53b c4c4 b9ba 58ae eabc
000003e0: c80a 183d 433f 01bc d375 41bd 262e 293c
000003f0: 0aa8 5ebc 6391 dcbc c135 a1bd 6487 903d

conv1.conv_2.bias f4 [64]
-0.021552838 0.04173482 0.039470512 -0.042743847 0.0350432 -0.03332467 -0.019092008 0.02301405
-0.0069801025 0.025289528 -0.016979802 0.025928328 0.015986374 -0.01318878 -0.044423718 0.023276288
0.05553374 0.036510497 0.03059235 0.027960163 -0.016478652 0.0068297707 -0.015138934 0.048997436
-0.039593324 -0.056624286 -0.053505577 0.033361003 -0.013409849 0.04077973 0.033757955 -0.049360808
-0.05032945 -0.00071967946 -0.022752585 -0.003963286 0.018026933 0.016188676 -0.03850614 -0.04038663
0.029226668 0.0030669454 -0.055080507 0.049117923 -0.0425964 -0.004874144 0.03403665 -0.051097076
0.0045918254 -0.018260667 -0.042917527 0.005277688 0.03373535 -0.016363202 -0.033860732 -0.021515206
0.05150854 0.026712753 0.007280185 0.0108012175 -0.012991357 0.04134522 -0.01065388 0.022158865
00000000: 948f b0bc 21f2 2a3d d5ab 213d 2c14 2fbd
00000010: 7589 0f3d 737f 08bd d866 9cbc f687 bc3c
00000020: 58b9 e4bb fc2b cf3c 3a19 8bbc a567 d43c
00000030: dbf5 823c c115 58bc a5f5 35bd eaad be3c
00000040: 5977 633d 088c 153d cf9c fa3c b60c e53c
00000050: 3dfe 86bc 45cc df3b 4b09 78bc 89b1 483d
00000060: 9c2c 22bd deee 67bd aa28 5bbd 8ca5 083d
00000070: fcb4 5bbc a508 273d c845 0a3d 8f2e 4abd
00000080: 4126 4ebd dfa8 3cba a163 babc 74de 81bb
00000090: 38ad 933c 1d9e 843c 9db8 1dbd 736c 25bd
000000a0: c46c ef3c cefe 483b 199c 61bd e02f 493d
000000b0: 9079 2ebd 49b7 9fbb 046a 0b3d 2b4b 51bd
000000c0: 0677 963b 6597 95bc 4aca 2fbd 75f0 ac3b
000000d0: 142e 0a3d 1f0c 86bc 8db1 0abd a840 b0bc
000000e0: 9efa 523d b4d4 da3c 9e8e ee3b 97f7 303c
000000f0: b3d9 54bc 9b59 293d 9d8d 2ebc 8286 b53c

conv1.conv_3.weight f4 [64, 64, 5]
-0.03774288 0.002830963 -0.041078776 -0.0012774775 0.0106870225 0.010154171 -0.050595548 -0.002824847
-0.08054351 -0.05247507 0.022716003 -0.011781931 0.03371933 0.006949041 -0.0067387205 -0.027360668
-0.03849873 -0.032182403 -0.008523642 -0.040696144 -0.0039077783 -0.03443461 -0.058162086 -0.030369287
0.02435894 -0.07278121 0.020096613 -0.050052837 2.822522e-05 0.023859436 -0.038217492 -0.03833218
-0.029944682 0.07065041 0.03772614 -0.046051566 -0.044847257 -0.0814114 -0.011591649 -0.053027872
-0.005873973 -0.066654816 0.0012672677 -0.09038174 -0.058028296 -0.038419776 0.00496585 0.060809582
-0.029248107 -0.010757281 0.03465794 -0.0072888173 0.025367612 -0.024640476 -0.040542495 -0.069386855
-0.042456206 -0.049785975 -0.045070954 0.010042878 0.04211434 -0.0068038986 0.036414832 0.0788134
-0.015221479 -0.04907115 0.018573612 0.0033960692 0.033495005 0.027249238 0.0028318665 0.028737333
0.010727544 -0.014161177 -0.048005905 0.057694096 0.014096623 -0.03736943 -0.037163865 -0.042424805
0.03540218 -0.006568503 -0.0015489614 -0.0070713824 -0.03771579 0.014147768 0.048019115 0.02025952
0.046637755 -0.01834981 -0.040078923 0.0061363275 0.005825057 -0.024653185 -0.061350565 0.0052963006
-0.029357148 0.0052837487 -0.0031892746 -0.041150834 0.043196913 -0.025471784 -0.0025271142 0.05619716
0.051135395 0.01605333 0.030023267 -0.05361638 0.036376722 0.03549818 -0.03562323 -0.05421668
-0.01189024 -0.028504346 0.013166544 -0.043116864 0.020128667 -0.033607934 -0.08942065 -0.021015303
-0.040111974 -0.03711943 -0.066722244 -0.056538675 0.010593307 -0.007798571 0.018256698 -0.06649194
-0.048677843 -0.088613525 -0.028183527 -0.03536507 -0.017654 0.0022470593 -0.03464022 0.031910844
-0.017041225 0.027589422 -0.016636671 0.054151874 -0.06266532 0.024388492 -0.016705876 0.022871673
0.06641789 -0.017479466 0.012058715 0.02396833 0.06358118 0.056903645 -0.036616534 -0.065063074
-0.06818681 -0.034242325 0.027562028 -0.07751744 -0.06978445 -0.003768689 -0.07219981 -0.06938651
0.042525694 0.0154897515 -0.017625717 -0.057504162 0.010401091 0.02657303 0.0066139745 -0.00055750174
0.001532293 0.030442491 0.017667262 -0.020262698 -0.029282665 -0.04773665 -0.084420234 -0.0506855
0.011875605 0.02553074 -0.008513598 0.032315202 0.0041992245 0.040011708 -0.030539522 0.036512516
-0.062255517 -0.0062544844 -0.012696948 -0.07848685 -0.05028592 -0.06834322 -0.02417245 -0.06143412
-0.039536532 -0.078569636 -0.08400951 0.04715259 -0.03791128 -0.058694802 -0.06324446 -0.035139415
0.043632124 -0.036109738 -0.0041717943 0.020420719 0.0064080283 -0.035137653 -0.022268664 -0.0011389352
-0.017586887 -0.041219585 0.041196115 0.00172098 0.010193613 -0.024629124 -0.013963625 -0.03193676
-0.037719104 -0.05352515 0.0062712464 -0.03529845 -0.00974726 -0.0064663063 -0.006504768 -0.061592944
0.00424079 -0.06724361 -0.057998247 -0.065990575 -0.075674765 -0.085639454 0.103354074 0.01626199
0.010886374 -0.020589419 0.049634017 -0.024102796 -0.017441858 0.0015930263 0.0032812192 -0.004241178
-0.061003238 -0.018728262 -0.060035974 -0.06420404 -0.01862343 -0.016480187 0.01230825 -0.04665641
0.009499055 -0.076994084 -0.068583675 -0.011957114 -0.079947986 -0.07787364 -0.016537638 -0.028258407
00000000: 4798 1abd ae87 393b 3842 28bd 0871 a7ba
00000010: 9f18 2f3c ae5d 263c 473d 4fbd 1121 39bb
00000020: fff3 a4bd 19f0 56bd e916 ba3c 0009 41bc
00000030: 481d 0a3d c8b4 e33b 7cd0 dcbb 7b23 e0bc
00000040: d8b0 1dbd b2d1 03bd bfa6 0bbc 00b1 26bd
00000050: d20c 80bb 4e0b 0dbd 5e3b 6ebd 03c9 f8bc
00000060: 668c c73c 510e 95bd a7a1 a43c 3404 4dbd
00000070: 33c5 ec37 dd74 c33c f289 1cbd 3402 1dbd
00000080: 8d4e f5bc 2ab1 903d ba86 1a3d 91a0 3cbd
00000090: c2b1 37bd 05bb a6bd e6ea 3dbc c133 59bd
000000a0: 757a c0bb 5282 88bd 731a a63a 101a b9bd
000000b0: 14af 6dbd 0e5e 1dbd 92b8 a23b 7813 793d
000000c0: ba99 efbc 4f3f 30bc 7cf5 0d3d 08d7 eebb
000000d0: bdcf cf3c d3da c9bc e30f 26bd b21a 8ebd
000000e0: 8fe6 2dbd 61ec 4bbd 529c 38bd e28a 243c
000000f0: 1680 2c3d 3df3 debb b827 153d eb68 a13d
00000100: 8363 79bc d5fe 48bd b027 983c 9690 5e3b
00000110: 0f32 093d cb39 df3c d696 393b 8e6a eb3c
00000120: 95c2 2f3c 4804 68bc d7a1 44bd a550 6c3d
00000130: 86f5 663c b010 19bd 2339 18bd a2c5 2dbd
00000140: e001 113d 993c d7bb 8506 cbba 0eb7 e7bb
00000150: df7b 1abd 0acc 673c b1af 443d 4bf7 a53c
00000160: 3b07 3f3d 5752 96bc cc29 24bd 3f13 c93b
00000170: 1fe0 be3b 7af5 c9bc bb4a 7bbd 978c ad3b
00000180: 677e f0bc 4c23 ad3b 2603 51bb c78d 28bd
00000190: 3fef 303d 34aa d0bc f19d 25bb fe2e 663d
000001a0: 5973 513d 4682 833c 5bf3 f53c d99c 5bbd
000001b0: c2ff 143d 8a66 113d aae9 11bd 4f12 5ebd
000001c0: 48cf 42bc f281 e9bc 7db8 573c 4f9b 30bd
000001d0: e0e4 a43c 79a8 09bd 2c22 b7bd 4928 acbc
000001e0: 744c 24bd 8b0a 18bd aca5 88bd 1995 67bd
000001f0: 8d8f 2d3c 288b ffbb 128f 953c ed2c 88bd
00000200: 6b62 47bd 027b b5bd 24e1 e6bc f7da 10bd
00000210: 1f9f 90bc 6643 133b e7e2 0dbd f2b4 023d
00000220: 0a9a 8bbc 3603 e23c a149 88bc 5bce 5d3d
00000230: ad56 80bd 60ca c73c c3da 88bc 605d bb3c
00000240: 1a06 883d 1931 8fbc eb91 453c 3b59 c43c
00000250: da36 823d cc13 693d 38fb 15bd ca3f 85bd
00000260: 87a5 8bbd ae41 0cbd c3c9 e13c 77c1 9ebd
00000270: 26eb 8ebd 1cfc 76bb 7edd 93bd 841a 8ebd
00000280: 6c2f 2e3d bac8 7d3c cf63 90bc 7c89 6bbd
00000290: 5669 2a3c afaf d93c 0aba d83b 4f25 12ba
000002a0: 39d7 c83a 8862 f93c efba 903c f5fd a5bc
000002b0: 33e2 efbc 8187 43bd 84e4 acbd 999b 4fbd
000002c0: e691 423c d825 d13c 9e7c 0bbc f25c 043d
000002d0: a699 893b 51e3 233d 052e fabc 268e 153d
000002e0: a4ff 7ebd 6bf2 ccbb dc06 50bc b7bd a0bd
000002f0: 9cf8 4dbd 88f7 8bbd 4d05 c6bc 58a2 7bbd
00000300: 0ff1 21bd 1ee9 a0bd 2e0d acbd 1323 413d
00000310: dc48 1bbd f669 70bd 5086 81bd 59ee 0fbd
00000320: 99b7 323d cee7 13bd 8cb3 88bb 5a49 a73c
00000330: 70fa d13b 80ec 0fbd c66c b6bc 5348 95ba
00000340: 6012 90bc ded5 28bd 42bd 283d 8292 e13a
00000350: 1d03 273c 04c3 c9bc b0c7 64bc 1fd0 02bd
00000360: 597f 1abd 303d 5bbd 077f cd3b 1c95 10bd
00000370: f9b2 1fbc 4fe3 d3bb f325 d5bb e248 7cbd
00000380: 53f6 8a3b 05b7 89bd 928f 6dbd 1126 87bd
00000390: 5ffb 9abd bd63 afbd 4dab d33d dd37 853c
000003a0: c35c 323c 24ab a8bc 0a4d 4b3d 3a73 c5bc
000003b0: 3ae2 8ebc 18cd d03a b909 573b 94f9 8abb
000003c0: 88de 79bd 036c 99bc 48e8 75bd 687d 83bd
000003d0: 2a90 98bc 7501 87bc 8ba8 493c cb1a 3fbd
000003e0: eda1 1b3c 13af 9dbd 9975 8cbd c5e7 43bc
000003f0: c5bb a3bd 377c 9fbd f179 87bc 2d7e e7bc

conv1.conv_3.bias f4 [64]
-0.0027281235 0.018504526 0.021329362 -0.059714694 -0.038835146 0.040503193 -0.015605924 0.059633188
-0.05102505 0.023519015 0.021658778 -0.049251806 0.029502045 0.019161321 -0.028256752 -0.030785177
-0.0127044935 0.008988769 -0.060225833 -0.056547172 0.018509718 -0.0033595013 0.0039782287 0.020266319
0.0022175855 -0.007598112 0.0640378 0.00030689614 -0.045940507 -0.043318167 0.039743297 0.058114044
-0.051083308 -0.026359119 -0.016538091 0.05426101 0.009183627 0.02785556 0.042413455 0.0024370502
-0.0066658612 -0.000364775 0.030261902 0.05394576 0.024156606 -0.0032295 -0.05045561 -0.05253114
0.05212277 0.055413008 -0.041119955 -0.028721401 -0.06618489 0.04656571 -0.03524423 -0.0276551
-0.019042723 -0.03242332 0.060361076 0.007449356 -0.03421931 0.010544664 0.02121169 0.03422256
00000000: 51ca 32bb ce96 973c eaba ae3c 6597 74bd
00000010: 9a11 1fbd ade6 253d fdaf 7fbc ee41 743d
00000020: a5ff 50bd f3aa c03c c06d b13c 43bc 49bd
00000030: 46ae f13c 34f8 9c3c b47a e7bc 3231 fcbc
00000040: 8226 50bc a145 133c 5daf 76bd 029e 67bd
00000050: b1a1 973c 142b 5cbb cd5b 823b 8d05 a63c
00000060: e954 113b 95f9 f8bb 4026 833d e7e6 a039
00000070: 1d2c 3cbd 646e 31bd dec9 223d fe08 6e3d
00000080: bb3c 51bd 14ef d7bc e47a 87bc cb40 5e3d
00000090: ec76 163c 5831 e43c bbb9 2d3d ebb6 1f3b
000000a0: 4c6d dabb 463f bfb9 cfe7 f73c 3bf6 5c3d
000000b0: 13e4 c53c 05a6 53bb 8baa 4ebd e52a 57bd
000000c0: b07e 553d c0f8 623d 666d 28bd 2549 ebbc
000000d0: f28b 87bd b0bb 3e3d 415c 10bd f38c e2bc
000000e0: 7cff 9bbc 51ce 04bd 2d3d 773d ba19 f43b
000000f0: 8c29 0cbd 87c3 2c3c 23c4 ad3c f42c 0c3d

conv1.normalization_1.weight f4 [64]
0.8725925 1.0634538 0.98299164 0.9497877 0.9162492 0.86118436 0.96128887 0.9198192
0.9283263 0.9456574 0.897503 0.86214507 0.89062613 0.93190753 0.9581026 0.9202336
0.9906042 0.9376186 1.0337726 0.94406277 0.8761712 0.9408247 0.9414121 1.0677676
0.97051054 0.915161 0.972366 0.85913825 0.9215406 0.96147615 1.0739063 0.9975258
1.0801257 0.9570091 1.0113852 0.95300287 1.0073538 0.99589413 0.95833 1.0465552
0.9078211 0.9643099 0.8952194 0.96810263 0.9346717 0.9481204 0.96028554 0.8821227
0.96352524 0.8859973 0.96302325 0.9067136 0.98344773 0.8786746 0.94769377 0.9459446
0.82882243 0.9709192 0.96583873 0.9601527 1.0337671 1.0288141 1.0213627 1.0626534
00000000: 3962 5f3f 411f 883f 57a5 7b3f 4925 733f
00000010: 4f8f 6a3f 9476 5c3f 0717 763f 4579 6b3f
00000020: cba6 6d3f 9a16 723f c2c2 653f 8ab5 5c3f
00000030: 1300 643f 7e91 6e3f 3646 753f 6e94 6b3f
00000040: 3d98 7d3f c607 703f a952 843f 19ae 713f
00000050: c14c 603f e3d9 703f 6200 713f 9cac 883f
00000060: 6173 783f fe47 6a3f faec 783f 7cf0 5b3f
00000070: 16ea 6b3f 4d23 763f c375 893f da5d 7f3f
00000080: 8f41 8a3f 8cfe 743f 1275 813f fff7 733f
00000090: f8f0 803f ebf2 7e3f 1d55 753f 85f5 853f
000000a0: f766 683f 03dd 763f 192d 653f 93d5 773f
000000b0: a546 6f3f 05b8 723f 46d5 753f cbd2 613f
000000c0: 97a9 763f b8d0 623f b188 763f 621e 683f
000000d0: 3bc3 7b3f d2f0 603f 0f9c 723f 6d29 723f
000000e0: b52d 543f 298e 783f 3541 773f 91cc 753f
000000f0: 7b52 843f 2eb0 833f 03bc 823f 0705 883f
