dl_ouptut/attn.pth (torch, 567545 bytes, 43 tensors)

rnn_layer.rnn_layer.weight_ih_l0 f4 [256, 50]
000000 f6 c1 d9 3c 99 3b 8b bd 5d fd 59 3e 5a 1e ec 3c
       0.026581746 -0.06798477 0.21288057 0.028823067
000010 3a 1c 0c 3d c6 df 10 3e 80 15 97 3d 8a ac 1e be
       0.034206606 0.14147863 0.07377148 -0.15495506
000020 e5 a8 12 be 64 2a 87 3c 71 23 92 bd 9a ba 87 3c
       -0.1432224 0.016499706 -0.07135666 0.01656847
000030 0a 9e d7 3d 38 c1 63 3e ca 79 1e 3e 25 ee 01 3e
       0.105281904 0.22241676 0.15476146 0.12688501
000040 be ff 47 3e 48 0c aa 3d de f7 8e 3d ec 6f 4b bd
       0.19531152 0.08303124 0.06980871 -0.049667284
000050 3c e6 28 bd 7e 99 96 bc f1 e6 e4 bd 11 9b d8 bd
       -0.041235194 -0.018383738 -0.11176861 -0.105764516
000060 ea 0f 7b 3d 5f 8c 07 3e 4b 0e 64 3e 34 68 73 bd
       0.061294474 0.13237141 0.22271077 -0.059425548
000070 38 ae 1c 3e b4 6f ae bd b4 09 72 bd a5 c3 03 3e
       0.15300834 -0.085173994 -0.059091285 0.12867601
000080 12 95 c9 3c b2 18 11 3d 48 93 0f bd b3 dc ad 3d
       0.024607215 0.035423942 -0.035052568 0.08489361
000090 aa 2e 4b 3e d6 9b 70 3c e6 e2 43 3e aa 41 43 bd
       0.1984202 0.014685592 0.19129524 -0.047670044
0000a0 df 7b cb 3d 8d eb c5 bd 8e 08 d0 3a 5d 4f 6f 3d
       0.09935736 -0.09664068 0.001587169 0.058425296
0000b0 4c e8 d0 bc 25 5b e5 bc 05 d8 e5 bc a8 a0 1c be
       -0.025501393 -0.027997563 -0.028057108 -0.1529566
0000c0 23 39 cf bd 5f db 9d bd f2 17 dd bd 1c 2a d1 bd
       -0.1011832 -0.07707857 -0.10795583 -0.1021311
0000d0 4b f1 fc bb 19 cf 77 bd 11 ed 22 3d 95 67 81 3d
       -0.007719194 -0.060500238 0.039776865 0.06318585
0000e0 16 0b 1d be a9 69 68 b9 15 1a 3b be c4 60 2d bd
       -0.1533626 -0.00022164606 -0.18271668 -0.04232861
0000f0 85 02 3f be 5d 23 11 be 22 2f e1 3c e4 a6 3f be
       -0.18653305 -0.14173646 0.027488295 -0.18716007
000100 cb 6f d4 bd 2a 77 c8 bd 74 2d 9d bc 3e 9e 66 3d
       -0.10372885 -0.09788354 -0.019186713 0.056303255
000110 fb 61 05 be 28 ef 27 bc a8 90 99 3d 62 f9 f1 bd
       -0.13025658 -0.01024989 0.07498294 -0.11815144
000120 bc 1b 3b bd 0f c2 42 3d ef 54 2f bc 2c 2e 96 bd
       -0.045680746 0.04754835 -0.010701402 -0.07333025
000130 71 24 59 bc ec 64 14 bd 9f 8b fc 3b f9 e8 bc 3d
       -0.013253317 -0.03622906 0.007707074 0.092241235
000140 2b c4 71 3d 2b 2d b2 bd 43 eb 85 bc 69 15 0f 3d
       0.05902497 -0.08700021 -0.016347533 0.034932528
000150 76 d8 d5 3d 27 af bb 3d e0 63 d9 ba 06 fb 94 3d
       0.10441677 0.09164267 -0.0016585551 0.072744414
000160 66 ff cc 3d 3d c6 2d 3e 4f 82 16 bd ce 1c 07 3d
       0.10009651 0.16970153 -0.036745366 0.032986455
000170 24 93 bc 3d d4 e3 74 bd fd cf 38 3d 90 82 2b bd
       0.09207752 -0.059787586 0.045120228 -0.04187256
000180 bb c4 22 bc f5 5c c6 bd b4 ff 12 3e f9 79 56 bd
       -0.0099345995 -0.09685699 0.14355356 -0.052362416
000190 c1 07 51 bc 78 23 18 bd ae 0a 80 bd 84 b7 04 be
       -0.012758196 -0.0371432 -0.06252037 -0.1296063
0001a0 39 8f e7 3d 58 76 eb 3d be e7 95 bd c0 bb 8c bc
       0.113066144 0.11497182 -0.07319592 -0.01717937
0001b0 19 30 93 3d 46 9b 12 3d 69 a4 8d bc b4 f4 c8 3d
       0.07186908 0.03579261 -0.017290311 0.098122984
0001c0 6e 0e 6a bd 7a d8 83 3b 8b 1a 8f bd 90 d9 a5 3d
       -0.057142667 0.0040236088 -0.069874845 0.080981374
0001d0 33 f6 21 3d 5f 35 05 3e bf b2 9f bc 43 d6 06 bd
       0.039541434 0.1300864 -0.019494412 -0.03291918
0001e0 7f 1c 0c 3e db ea e5 3d d3 05 aa 3d 7a 20 af 3d
       0.13682745 0.11226436 0.08301892 0.08551116
0001f0 d9 be 34 3d 98 e4 e7 bd b0 8a 4a 3c d7 d9 fc bc
       0.04412732 -0.11322898 0.012362167 -0.030865593
000200 eb 9e 89 bd b6 47 05 3d 85 43 27 3e e0 65 73 3e
       -0.06719764 0.032539092 0.1633435 0.23769331
000210 14 1d 10 3e ed 82 39 3e a1 e9 79 3d 57 87 41 3e
       0.14073592 0.1811635 0.06101382 0.18899284
000220 78 27 5a 3d 10 ed ae bc 6f 25 8d 3c 93 f4 af bc
       0.053260297 -0.021353275 0.017229764 -0.021478927
000230 45 71 2b 3d a0 36 cf bd 4c 37 7f 3d b0 f6 4f 3d
       0.04185607 -0.10117841 0.062308595 0.05077237
000240 e1 6e ee 3d 9f 38 3d bd 52 38 f0 bc c6 ef 36 3d
       0.11642242 -0.046196576 -0.02932373 0.04466226
000250 7c 16 84 3c d7 da 35 3b af 5d c1 bd 34 f3 87 3d
       0.016124003 0.0027748847 -0.09441697 0.06638184
000260 44 5b df bb 81 65 85 3c 6f 30 ac 3d 7e f0 14 3e
       -0.0068162996 0.016283752 0.084076755 0.14544865
000270 27 77 20 bd 87 27 10 3e 59 d8 ec bc 21 fe e2 3d
       -0.039176133 0.14077578 -0.028911756 0.110836275
000280 c4 b3 75 3d 8a 48 25 3d 99 30 00 3e 82 df d6 3d
       0.05998589 0.04035238 0.12518539 0.104918495
000290 3a f9 d9 3d 8c 9a f6 3d 50 2c 04 3e 6b 3a c9 3c
       0.10643239 0.12041196 0.12907529 0.024563989
0002a0 78 bd c3 bd 19 4e 09 3e 8e 4e 9f bd 0f 13 87 3d
       -0.09557623 0.13408698 -0.07778655 0.06595432
0002b0 c0 d9 88 bd d7 71 43 3d ad c0 09 bc 05 84 a3 bc
       -0.066821575 0.047715988 -0.008407754 -0.019960413
0002c0 92 10 62 bd 57 a1 eb bd 94 cf 60 bd 20 32 df 3d
       -0.055191584 -0.115053825 -0.054885462 0.108982325
0002d0 f7 ed 51 3e 5c fd 73 bc 96 1b f8 3d a1 b3 0a be
       0.20500933 -0.014891949 0.121146366 -0.13545085
0002e0 fb ec ca bd fc ec 34 be 31 4d 2d be 2f 4e 2b bc
       -0.09908482 -0.17668527 -0.16923977 -0.010455652
0002f0 b0 4f b3 bd b7 34 f6 bd 45 a4 0d be dd f4 a9 bd
       -0.087554336 -0.12021773 -0.13832195 -0.08298657
000300 d4 88 d1 3c 6e aa 64 bd a7 92 bf bc ac 7f 9d 3d
       0.02557794 -0.055826597 -0.023385359 0.07690367
000310 3d 64 12 bd 4d 08 2f bd c1 be 02 be ee 2f 01 3d
       -0.035740126 -0.042732526 -0.1276808 0.03153985
000320 3d 24 06 3d 4b 94 b7 bd fa f5 ae bd 64 61 73 be
       0.032749403 -0.089638315 -0.0854301 -0.2376762
000330 e8 9d 8d bd f5 5a 90 be ea 19 8a bd e9 8a 31 be
       -0.06914884 -0.28194395 -0.06743224 -0.17338146
000340 be a6 60 be cb cf c9 bd f8 2c a6 bd cb d9 84 3c
       -0.21938607 -0.098540865 -0.08114046 0.016217133
000350 4c 40 e8 3d ea 90 ab 3d 20 d7 c2 3d 20 84 03 3e
       0.11340389 0.083772495 0.09513688 0.1284337
000360 70 ec ee bd fa 79 1d be 00 3b e2 3c 70 87 c9 3b
       -0.116661906 -0.15378562 0.027616024 0.0061501786
000370 6b c7 aa bd 12 56 b2 3d 55 df dd bd ba 38 8b 3d
       -0.08338817 0.08707823 -0.10833613 0.06797929
000380 57 b8 0e bd ce 2a 9f 3b a3 b5 c3 3c 63 ca 2a bd
       -0.03484377 0.0048573976 0.023890322 -0.041696917
000390 b0 44 1d 3d 70 f5 be 3d c0 40 2f 3e 31 32 0b bd
       0.038395584 0.09324157 0.17114544 -0.033983413
0003a0 59 2b 1e bd 0f 3f 9c 3d d4 42 7b 3d c7 8b 88 3c
       -0.03861556 0.07629215 0.06134303 0.016668214
0003b0 6e 87 38 be 6d a3 3f be db 19 13 be 8c 05 6c bd
       -0.18020412 -0.18714686 -0.14365332 -0.057622477
0003c0 b4 30 3d 3d 89 51 f9 3c 5e 74 9e bc 7a e0 29 3d
       0.046189025 0.030434387 -0.019342598 0.041473843
0003d0 5e 25 9a bd 4c f9 4a 3d cd ea fc 3d d3 16 72 bd
       -0.075266585 0.049554154 0.12349472 -0.059103798
0003e0 d8 8f e8 bc 96 f6 ee 3d 85 26 52 bc 4e 14 5a bc
       -0.028388903 0.11668126 -0.012826567 -0.013310505
0003f0 7b 44 03 be 45 0f 8d bc 45 f1 c0 bc 51 ee 11 3c
       -0.12819092 -0.017219195 -0.023552546 0.008906917

rnn_layer.rnn_layer.weight_hh_l0 f4 [256, 64]
000000 a7 0f 37 3d ae ba 60 bd 0b c7 78 bd bb e0 4a 3e
       0.04469266 -0.05486553 -0.060736697 0.1981229
000010 80 19 21 be 0e 7d 68 bd 82 e0 8d 3d d0 30 72 bd
       -0.15732384 -0.056759886 0.06927587 -0.059128582
000020 7a af fe 3d 6f 2c 0e be 1b 7a fa 3d 80 6c 31 be
       0.12435813 -0.13884138 0.12230321 -0.17326546
000030 ad f1 7a 3b 86 8f f5 3c f7 7d e6 b9 18 50 8c 3d
       0.0038291023 0.029975664 -0.0004396287 0.06851214
000040 dd 56 95 3c 46 7c 63 3d 80 c0 9b bd b9 34 0e 3e
       0.018229896 0.05553844 -0.07605076 0.138873
000050 dc 1d 0c be 79 c3 98 bd 24 f8 99 bc 94 84 a4 3d
       -0.13683265 -0.074591585 -0.01879508 0.080331
000060 dd 06 4d 3d 4e ea 91 ba 91 1a b1 bd 81 38 53 bc
       0.050055373 -0.001113245 -0.08647645 -0.01289189
000070 b8 51 69 3d ec a1 4e bd 4a d6 0b 3e 8d 46 fa bc
       0.0569627 -0.05044739 0.13655964 -0.03055122
000080 a8 4a ae 3d 8d cf ae 3d 43 44 22 bd 52 94 cb 3c
       0.08510333 0.08535681 -0.03961588 0.024850998
000090 5e 41 90 bd b2 f8 fb 3b b1 e7 91 bd aa d1 1d bd
       -0.07043718 0.007689559 -0.0712427 -0.03853003
0000a0 64 98 90 bd 59 34 92 3d ca 28 21 be 25 2d e3 bc
       -0.07060316 0.07138891 -0.15738216 -0.027731488
0000b0 38 b9 eb 3d 5e 9f 19 3e 36 b2 b2 bb f0 16 40 be
       0.11509937 0.150022 -0.0054533733 -0.1875875
0000c0 21 ef 72 3d 18 61 7c 3d a4 90 52 bd c9 fb e3 bd
       0.059310082 0.061616033 -0.05140747 -0.111320086
0000d0 b0 ed 08 3d 12 ff 4c 3d b0 7f 76 bd d9 39 79 bd
       0.0334298 0.05004794 -0.060180366 -0.060846183
0000e0 fc 94 c8 3d 37 13 56 bd ff b5 97 bd 85 27 20 3b
       0.097940415 -0.05226442 -0.0740776 0.0024437618
0000f0 14 08 c5 bd 71 17 d3 3d 4b e4 d0 bc b7 af c9 3d
       -0.096206814 0.103072055 -0.025499484 0.09847968
000100 f7 70 1a 3e ee 59 eb 3c 2d 06 80 bd 02 06 0c 3e
       0.15082155 0.028729405 -0.06251178 0.13674167
000110 11 ea 05 3d 87 5e ae 3c b0 ff 11 3e fb 76 a5 bd
       0.032693926 0.021285309 0.14257693 -0.08079334
000120 e6 9e c6 bd 90 90 89 bd fa 17 15 be 80 da fd bd
       -0.09698276 -0.06717026 -0.14559928 -0.12395191
000130 b2 0c 53 bd 7d 0f ff bd 5f 01 ff 3d 5d 51 e9 3c
       -0.05152578 -0.12454126 0.124514334 0.02848118
000140 0e b6 01 bd 9f 40 6e 3d 31 14 f0 bd c6 0c 8f bd
       -0.03166776 0.058167096 -0.11722601 -0.06984858
000150 80 33 16 be b9 43 a1 bd 91 5e f8 3c 56 af 81 3d
       -0.14668083 -0.07874245 0.03031853 0.06332271
000160 84 17 0c 3e 5f c4 90 3d ab b0 d1 3d 03 24 a0 3b
       0.13680845 0.07068705 0.10238775 0.0048871054
000170 2f 1f a6 bd e5 5b f3 3c f3 cd 53 3e 73 01 21 be
       -0.081114165 0.029706905 0.20684032 -0.15723209
000180 57 0a 90 bd 6a 5e ff bd 20 9b c6 3d ac 45 01 3c
       -0.07033222 -0.1246918 0.096975565 0.007890146
000190 75 8b e7 bc df 3e 1b 3d e7 8e 64 3d 12 07 57 3d
       -0.02826474 0.037901755 0.055800345 0.052496977
0001a0 b6 8a 44 bc ef 38 66 3d 45 9f b2 3b 5a 40 9a bc
       -0.011995962 0.05620664 0.0054511153 -0.018829513
0001b0 97 ec 6f bd 24 05 af bd 7d b4 e5 bd da 28 79 bd
       -0.05857524 -0.08545902 -0.11216066 -0.060829975
0001c0 32 18 33 be b0 a9 01 3e 15 64 fd 3c 71 d7 c2 3d
       -0.17489699 0.12662387 0.030931512 0.095137484
0001d0 8f 57 97 3c c8 11 ef bd 18 63 f8 bd 09 b3 6a 3d
       0.018474368 -0.116733134 -0.12128276 0.057299647
0001e0 7d 6a 10 3e 58 5c 9c bd 15 4a 8b 3c aa 62 b4 3d
       0.14103122 -0.07634801 0.017003099 0.08807881
0001f0 7b 30 38 3d 5c 6a 7e 3d fe d7 55 3d 97 29 8d bc
       0.04496811 0.06211315 0.05220794 -0.017231746
000200 87 7b b4 3d 03 20 1d bd da 3e ac bd 5c 55 af bd
       0.088126235 -0.038360607 -0.084104255 -0.08561203
000210 38 b1 5f bd 03 18 90 3d 8e df fa 3a 69 db 0f 3e
       -0.05461237 0.0703583 0.0019140111 0.14048542
000220 98 5a 1f bb 2a 32 20 3d 0a 0c 2b be ef bd b4 bd
       -0.0024315473 0.03911034 -0.16703811 -0.088252895
000230 61 c0 1b 3e 78 04 b3 bd d9 77 06 be 8e 64 10 be
       0.15210105 -0.08741087 -0.13131656 -0.14100859
000240 d9 66 c9 bc cf 44 aa 3d 74 9b ff bc 43 d8 12 3e
       -0.024585174 0.083139054 -0.031202056 0.1434031
000250 6e e9 53 bd 5b b8 59 3c d8 d9 8c 3c 77 d1 b1 3c
       -0.051736288 0.013288583 0.01719372 0.021706326
000260 77 2a 1b be 22 38 c3 3d b3 b4 bf 39 ba 5e 10 be
       -0.15152918 0.09532191 0.0003656499 -0.14098635
000270 ca 42 98 bd a8 66 ec 3d a9 43 03 be d3 20 4e bc
       -0.07434614 0.115430176 -0.12818779 -0.012581068
000280 fd 87 c0 bc 26 fd 64 bd f1 1a 9f bd 6c 94 25 3d
       -0.023502344 -0.055905484 -0.077688105 0.04042475
000290 85 91 1b bd 66 69 56 3b 15 dc d1 3a ff 79 a0 bd
       -0.037980575 0.003271663 0.0016011024 -0.07835769
0002a0 26 88 49 bd eb 62 64 3d 31 72 f8 3c 7f 14 a9 bc
       -0.049202107 0.055758398 0.030327888 -0.020639656
0002b0 64 6f 6b ba 7c 55 12 3e 28 b2 a4 bd c0 29 32 bd
       -0.0008981137 0.14290422 -0.08041793 -0.043496847
0002c0 2d 10 bd 3d 20 66 96 bd 0d a1 7f bd ab 33 03 3e
       0.09231601 -0.073436975 -0.06240945 0.12812679
0002d0 17 c3 02 be 67 a1 8b 3d 67 e1 92 bd cd 03 c9 3d
       -0.12769733 0.068178944 -0.07171898 0.09815178
0002e0 f3 f9 dd 3c c4 37 6a be f9 cf 3a 3d 7d ba 01 3e
       0.027096724 -0.22872835 0.045608494 0.12668796
0002f0 b6 ee 67 bd 64 93 e9 bd 52 12 45 bd 59 7b e9 bd
       -0.056624137 -0.11405066 -0.048113175 -0.1140048
000300 d2 d0 ae 3c 63 e9 02 3e c4 bc 01 bd 29 fe d8 3c
       0.021339808 0.12784342 -0.03167416 0.02648838
000310 c0 23 b0 3d c6 21 04 bc 7e 9e ed bd 72 02 ea 3c
       0.08600569 -0.008064693 -0.116024956 0.02856562
000320 bd b9 d1 3a 8b 4e cb bd 27 6a 50 3d 7a 24 18 3e
       0.0016000789 -0.0992709 0.050882485 0.14857665
000330 fa 82 3e 3e c0 90 5a 3d 7b 21 ac bb 75 07 f4 3c
       0.18604651 0.0533607 -0.0052530146 0.029788712
000340 18 24 07 3e 4d 85 94 bd 55 a0 bd 3c 87 2d dd bc
       0.13197362 -0.072519876 0.023147741 -0.026999248
000350 54 b8 c3 3d 0e 24 2c 3d 07 11 fa bc 5a d4 09 be
       0.09556642 0.042026572 -0.030525697 -0.13459912
000360 1c 58 83 bd ca 4a 29 3d 96 5f 64 3e 76 da 3d 3e
       -0.0641329 0.04133109 0.22302088 0.18540367
000370 27 48 4a be c4 28 23 bd ef 1b 22 bc 7e 1d 75 bd
       -0.19754086 -0.0398338 -0.009894355 -0.05984258
000380 74 ad f5 bd ce bb 2d 3d 10 c4 d8 bb 9d 51 09 3b
       -0.11995974 0.042415433 -0.0066151693 0.0020953186
000390 79 15 4f bd 2a 5f 54 3d 0e 28 0e bd 01 fa e7 3b
       -0.050557587 0.051848568 -0.034706168 0.0070793633
0003a0 63 0b 87 3c 5f 04 a4 bd 8e e1 17 3e 9b 68 05 3d
       0.016484922 -0.08008646 0.14832136 0.032570463
0003b0 2d e9 b1 3d d4 ea 82 3c c4 c9 01 3c c6 80 95 bc
       0.08687053 0.015981115 0.00792164 -0.01824988
0003c0 0f 05 24 be 35 e5 d9 3c b1 7c 93 3d 46 e9 e0 3d
       -0.16017555 0.026598552 0.072015174 0.109819934
0003d0 00 86 da bb c0 b7 7c bd 83 d9 d7 bd ed f6 ba 3d
       -0.006668806 -0.061698675 -0.10539534 0.091291286
0003e0 23 ac 1e be 0c c4 0e be 6d 3c af 3d 33 fe 11 3d
       -0.15495352 -0.13941973 0.08556447 0.035642814
0003f0 bf 90 18 3e 7c d4 2c 3e 79 6b 35 3e 33 ef 79 bd
       0.14898966 0.16877931 0.17716779 -0.061019134

rnn_layer.rnn_layer.bias_ih_l0 f4 [256]
000000 5c 79 a6 3d 0e 8b 90 3d 36 8d 4f bc 3f bc 21 3e
       0.08128616 0.070577726 -0.012667945 0.15794466
000010 f9 95 1d 3e 83 1e 0f 3d 62 cf 41 bb 19 ec 15 3e
       0.15389241 0.034941208 -0.0029573073 0.14640845
000020 4c 0a eb 3c 8a a5 9c 3d a3 bf 6c bb ab eb 82 bd
       0.028691433 0.076487616 -0.0036124967 -0.06392606
000030 a6 e0 64 bd fa dc 68 3d 67 11 02 3e 81 16 ea bd
       -0.055878304 0.056851365 0.12701951 -0.114300735
000040 bf f0 32 bd 6f d5 a4 3c b7 50 2f bd c7 40 5b bd
       -0.043686625 0.020121304 -0.042801585 -0.053528573
000050 bc 65 8c 3d 38 e0 84 bd 81 19 88 bd 37 94 2a 3e
       0.06855342 -0.06488079 -0.066454895 0.16658102
000060 e9 b7 87 3d b2 e7 fd 3c 68 01 3a bb e2 56 51 bd
       0.06626875 0.03099427 -0.0028382186 -0.05110825
000070 ea 5a 90 bd e3 78 d5 3d 1b 30 5a 3e 3c a6 2f 3d
       -0.070485905 0.10423448 0.21307413 0.042883143
000080 b7 dc 19 3e d6 27 89 3d ca b9 c9 3d bc 45 30 3d
       0.15025602 0.06697051 0.098498896 0.043035254
000090 fb 3b d7 3d e5 0e 8b bb 3d 74 9a bd 74 5f cc bd
       0.10509487 -0.004243719 -0.07541702 -0.09979144
0000a0 75 8d f5 3c 84 20 17 3e a8 31 a6 bd 8f 51 0b 3e
       0.029974679 0.14758497 -0.0811494 0.13605331
0000b0 b8 a2 94 bd dd e9 9c 3c c6 7c 9e bd 72 6d e2 ba
       -0.07257599 0.019154483 -0.077386424 -0.0017275049
0000c0 3c 38 fb bc bb 2d f3 bd 80 5a 1b 3e bc 5d eb bc
       -0.030666463 -0.11873957 0.15171242 -0.02873122
0000d0 70 6e 80 3d f4 5e 44 bc f1 d8 a5 bd a2 b7 89 3d
       0.06271064 -0.011985529 -0.08098019 0.06724478
0000e0 8a 5e 02 be 1f 46 86 bc 9c 97 89 3d d6 ba 1b 3e
       -0.12731376 -0.016390858 0.0671837 0.15207991
0000f0 7e 39 8f bd 14 2f d4 3d b1 0c 05 3e e4 84 bf 3d
       -0.06993388 0.10360542 0.12993123 0.09351519
000100 23 6d ad 3d 17 2e 49 bc 69 5d b9 3c e2 be 11 3e
       0.08468082 -0.012279055 0.02262755 0.14232972
000110 f3 b1 75 bc 14 f8 6f 3d 72 fa 54 3d b5 79 d5 3d
       -0.01499604 0.058586195 0.051996656 0.104236044
000120 d1 4b 92 3c 46 45 a7 3d 79 38 48 bd 86 1a d9 3d
       0.017858418 0.0816751 -0.04888198 0.10600762
000130 38 ca a4 bd 14 7b 05 bd 61 8d a0 3d 20 af 0e bd
       -0.08046383 -0.03258808 0.07839466 -0.03483498
000140 38 0a 7a bb 60 68 c0 bb ea 52 b4 3d e4 7d 11 3d
       -0.0038153064 -0.0058718175 0.08804877 0.03552045
000150 4d a8 44 3e 93 30 85 3d 6f 62 8a 3d d8 1b b4 3c
       0.19204827 0.065034054 0.06757056 0.021985933
000160 39 54 c1 3d f5 54 cb 3d d7 a8 ae 3c ab 12 7b bd
       0.09439892 0.09928314 0.021320743 -0.0612971
000170 bd 0c dd 3d 23 1f 04 3e f8 f6 40 3e e5 b6 d6 bd
       0.10793445 0.12902503 0.18844211 -0.10484103
000180 d3 40 33 bd 19 d4 6d bd 18 9d 1d bd fe 5e d7 3d
       -0.043762993 -0.0580636 -0.038479894 0.10516165
000190 0c 1a 4d 3d 80 19 dc 3c 9a 35 73 bd fa 6c 83 bd
       0.05007367 0.026867628 -0.05937729 -0.0641727
0001a0 5a a9 b4 bc cc 4f ab 3b a9 0c 54 bd 4b 3b 0f 3e
       -0.02205341 0.0052280184 -0.051769886 0.13987462
0001b0 ed 37 bb 3d ea a1 0b 3e 4c d1 e7 3c 05 3b f9 3d
       0.09141526 0.13635984 0.028298043 0.1216946
0001c0 67 b2 27 3d cc 84 34 3d b6 cd 94 3d 05 b3 38 3d
       0.040941622 0.044071957 0.07265799 0.0450926
0001d0 d5 14 61 bd 3a 72 a2 3d a6 6b 14 3d f2 e1 19 3e
       -0.054951508 0.07931943 0.036235474 0.15027598
0001e0 8a f2 96 3d b3 73 50 3e 7e 22 ec bd 80 1c cc 3b
       0.073704794 0.20356636 -0.11530016 0.0062289834
0001f0 5d 96 2f bc 16 e7 93 3c 55 df 0b bc 7c 8e e5 bd
       -0.010717002 0.018054526 -0.008537133 -0.11208817
000200 61 38 03 be 41 7a 9c 3d fd cd 49 3d 71 94 77 3c
       -0.12814476 0.076405056 0.04926871 0.015111075
000210 99 13 ab bd c8 8b a7 3c d8 ce 92 3c 24 1d 81 bd
       -0.08353347 0.020452395 0.017920896 -0.06304386
000220 31 8c 73 3d 1d c7 0d 3e f0 2d 95 3d cb a9 34 3d
       0.05945987 0.13845487 0.072841525 0.04410724
000230 a0 c8 db bd 19 47 41 3d 3d 50 b9 3d eb 29 1f 3d
       -0.107316256 0.047186945 0.09048507 0.038858335
000240 1b 5d db 3d fc b4 96 3d d4 1c 20 3d da 31 ce 3b
       0.10711118 0.07358739 0.039089993 0.006292564
000250 6a 3c 2e 3d 17 3b d6 ba 82 01 13 bd 17 9d cc 3c
       0.042538084 -0.0016344514 -0.03589011 0.02497725
000260 57 17 b4 bd b6 f4 00 be 94 8c 43 bb c2 ba b0 3d
       -0.08793514 -0.1259335 -0.002983843 0.08629371
000270 67 da d9 bc 4a f4 00 be cf 1c 13 3e 4e b3 cf bd
       -0.0265934 -0.12593189 0.14366458 -0.101416215
000280 53 02 89 3d 0c 20 1a 3c 64 4e 55 3b e5 87 31 bd
       0.066898964 0.009407055 0.0032547945 -0.04334249
000290 58 e4 d6 3d 20 55 5d bd b2 78 a7 bd 64 50 da bd
       0.10492772 -0.05403626 -0.08177318 -0.106598645
0002a0 ce 32 a1 bd 6d 4d 0a bd a0 5f c5 bd 4b 13 00 be
       -0.07871018 -0.033765245 -0.0963738 -0.1250736
0002b0 7d 0e a7 bc 87 66 bc 3d 32 ec ad bd 6c 9f f6 bd
       -0.02039265 0.09199243 -0.08492316 -0.12042126
0002c0 35 bc 50 bd 69 62 14 3e 35 22 6f bd e2 8c ce bd
       -0.05096074 0.14490665 -0.05838223 -0.10085465
0002d0 8d 20 54 bc ed a0 7b bd cb e6 d6 3c ca bf 7a 3d
       -0.012947214 -0.061432768 0.026233098 0.06121806
0002e0 4d 30 16 bd 38 83 73 bc 71 a6 af bc 0e eb a8 bd
       -0.036667157 -0.014862828 -0.02144167 -0.08247958
0002f0 10 e0 20 3e 1c 79 ca 3d 59 90 3c bd 52 00 63 3d
       0.15710473 0.09886381 -0.0460361 0.055420227
000300 80 b0 c1 bc 83 06 5f 3d 9e 42 0a 3d 45 fb e4 3c
       -0.023643732 0.05444957 0.033754937 0.027951846
000310 57 e9 9b 3d be 75 bf 3d 91 d9 6c 3d 23 a4 45 bd
       0.076128654 0.093486294 0.057824675 -0.048252236
000320 e4 64 de 3b b8 9a 06 3d cd 8b 35 3b 05 c7 f3 3d
       0.0067869294 0.032862395 0.0027701736 0.11903194
000330 3c 5c bd 3d 1a e5 9f bd fd 6f 1e 3e d0 bb 5e 3d
       0.09246108 -0.078073695 0.15472408 0.05437833
000340 96 d3 13 3d 1e c0 a1 bd 69 79 eb 3c b9 b5 43 3c
       0.036090456 -0.078979716 0.028744416 0.0119451815
000350 3c b1 48 bd 3e 28 9c 3d b6 39 02 bd 45 96 1a 3e
       -0.04899715 0.07624863 -0.03179332 0.15096386
000360 7d 60 2e 3e 07 f8 57 3d ec aa 59 3d 8d 5c 87 bd
       0.17028995 0.05272677 0.05314152 -0.066094495
000370 95 11 e9 bd 55 d7 58 bd a3 d6 f7 3b 3f 56 53 3d
       -0.11380307 -0.05293973 0.0075634285 0.051595923
000380 2c 89 bd 3d e2 f0 1c bd b0 47 f8 3d 59 b9 c2 3d
       0.09254679 -0.03831566 0.12123048 0.095080085
000390 93 84 d5 3d fb ef e8 3d 44 7c bb 3d df 4d 06 3d
       0.10425677 0.11373898 0.09154561 0.032789107
0003a0 a8 3e 1f bb b9 7b 03 3d 37 04 b8 bc e3 42 3e bd
       -0.002429882 0.032100413 -0.022462947 -0.046450507
0003b0 62 f3 b2 bd 3b 9f 04 3c cd 4c bb 3d 79 87 a1 3b
       -0.08737828 0.008094604 0.09145508 0.0049294797
0003c0 4e c2 24 3b 94 c5 a1 3d ce 38 2c bd ec 76 02 3e
       0.0025140229 0.07899013 -0.04204636 0.12740678
0003d0 7d 1b ad bd 0a 77 a8 3c a0 7b c1 3d ce ab 6a 3b
       -0.084525086 0.020564575 0.09447408 0.003580797
0003e0 42 c6 80 3d b6 ab 38 3e 5c 28 39 bd 93 70 a2 bd
       0.06287815 0.18034253 -0.045204505 -0.07931628
0003f0 0a b4 5d bd 08 18 c7 bb 7f d0 51 3c 8a b1 5a bc
       -0.054126777 -0.006075863 0.012806057 -0.013347993

rnn_layer.rnn_layer.bias_hh_l0 f4 [256]
000000 9e 77 be 3d 1a fc 6a 3d 27 68 d7 bd bc 59 2f 3e
       0.09300159 0.05736933 -0.10517912 0.17124075
000010 1b a5 ba bb 33 b6 ad bd 1c e8 54 bb 72 b5 b1 3d
       -0.0056959516 -0.08482017 -0.003248698 0.08677186
000020 25 3b d8 3d f2 83 27 3d 85 92 73 3d bd ee 42 3c
       0.10558156 0.040897317 0.059465904 0.01189774
000030 d9 8b c2 3c 7a 88 29 be ac e1 b1 3d e6 20 8d bb
       0.023748325 -0.16555968 0.086856216 -0.0043069003
000040 92 8d 57 bd 1b 09 90 3d 90 50 6f 3d 89 ef a5 3d
       -0.052625246 0.07032987 0.05842644 0.08102328
000050 b7 05 9f 3d fb 0d a3 bc 1b e3 9a bd 99 5c 02 3e
       0.07764762 -0.019904127 -0.07562848 0.12730636
000060 62 a2 22 bd aa ca ce 3d c8 a7 20 3d b1 a8 7f 3d
       -0.03970564 0.10097249 0.03922251 0.062416736
000070 3f c6 8f 3d e3 27 b4 bc 95 6f 5f 3e 47 21 86 3d
       0.07020234 -0.021991676 0.21819909 0.06549316
000080 d0 c8 11 3d 76 47 45 3d 05 d6 c0 3d 8e e5 72 3d
       0.0355919 0.048163854 0.09415821 0.05930095
000090 59 25 2d 3e 78 64 ae bd 1d 0d 4c bd 8b e3 c6 bd
       0.16908778 -0.08515257 -0.049817193 -0.09711369
0000a0 0c fa 9c 3d 2d 8b 04 bd 92 e8 b4 3d c4 ee ca 3d
       0.0766488 -0.03235929 0.08833422 0.09908822
0000b0 ef ba 14 bc 0a 26 8e 3d 36 1d e0 3d fb b5 fb 3d
       -0.009077772 0.06940849 0.109430715 0.122905694
0000c0 dc 15 85 3d a0 34 93 3d 58 fb 0d bd 29 61 be 3d
       0.0649831 0.07187772 -0.03466353 0.092958756
0000d0 05 0f 76 3c 07 e6 a7 bd 69 b7 ee bd 01 dc 2f 3d
       0.015018229 -0.08198171 -0.116560765 0.04293442
0000e0 af 1a 05 bd 6d bc 35 3e 64 8c 8e 3d 04 cd e2 3d
       -0.03249615 0.1774766 0.06960371 0.1107426
0000f0 79 0a 09 3e d6 c6 31 3e 48 27 86 bd 74 18 bf 3d
       0.13382901 0.17361006 -0.06550461 0.09330836
000100 d9 68 c4 3d 7d ab 66 3d d5 87 94 3d 92 13 f8 3c
       0.095903106 0.056315888 0.072524704 0.03028277
000110 95 6e a2 3c 7b e7 a0 bd cb ef 7a 3c ef ac b9 bc
       0.01982812 -0.078566514 0.01531596 -0.022665469
000120 4e 75 fa 3c e5 45 58 bd 44 91 b6 3d 19 05 a7 3d
       0.030573513 -0.05280103 0.08914426 0.08155269
000130 8d cc eb 3d 0a c5 ea bd f4 49 80 3d a8 5a c6 bd
       0.11513624 -0.114633635 0.062641054 -0.0968526
000140 bb 22 63 3d 84 2d 92 bd 5b d0 41 bd 73 6a e1 3d
       0.055453043 -0.07137588 -0.047317844 0.11006632
000150 24 14 a8 3b b9 f2 12 3e 4d 0c 2f bd 77 f3 73 bd
       0.005129354 0.14350404 -0.04273634 -0.059558358
000160 c2 c2 2b 3e 75 29 dd 3c 89 6e 51 3c 21 54 9c 3d
       0.16773513 0.026997307 0.012782701 0.07633234
000170 a4 00 56 3d dd ce 88 bc 77 af af bc 6a dc a4 bd
       0.052246705 -0.016700203 -0.021445973 -0.08049853
000180 46 c6 92 bc 19 8b bc bc a3 8b 86 3c fb 22 0e 3e
       -0.01791681 -0.023015546 0.016424006 0.13880531
000190 58 67 68 3e a1 b3 0e 3e b8 cd ac 3d 4b 52 9d bd
       0.22695673 0.1393571 0.08437675 -0.07681712
0001a0 18 a3 10 3e a5 eb 16 3e 80 89 ce 3d 05 1e 22 3e
       0.14124715 0.14738329 0.1008482 0.15831764
0001b0 88 82 00 bd b1 34 b3 3d c7 8f 18 3d 03 a5 05 3e
       -0.031374484 0.087502845 0.03724649 0.13051228
0001c0 7b 4e ce bc b8 d4 f4 bc c1 36 f5 3d a7 21 31 bc
       -0.025183907 -0.029886588 0.11973334 -0.010811246
0001d0 45 29 68 3c 36 bc 7a 3d 8e cd 4e bb 99 ab 0d 3e
       0.014169996 0.06121465 -0.0031555626 0.1383499
0001e0 3d f1 9a 3c a5 ab 70 3d 6b c7 85 bd a8 44 c7 bc
       0.01891386 0.058757443 -0.065321766 -0.02432473
0001f0 26 db c7 bc dd 62 76 3d 7d 1c 27 3d 83 04 69 3d
       -0.02439649 0.060152877 0.040798653 0.05688907
000200 fc 24 cb 3d 81 19 30 bd 84 07 a1 3d d9 1a 1f bc
       0.099191636 -0.042993072 0.078627616 -0.009710991
000210 ff 06 04 3e cb ce 46 3d 9a b4 46 3c 15 08 fe bd
       0.12893294 0.048537057 0.01212802 -0.12403885
000220 56 df 33 3c 4d 49 75 bc 89 3b 2d 3d 8b 05 f0 3d
       0.01097854 -0.01497109 0.042293105 0.11719807
000230 5a ea 3d 3d 4e 2b 39 bd 71 1c 3a 3d 43 04 ec bd
       0.046366073 -0.045207314 0.04543728 -0.1152425
000240 4d 16 af 3d be 00 7d 39 ce 61 a8 3d 51 32 aa bc
       0.085491754 0.00024128237 0.0822178 -0.020775946
000250 a1 23 c0 3d 8f 10 29 bd 01 e6 6e bc 42 41 06 be
       0.09381796 -0.041275557 -0.014581204 -0.13110831
000260 25 74 fc 3d 89 a8 d0 bd 04 5f ad 3d 9d f2 b5 3d
       0.1232684 -0.101883955 0.084653884 0.088841654
000270 6c 19 4d 3d d3 e4 d5 bd 55 16 d8 3d 92 ce f2 3d
       0.050073072 -0.104440354 0.105511345 0.118558064
000280 6a 09 8a 3b 87 b5 81 3d a0 57 5b bd 42 91 e9 bd
       0.004212548 0.06333452 -0.053550363 -0.11404659
000290 c6 74 91 3d f4 c8 9d 3c e6 ae e2 3d cb 14 61 3c
       0.07102351 0.019260861 0.110685155 0.013737868
0002a0 03 7d 67 3d 8f ea e7 3c f8 d4 ad 3d 49 b6 15 be
       0.056515705 0.028310088 0.08487886 -0.14620318
0002b0 f7 8a e8 3d ea 20 02 be 65 7d 12 be 5f 89 00 bd
       0.113546304 -0.12707868 -0.14305647 -0.031381007
0002c0 74 98 69 3c d4 ea f4 3d 6c da 64 3d 7e cf 48 3c
       0.014257539 0.119588524 0.055872366 0.012256501
0002d0 2b b6 3d 3d f7 bf aa 3d fc 8f 94 bd f8 bd 27 3e
       0.046316307 0.08337396 -0.07254025 0.16381061
0002e0 7f 74 6c bc c7 85 d8 3d 14 49 17 bc d2 8b 8b 3d
       -0.014432072 0.10572391 -0.009233732 0.06813778
0002f0 b6 e8 65 bd 30 69 39 bd e6 3d ac 3d 83 c0 7e 3c
       -0.056130134 -0.04526633 0.08410244 0.015548828
000300 b3 91 85 bd 31 63 ee 3d e2 12 61 bd 22 63 d3 bd
       -0.065219305 0.11640013 -0.05494965 -0.103216425
000310 bf 0d e7 3d 2f 7b 16 bd 69 6b 58 3d bc d2 d1 3d
       0.11281919 -0.03673857 0.05283681 0.102452725
000320 b5 c5 34 bc f2 76 30 3e 7c 45 9b bd 3b cd 55 3d
       -0.011033465 0.17232874 -0.075816125 0.052197676
000330 3a 67 b7 bd 98 7d d5 3c 66 36 a7 3d de d2 8a 3d
       -0.08955236 0.026060864 0.081646726 0.06778501
000340 3d a5 e1 3c f5 32 23 bc a4 0a fb bc 3b cf 00 3d
       0.027544612 -0.00996088 -0.030644722 0.03144763
000350 d7 68 1f bd 8d 99 46 3d ab 83 e9 3b 80 9a e0 3d
       -0.038918342 0.04848628 0.0071262917 0.109669685
000360 3f f1 33 3e 2f 6a 3c 3b 07 b3 0e 3e e6 93 0e be
       0.17572497 0.0028749814 0.13935481 -0.13923606
000370 79 0b bb bd dd 15 5a bd 51 c6 ef bc 3e 7a 23 3c
       -0.091330476 -0.053243507 -0.02926937 0.009977875
000380 0e 2d c6 3d 16 1f e3 3d ea 55 02 3e 50 55 16 3e
       0.09676562 0.110899135 0.12728086 0.14680982
000390 67 82 5d 3e 9a e5 0f bd f5 92 8e 3c 8f fd 0e 3d
       0.21631776 -0.035131074 0.017404059 0.03490978
0003a0 c7 12 6d 3d 83 e3 fa 3d 9a 15 bf bd c9 44 ab bc
       0.057879236 0.12250426 -0.09330292 -0.020906823
0003b0 f5 69 04 be b2 5c 36 3d ca a9 85 3d e6 d8 09 3d
       -0.12931044 0.044521995 0.06526525 0.033654116
0003c0 81 37 94 3d 5f cc 6b bd 06 03 95 3d 8e 8d cb 3c
       0.07237149 -0.05756795 0.07275967 0.024847772
0003d0 0c f3 a1 bd ac 95 1d bd 60 dd 10 bd ea 42 0a 3e
       -0.07907686 -0.038472816 -0.03536737 0.13502088
0003e0 e0 2f 92 bd 6e 20 65 3c 42 aa d4 3d 29 7b 5f bd
       -0.07138038 0.013984783 0.103840366 -0.054560814
0003f0 d0 1b 65 bd be 11 ce bc d2 43 1e bd 4b a5 ec bd
       -0.055934727 -0.025154945 -0.038638897 -0.11554965

conv1.conv_1.weight f4 [64, 1, 5]
000000 4c 71 e7 3d 63 75 3b be e7 a3 be 3e 6b 30 a1 3e
       0.113009065 -0.18306498 0.37234423 0.31482252
000010 0b 89 6a 3d 95 c4 6f 3e 37 fc 52 3e a6 54 79 be
       0.0572596 0.23414834 0.20604025 -0.24348697
000020 8e c6 95 be f7 d2 10 bd e2 54 ac be d7 80 0c be
       -0.29253048 -0.03535744 -0.3365851 -0.13721023
000030 a3 cf 09 3d 9c 23 51 3e 48 3c ad 3d 7f 4b 11 3e
       0.033645283 0.2042374 0.08458763 0.14188956
000040 31 1c db be 04 72 84 be b0 a7 bc 3e a0 fa 80 3e
       -0.42794946 -0.25868237 0.36846685 0.25191212
000050 8c 50 be be 1a 81 3f 3e 7d 75 ce 3e ae c7 b0 3e
       -0.37170827 0.18701592 0.4032401 0.34527344
000060 56 0d d8 be e5 24 d5 3e 39 9e d8 bc ca 27 42 3e
       -0.42197675 0.4162971 -0.026442634 0.18960491
000070 d2 08 1a 3e 01 02 83 3d 8b e5 d2 3e 7d 47 ad 3e
       0.15042427 0.063968666 0.41190752 0.33843604
000080 c3 97 3f 3e e4 ab e3 be 5c 9a 63 be 7f 2b c9 3e
       0.18710236 -0.4446708 -0.22226852 0.39290997
000090 9d 60 19 be 67 18 ca 3e bb 87 8b 3d 4d 4e 0f be
       -0.14978261 0.39471743 0.06812998 -0.13994713
0000a0 c9 18 39 be 86 8f ca 3e cf 10 ae 3e 15 a2 6a bd
       -0.18075861 0.39562625 0.339972 -0.05728348
0000b0 5e c8 ab 3e c8 d1 36 be 0f 50 9c 3e c3 7d a6 be
       0.33551306 -0.17853463 0.3052983 -0.32517824
0000c0 29 ce 5b 3e 91 9e af be fa 85 9a 3e 4d 67 19 3e
       0.21465363 -0.34300664 0.3018034 0.14980812
0000d0 dc 10 9e 3d 3f 81 8e 3e 17 ea bd 3e 9b cd f6 3d
       0.077180594 0.27832982 0.3709266 0.12050935
0000e0 ef 60 89 3e 03 34 c4 3e 75 e0 64 3e b9 e1 d9 3e
       0.26831767 0.38320932 0.22351249 0.42555025
0000f0 30 42 c8 3e 1f f3 41 be 99 20 b4 3e 04 d1 a6 3e
       0.39112997 -0.189404 0.3518112 0.3258134
000100 65 b8 98 3e 4b 73 3f be 0e 5f 18 be 8a 79 63 3c
       0.29828182 -0.18696325 -0.1488001 0.013883958
000110 c3 7a bb be e7 cf c6 3e 24 db b0 3e cf cc 72 3e
       -0.36617097 0.38830492 0.3454219 0.23710941
000120 b6 aa ae be 51 c3 0d be 87 c9 c9 3d e8 ef 86 be
       -0.34114617 -0.13844039 0.098528914 -0.2635491
000130 83 f3 97 be 19 54 9c 3e be 8b 2f 3d 7c 05 dd bd
       -0.29677972 0.3053291 0.042857878 -0.10792062
000140 b6 61 89 be 1e 56 b5 3e 6b 21 f8 3d 3f bd a5 be
       -0.2683236 0.35417265 0.12115749 -0.32370946
000150 4c e4 d0 bd 64 20 a8 be 80 85 c9 be be 39 a0 be
       -0.10199794 -0.32837212 -0.39359665 -0.31294054
000160 2c 11 c8 be cb 9f 81 3e 3e 7b b3 3d f9 c4 50 3e
       -0.390756 0.25317225 0.08763741 0.20387639
000170 21 8b a2 be 78 88 c9 bb 15 2f fa 3c d7 b9 a4 bc
       -0.31746772 -0.0061503015 0.030540029 -0.020108147
000180 9e be ec 3d 30 84 99 be f0 c7 2f 3e d3 67 1a be
       0.11559795 -0.29983664 0.17166114 -0.15078668
000190 88 41 a7 bc 0e bb 9f bd a7 dd 37 be 26 d8 bb 3e
       -0.02041699 -0.0779935 -0.17955647 0.36688346
0001a0 6f f1 ac 3c 47 a9 e5 3e 58 2e 8a 3e 8c 2d 2d 3e
       0.021111218 0.4485571 0.26988482 0.16911906
0001b0 c9 c4 4e 3d db f5 e4 3d 62 1f a7 be 89 49 3f 3d
       0.050480638 0.11179706 -0.3264113 0.046700988
0001c0 7a 7f 9d 3e c5 ca c1 be 0a bd 4b 3e f5 9e a7 3e
       0.3076132 -0.37850013 0.19896331 0.32738462
0001d0 93 19 5e 3e be 10 c1 be c8 ab d3 be ee 02 60 be
       0.21689443 -0.37708086 -0.41341996 -0.21876118
0001e0 8b 49 94 3c b8 1f 9a 3e 12 2a 6f 3e e4 31 20 3e
       0.018101474 0.30102324 0.23355892 0.15644032
0001f0 e0 ee d7 be 6a c8 dd be 7c e5 b7 3e 5e 3a 3f 3e
       -0.42174435 -0.43316966 0.3591727 0.18674609
000200 28 63 b9 3e 8b 95 8f 3d 91 38 fe 3d 95 be 87 bd
       0.36208463 0.07010945 0.12413133 -0.066281475
000210 55 be 92 be 67 99 93 be a9 c8 db 3e 57 39 0f 3e
       -0.28660837 -0.28827974 0.4292653 0.13986717
000220 1c 51 3b 3e ff bc ba 3e f5 ae bd 3e 75 56 90 3e
       0.1829266 0.36472318 0.37047544 0.2819096
000230 34 17 ec bd 06 3d db 3e f7 bc 96 3e 7f 86 7d 3e
       -0.11527863 0.42819995 0.29441044 0.24758337
000240 c9 8a c4 be 66 3f 10 3e db 77 d3 be 8b da 15 39
       -0.38387135 0.14086685 -0.4130238 0.00014291161
000250 b6 d2 11 3d 8e 6c 83 be ff 86 aa 3e c0 64 a1 3d
       0.03560134 -0.25668758 0.3330612 0.07880545
000260 cb 1c 02 3e 11 0b c5 be 1b f8 a3 be 0c e1 e4 be
       0.12706296 -0.38485005 -0.32025227 -0.44702947
000270 17 a1 8f be a3 10 c7 3e 1c ee bb 3e bb 7c ea 3d
       -0.2805259 0.3887988 0.367051 0.11449572
000280 26 a3 da 3e 03 b2 ca be 33 da 1d 3e 7f 77 2a 3d
       0.42702597 -0.39588937 0.15415268 0.041617867
000290 5b c5 b4 be 65 13 7e be 9c d7 bc 3e c1 ba 2c bd
       -0.3530682 -0.24812086 0.36883247 -0.04217029
0002a0 4a 9f b3 3e 2a 2b d4 be df d6 e1 bd 10 a5 6f be
       0.35082465 -0.41439182 -0.110273115 -0.2340281
0002b0 60 b9 c9 3c b0 aa ce bd 34 dd ac 3e fc b2 88 3d
       0.024624527 -0.1009115 0.33762515 0.066747636
0002c0 e3 b2 06 be b5 10 ae be 99 a1 bf be 53 67 b6 bd
       -0.13154177 -0.3399712 -0.37427977 -0.08906426
0002d0 45 15 79 3d 0a aa 52 be 30 1d 83 3e 0e 7b c8 be
       0.0608113 -0.20572677 0.25608206 -0.39156383
0002e0 da a3 b3 be 24 7d 8a be 2e f4 dc 3c 7d c3 b7 3e
       -0.35085946 -0.270486 0.026971903 0.35891333
0002f0 09 3b 99 be ff 14 6a 3e c6 c3 bb bd b1 c6 9f be
       -0.29927853 0.22859572 -0.091682 -0.31206277
000300 7d ba 66 3e 90 12 4b 3e 09 c5 a4 be bb 4b a6 3e
       0.22532077 0.198313 -0.32181576 0.32479653
000310 d8 af 78 be 3c 39 a4 3e 73 7d 72 be 1e 65 74 be
       -0.24285829 0.32074916 -0.23680668 -0.23866698
000320 15 f6 ba 3d 1f c6 7b 3e a3 6b d6 3e e5 7a 91 3d
       0.09128968 0.24587296 0.41878995 0.071035184
000330 b6 fd 1d bd 8c c8 a9 3e 62 61 bb be 02 77 4c 3d
       -0.038572036 0.33160818 -0.36597735 0.049918182
000340 92 28 c6 be 6e 10 e8 be be 9a a2 3e d0 cd 2f bc
       -0.38702828 -0.45325035 0.31758684 -0.010730222
000350 a4 3b 5b 3e 3f 4e cc 3e 41 38 a0 be d1 f7 a9 be
       0.2140947 0.39903447 -0.31292918 -0.3319688
000360 61 f7 0e bd 03 7b 27 bd 3a b2 13 be e1 3c 8c 3e
       -0.034903888 -0.040888797 -0.14423457 0.27390197
000370 89 14 c4 be af 16 9d be 84 66 46 be 41 48 59 be
       -0.38296917 -0.3068137 -0.19375044 -0.21218969
000380 76 52 48 be 54 6e 56 3e 3b 6f f1 3c 1f e5 a9 bd
       -0.19562706 0.20940524 0.029471984 -0.082956545
000390 b6 7c c1 bd bb c9 f2 3d 60 1f b2 be e8 f6 79 be
       -0.09447615 0.11854883 -0.34789562 -0.24410594
0003a0 e2 1a 53 3e 5a 2b 21 bd 66 69 99 be 6d 5c a4 3e
       0.20615724 -0.039347984 -0.29963225 0.32101765
0003b0 30 09 f0 bd 6a 9f c8 3c 4d b6 b9 3e 4b 93 be 3d
       -0.117205024 0.024490077 0.36271897 0.09305438
0003c0 69 75 e3 bd 87 f3 ec be fa 21 a2 be 3d d7 76 be
       -0.111063786 -0.46279547 -0.31666547 -0.24105544
0003d0 bf 83 4a be af 7d b6 3e 34 69 0c 3e cf 81 85 3e
       -0.1977682 0.35642764 0.13712007 0.260756
0003e0 bc 5d cc 3e f1 f3 06 bd 42 d6 92 3d 85 22 68 bd
       0.39915264 -0.032947484 0.07169773 -0.056673545
0003f0 38 18 70 be 4d 86 18 be 9b 81 ff bd ed af f4 3e
       -0.23446739 -0.14894982 -0.12475892 0.4779047

conv1.conv_1.bias f4 [64]
000000 a2 9d aa 3e 9e e0 dc 3e d7 22 ee be 3c 3a 19 3e
       0.3332339 0.4314012 -0.46510956 0.14963621
000010 fe a7 46 3d e4 ff a8 3e 31 3d 19 3e e3 29 5b 3d
       0.048500054 0.3300773 0.14964749 0.053506743
000020 1d b6 b9 3e 65 a6 dc 3b 89 bd ca 3e 04 ce 32 bd
       0.36271754 0.006733703 0.3959773 -0.043653503
000030 41 11 87 be ad 7a 88 be c7 6a 2c be 73 98 c3 be
       -0.2638035 -0.26656094 -0.16837607 -0.38202247
000040 39 4d f2 3c 2e 54 75 be 61 8f ed 3d 1b a7 af be
       0.029577838 -0.23957893 0.11599613 -0.3430718
000050 38 a7 c3 3e 8c 69 51 3e 19 6e 92 be ec 1f 25 3e
       0.38213515 0.20450419 -0.28599623 0.16125458
000060 5a 57 ff bd d8 47 25 3e af 27 eb be b0 fd ca be
       -0.12467833 0.16140687 -0.45928714 -0.39646673
000070 3b 78 c5 be 99 7e 13 be 4c ec f9 be 82 37 1a be
       -0.3856829 -0.14403762 -0.48813093 -0.15060237
000080 b4 1e b5 be 2c 02 d1 be e9 76 95 3e 0f 4a 94 3c
       -0.35374987 -0.4082197 0.29192284 0.01810172
000090 3d 71 0f be 3f f3 1c be 6b 64 6c 3e 36 9a 94 be
       -0.1400804 -0.15327166 0.23085181 -0.29023904
0000a0 bf 4a 97 3e 28 27 3e be a0 33 73 3e 64 31 7e 3c
       0.29549214 -0.18569624 0.23750162 0.015514705
0000b0 d5 3d 8f 3e 6d 3d 25 be f5 4e 3a be 1f 48 82 be
       0.27976862 -0.16136713 -0.18194182 -0.2544565
0000c0 6e 42 aa be 89 29 da 3e 3b 31 8e be 41 de f1 bc
       -0.33253807 0.42609814 -0.27771935 -0.029524924
0000d0 30 56 75 bc 6b 18 49 3e 06 f5 c5 3e cb d8 90 be
       -0.014974162 0.19638221 0.386635 -0.282904
0000e0 06 b4 fe 3a c4 ee 18 3d fd bf df 3c 81 7b c4 be
       0.0019432313 0.03733708 0.027313227 -0.38375476
0000f0 13 95 b1 bc 21 93 16 be 89 81 4a be ff c4 93 be
       -0.02167753 -0.14704563 -0.19775976 -0.28861234

conv1.conv_2.weight f4 [64, 64, 5]
000000 1f 1a aa 3d ff a3 72 3d 90 98 bf bc 16 37 4c bc
       0.083057635 0.05923843 -0.023388177 -0.012464305
000010 a3 ed 10 3d 12 23 02 3b 07 eb b6 bc 53 fd c8 bd
       0.035382878 0.001985733 -0.022328867 -0.09813943
000020 de e4 59 bd 36 21 99 bb 44 80 58 bc fb d4 f5 bc
       -0.05319678 -0.0046731485 -0.013214175 -0.030008784
000030 2c 81 5a bd 5b e6 b9 bd 88 5d e7 38 41 1f 61 bd
       -0.053345844 -0.0907714 0.0001103236 -0.054961447
000040 af 53 a4 3c 70 e9 30 bc 24 74 0f 3d a2 fc 80 bc
       0.020059435 -0.010797843 0.03502287 -0.015745465
000050 e8 96 a2 bc a0 21 2d 3d 6c 17 03 3d 0b fd 48 3d
       -0.019847348 0.042268395 0.03200476 0.049069446
000060 d8 41 8d 3c db 66 0d bc 55 27 ac 3d 50 1f 57 3d
       0.01724331 -0.00863048 0.084059395 0.052520096
000070 17 16 c4 3c 41 87 7f 3c 94 f7 3a 3d 8b 4d 6d bc
       0.023936315 0.015596212 0.045646265 -0.01448382
000080 ae 28 8a 3d 2a 19 7f 3c 96 30 6d 3d eb 5b 5d 3c
       0.0674604 0.015569964 0.057907663 0.0135106845
000090 06 68 8b 3c 7a bd df 3b 9d 85 ab bc d9 d6 8f bb
       0.017017376 0.0068280073 -0.020937735 -0.0043896255
0000a0 97 54 a0 3d e9 72 04 3d 71 70 20 3d f9 5d 97 bc
       0.07828634 0.03233615 0.039169732 -0.018477427
0000b0 11 8b b8 bc 3c 51 9c 3c 72 95 80 bd 7c 15 61 bd
       -0.02252725 0.019081704 -0.062785044 -0.05495213
0000c0 37 7b 20 bd 03 ef 1b bd 6e 58 82 3d 43 28 12 3d
       -0.039180007 -0.038069736 0.06364523 0.035682928
0000d0 e0 44 e4 bc c4 94 65 3d cc 49 03 3d bf 58 8a bc
       -0.027864873 0.056050077 0.0320528 -0.01688802
0000e0 08 eb 80 3d 52 0a de bc 04 6e c6 bc 77 50 1d bd
       0.06294829 -0.02710453 -0.024222381 -0.038406815
0000f0 d5 ec db 3c b1 2c f7 3c 7e 79 de 3c c3 d8 47 bd
       0.026846329 0.030172678 0.027157541 -0.048790704
000100 43 dc 08 bd 25 82 9f 3c e1 03 ff 3c 48 f2 b4 bc
       -0.033413183 0.019471237 0.03112978 -0.022088185
000110 10 82 9c bd 5b 03 a1 bd ec e7 e5 3b 98 01 81 3d
       -0.07641995 -0.07861968 0.0070161726 0.06299132
000120 ea 75 3b 3d 95 45 ae 3c e4 ed 86 bc f5 af 35 3c
       0.04576675 0.021273414 -0.016470857 0.011089315
000130 1b a6 e2 3c 84 ff 21 bd 62 35 b9 ba d3 64 7c bd
       0.027667096 -0.03955032 -0.0014130289 -0.06161959
000140 3f c6 8c 3c 2d 1f 88 bd b4 82 f1 bc 04 2d a3 bc
       0.017184375 -0.06646571 -0.02948127 -0.019918926
000150 4d a0 6f bd c0 3b c1 bc 10 fd 8b bd a2 1d 98 bc
       -0.058502484 -0.023588061 -0.06835377 -0.018568818
000160 47 10 65 bd 67 7a fa bc 83 83 88 bd 43 f1 dd 3c
       -0.055923726 -0.030575944 -0.06665709 0.027092582
000170 3b c3 69 3c b7 8e a7 3c ec de a5 3b 84 ff 31 3c
       0.014267738 0.020453794 0.0050619747 0.010864142
000180 0a ea 2c bd b0 1f 28 bc 12 a4 86 3c 5d 1e b0 3c
       -0.042215385 -0.010261461 0.016435657 0.021498853
000190 aa 19 c5 bc ff 4b dd 3b 51 aa 58 bc 2a 00 ee 3c
       -0.02406009 0.006753444 -0.0132242 0.029052813
0001a0 ee 07 7b 3c 20 9f 12 3d 0c 7b a5 3c 91 70 59 3d
       0.015321715 0.035796285 0.020200275 0.053085867
0001b0 b6 bb bf bc 09 12 4b 3d ee 04 3f bc 56 83 70 bd
       -0.023404937 0.049577747 -0.01165889 -0.058719
0001c0 9d 73 e2 3c a6 aa b1 bb a6 ad ab bd ff 3d d6 bb
       0.02764302 -0.005421954 -0.0838273 -0.006538152
0001d0 91 3f 01 bd bc d1 c3 bc 27 cb 12 bd 40 7f ae bd
       -0.031554762 -0.02390372 -0.035838272 -0.08520365
0001e0 18 67 01 bd 47 93 76 bc 74 d3 b2 3d 5f 92 fe 3c
       -0.03159246 -0.015049762 0.08731738 0.031075655
0001f0 3f 0f fa 3c a0 01 92 3d 0a 24 03 bd 14 4d 00 3d
       0.030524848 0.07129216 -0.03201679 0.031323507
000200 af 02 35 3d e1 c3 44 bd 8d 23 c5 3a cc ba 5c bc
       0.044192012 -0.048038367 0.0015040502 -0.01347227
000210 47 88 97 bc 14 9e a0 bd 57 6d 6d bd b3 c6 6c 3d
       -0.0184976 -0.07842651 -0.057965603 0.05780668
000220 be 45 06 3d f4 67 b3 3c 68 7a 27 bd a8 7a a1 bb
       0.032781355 0.021900155 -0.04088822 -0.004927952
000230 4c 7f 82 3d c2 b6 96 3d bc 81 97 3d d9 a4 85 3d
       0.06371936 0.07359077 0.07397792 0.06525583
000240 31 3d 27 bc 47 f4 e4 b9 de 07 73 bd 11 e6 06 bd
       -0.01020746 -0.0004366955 -0.059333675 -0.032934252
000250 ed 3c 1d bd 3f 5b a7 bb 1c 9c 20 bd b8 a4 ce 3b
       -0.03838818 -0.005107313 -0.039211378 0.006306257
000260 c3 17 d9 bc 50 13 fd 3b 17 e4 e2 3c e5 2e 7d bc
       -0.026500588 0.0077232495 0.027696652 -0.015453075
000270 d7 cc 74 bd 09 5f 8a bc 4e 40 8a 3c b6 a4 9a bd
       -0.059765663 -0.01689102 0.016876366 -0.07550947
000280 50 7d 84 bd ab d0 c8 3b eb 6c be bc 98 56 aa ba
       -0.06469214 0.006128391 -0.023245296 -0.0012995778
000290 ba c8 1a bb d0 1d 9a bc 48 c7 15 3d b6 a8 4c 3d
       -0.0023618178 -0.018813044 0.036567003 0.049965583
0002a0 71 74 ad bc 2c 98 ac 3c 7c 75 8d bd 0e f0 ad bd
       -0.021173688 0.021068655 -0.06907174 -0.084930524
0002b0 3a 66 bd bd c9 d0 8a 3c 0a 7c 85 bd 3d 0f cd 3c
       -0.09248014 0.01694526 -0.06517799 0.02503168
0002c0 f2 19 80 bb 49 3b 9b bd 34 3d 84 bc 10 f6 e4 bc
       -0.003909343 -0.07579667 -0.016142465 -0.027949363
0002d0 30 c7 27 3c e3 59 b1 bd f8 ac 2a bd fa e4 b3 bd
       0.010240361 -0.08659723 -0.041668862 -0.08783908
0002e0 d2 a8 87 bd d8 f0 22 bd 95 4b c4 3c fc d5 57 3c
       -0.06623997 -0.039780468 0.023961822 0.013173576
0002f0 d6 39 ac bc fb 5e 0c 3d 3d 80 5a 39 5f 85 c7 3c
       -0.021023672 0.034270268 0.00020837873 0.024355588
000300 c1 b5 ba bc c1 23 9a bd d6 07 8b bd 78 55 78 bc
       -0.022791745 -0.07526351 -0.06788604 -0.015157096
000310 3a 87 a0 bd 05 02 8b bd 40 53 02 3c 8d 30 e0 3b
       -0.078382924 -0.067874946 0.007954419 0.006841725
000320 e7 05 bc 3d 82 cf d7 3c b7 e6 02 bc a6 22 0c 3b
       0.09180813 0.026344065 -0.007989577 0.0021382957
000330 86 25 13 bd 84 a8 d9 bc 8c 73 31 bc a9 6e 72 bd
       -0.035924457 -0.026569612 -0.010830771 -0.059187565
000340 d9 91 26 bd 4f 85 ad 3c 5b 41 75 3d d9 3f 4f bc
       -0.040666435 0.02118173 0.05987678 -0.0126495
000350 fe 6e d2 3c 50 74 0a bc 00 c8 11 3d 07 c7 50 bd
       0.02568769 -0.008450583 0.035591125 -0.050971057
000360 56 e9 34 bd fc 5a 52 bd dc c1 6b bd 90 86 bf b9
       -0.04416784 -0.0513563 -0.057557926 -0.00036530616
000370 90 c8 e1 bb 25 60 35 bd f9 79 97 bd d7 14 4b 3c
       -0.006890364 -0.044281144 -0.07396311 0.012395105
000380 6f 62 9c 3b 32 38 7f 3d d3 e0 29 bc 86 b7 66 3d
       0.0047724764 0.06230945 -0.010368544 0.056327365
000390 28 3c de 3c f1 dc 68 3d a5 ad 0a 3c bb cd 80 bd
       0.027128294 0.05685133 0.008464252 -0.0628924
0003a0 1e 40 5f bd 87 88 ef ba 43 9a 4f bb 62 0e ab 3d
       -0.054504506 -0.0018274941 -0.003167764 0.08352353
0003b0 0c 99 8c bc 12 ac 74 bc e9 7d 82 3c a2 76 e4 bc
       -0.017162822 -0.014933603 0.01592918 -0.0278886
0003c0 a5 63 f7 3c 81 6b 8a 3b 88 fb 5a bd e8 3c 43 bc
       0.030198881 0.0042242412 -0.053462535 -0.011916377
0003d0 45 16 5b bd 64 f3 0a 3c 8c 21 14 3b 37 73 d2 bc
       -0.053488035 0.00848088 0.0022603003 -0.025689704
0003e0 2f 14 24 3d d4 4f b6 bb 46 b4 1f bd 24 d8 b4 3c
       0.04005831 -0.0055637155 -0.03899028 0.02207572
0003f0 fc 46 88 3a ef 7c 2a bc 87 93 77 bd f2 30 92 3d
       0.0010397132 -0.010405763 -0.060443427 0.07138242

conv1.conv_2.bias f4 [64]
000000 d5 15 b7 bc 20 c1 3d 3d 67 a4 09 3d d3 61 4b bd
       -0.022349278 0.046326756 0.033604052 -0.04965384
000010 41 28 01 3d 1e c7 0e bd 04 d5 cd bb e5 e0 b8 3c
       0.03153253 -0.03485786 -0.006281497 0.022568176
000020 28 26 8c bc 38 f7 d8 3c 65 73 21 bd 07 97 ae 3c
       -0.017108038 0.02648507 -0.03941669 0.02131225
000030 79 60 2f 3d 55 71 64 bc 93 cb ef bc ad 89 0f 3c
       0.042816613 -0.013943036 -0.029271876 0.008760852
000040 a3 f1 43 3d ac 66 f9 3c 9a 62 c8 3c f1 fd e2 3c
       0.047837865 0.030444466 0.02446108 0.02770898
000050 5f 1c 92 bc e6 ce 99 3b 60 8e e2 3b ee 01 36 3d
       -0.017835794 0.0046938537 0.006913945 0.044435434
000060 f4 df 32 bd 85 13 08 bd e6 1c 3d bd a6 d3 b8 3c
       -0.04367061 -0.03322174 -0.046170138 0.02256186
000070 24 5c 7f bc 03 39 32 3d 6b 51 08 3d 14 40 3b bd
       -0.015585933 0.0435114 0.03328077 -0.045715407
000080 8a fa 83 bd d2 54 6d bb 84 2a 30 bc 8d a4 05 bc
       -0.06444271 -0.0036213887 -0.010752324 -0.008156908
000090 bf c9 c5 3c 30 a2 a0 3b 89 61 0f bd d3 ec 38 bd
       0.024144052 0.0049021468 -0.035005126 -0.04514773
0000a0 57 9a 10 3d b1 b0 6a 3b 9a 6e 31 bd 54 7c 39 3d
       0.03530344 0.0035810883 -0.04331837 0.045284584
0000b0 b5 ed 3d bd 86 92 ad bc 4d 92 00 3d a1 98 4e bd
       -0.046369273 -0.021188032 0.031389523 -0.050438527
0000c0 99 4a 68 bc 46 7b a8 bc e6 1c 60 bd 9a 35 d7 bb
       -0.014177942 -0.020566594 -0.05471506 -0.006567669
0000d0 31 04 03 3d 69 f4 02 bd 87 44 04 bd 16 2c 50 bc
       0.03198642 -0.03197137 -0.032291915 -0.012705823
0000e0 54 1a 41 3d b1 e3 0e 3d 39 7f 26 bb 22 cb 0e 3c
       0.04714425 0.034885112 -0.002540542 0.008715423
0000f0 37 56 04 bb 58 51 40 3d fa df 08 bc b5 98 9d 3c
       -0.002019299 0.046952575 -0.008354181 0.019237855
