dl_ouptut/best_model_epoc4.pth (torch, 674223 bytes, 46 tensors)

rnn_layer.rnn_layer.weight_ih_l0 f4 [256, 50]
00000000: 49e4 91bd 8823 01bd 7959 5e3d a776 9b3d
00000010: 922e d13d 2ed8 15bc f13d 0bbd 2f31 c1bd
00000020: 3d04 c83d ed39 8a3d b280 8ebd c459 15bd
00000030: 50b7 333d 0ea5 c33d 17b5 a93d eab8 f33d
00000040: 06c9 c9bc c455 183e 3446 b53e b857 a93e
00000050: 5e15 373e 230b 893d 2491 b63e a440 473e
00000060: 248e 2d3d 3574 61bd 3181 31bd 3117 033d
00000070: c607 f93d 1751 ac3d a6d7 8dbd 47a1 883d
00000080: a94f 75bd ed08 b93c c030 f9bc 9864 df3d
00000090: 15c5 0f3d b2f5 d23d d779 b93d 4c39 2ebc
000000a0: e191 d53d f495 b93d f0ea 8b3d 205b 36bd
000000b0: e659 e63d 7752 193d 762a 183e c684 e7bc
000000c0: ad99 f7bb 92b1 d33c 75ec b1bd fe59 93bd
000000d0: 4795 713d 188b a6bd 36c4 22bc b164 b0bd
000000e0: 220a 36bd 54d8 b43b 9f5b f23d fbd8 673e
000000f0: d001 4c3d e06a 9a3d 603a 0e3e 323a 393e
00000100: 7351 cbbc 24fd a53d 6126 313c 3716 b43d
00000110: d6d0 b23d 9591 f7bd a698 68bd d182 053e
00000120: b3e4 f6bd e5b3 4fbd 2749 b03b d4e8 2abe
00000130: c472 b8bd 6085 96bd 8cc4 383d febb f03d
00000140: a7e6 42bd 945f c43d 89fb 0e3e 6cd7 343e
00000150: 02fd 22bd 12f7 cb3d e7f0 6e3c 3871 b93d
00000160: 2052 5e3d 6db2 323e 6c83 2f3d 17f7 353e
00000170: 03c4 893c e13a a33d 8834 313e 5184 bf3d
00000180: 4b23 d63d 6e69 013e d01c 3f3e 7958 593e
00000190: ea0e efbd 12ba 233d b887 88be 4fa1 8fbe
000001a0: c7d1 12be 74a7 c5bd 4d05 cc3c afa0 8a3c
000001b0: 12d9 d0bd 8315 57be 7fb0 4cbe 5f09 d0bd
000001c0: c400 b0bd d1dd a23c cfed 9e3d 406f 8c3d
000001d0: 55ff a8bd 0194 9d3d 686b 4ebd cf57 3abd
000001e0: 1bc6 803b b76f 893c ed1c 113e 5093 aebb
000001f0: 94fe 9a3d 2a4d 5cbd 6c90 193d 7121 b23d
00000200: 2a56 25bd 26b3 873d 0faf 483e 586c 753d
00000210: 3b3d a2bd 1f69 36bc 1c46 ad3d 27e1 b7bc
00000220: 4983 a93d 0116 11bc e745 d4bd 4a45 b5bd
00000230: 9c75 283d 54d1 10be 90bc 08be bf42 63be
00000240: 95af 00be 7d53 f2bd 17ef 3fbe 53be 233d
00000250: 735e 4bbd 630c bebc 303d 9bbd c45f 8d3d
00000260: a5cb 49be 4501 2bbe 5256 eabc cbe0 f8bd
00000270: 123b 9cbc a745 49be 0a3f fcbd 4438 c0bc
00000280: 24c6 bdbc 6463 ba3c 2891 c5bd b841 aa3d
00000290: 8573 203c a6af 633c 67a9 e7bb af83 84bd
000002a0: 4690 7e3d 7560 873d c089 db3b 9882 543e
000002b0: b088 683d 3303 083c 32a5 9ebd 6157 b8bc
000002c0: e4e3 1dbd b2cd cebc 1a8a 693d 5bb6 4cbd
000002d0: 06ae a33d 6f7e 22be a78e 8abd d86e 35be
000002e0: 01aa 39bd da4b a6bd 7398 13be 0f95 0dbe
000002f0: 7b0d ae3d e90d a33c 27a9 c8bd fe83 61bd
00000300: fc90 56bd eaec 34bd b30c 01bd da7d 9a3d
00000310: 0076 dbbc 79e6 023e 5d59 3fbd 01b7 773d
00000320: 08b1 dbbd 84fc e2bd 9114 53bd cb2b 89bc
00000330: ce72 cd3c a576 b63d 4ca2 733d c0a7 c53d
00000340: 5c4d 3e3d 6352 ab3d ef95 0bbc ea2e e23d
00000350: 31fe 87bc 8ef8 12be cfc1 ccbc 6ba8 bdbb
00000360: 44d8 583e d31a 43bd 1d29 fc3d 8e30 753d
00000370: 549a c73d b753 183e d139 dd3c 94fd 123d
00000380: fefa a03d d630 543d 41b9 4a3c 1e64 06bd
00000390: 8c9c 98bc d9b4 c23d 577f 353d e4fa 393e
000003a0: bb16 e43d cb6f 083d 1050 1c3d beb9 823d
000003b0: b1e3 c33d 9d07 c73d eec9 683e ed62 eb3d
000003c0: 92c6 553e a1f5 573e 6984 c83d 4e4a 733e
000003d0: 85f3 0c3e 0f2a ff3d 75ad 553d f566 553d
000003e0: 24e8 3b3e 9800 223e 482d c43d 1864 5bbd
000003f0: cbb5 26be 5ff1 b1bc f1af 04be 7ff1 4ebe
-0.0712362 -0.031528026 0.054284547 0.075909905 0.10213961 -0.00914578 -0.03399462 -0.09433209
0.097664334 0.0674933 -0.069581404 -0.03646256 0.043875992 0.09552966 0.08286493 0.11900504
-0.024631988 0.14876467 0.35405123 0.33074737 0.17879245 0.06691577 0.35657609 0.19458252
0.042371884 -0.055042464 -0.043336097 0.03200454 0.12159686 0.08413904 -0.06925897 0.06671386
-0.059890423 0.022587264 -0.030418754 0.109078586 0.03510006 0.10300769 0.09056442 -0.010633778
0.10428215 0.090618044 0.0683192 -0.044520497 0.112476155 0.03743216 0.14859948 -0.028261553
-0.0075561614 0.025841508 -0.08687679 -0.07194899 0.058980253 -0.08131999 -0.009934476 -0.08612955
-0.044443257 0.0055189524 0.118338816 0.22641365 0.049806416 0.07539916 0.13889456 0.18088606
-0.024819111 0.08104923 0.010812373 0.087933 0.087312385 -0.120883144 -0.056786202 0.13038184
-0.1205534 -0.05070867 0.005379814 -0.1669038 -0.09006265 -0.07349658 0.045109317 0.11754607
-0.04758325 0.095885426 0.1396314 0.17660302 -0.03979207 0.09959234 0.014583803 0.09054798
0.05427754 0.17450877 0.042849943 0.17770039 0.016817098 0.07970215 0.17305195 0.09351409
0.1045595 0.12637874 0.18663335 0.21225156 -0.116727665 0.039972372 -0.26666045 -0.28052756
-0.14337836 -0.0965108 0.024904871 0.016922323 -0.10197653 -0.210043 -0.19989203 -0.101580374
-0.08593896 0.01988116 0.07760202 0.06857157 -0.08251826 0.07694245 -0.0503954 -0.045493897
0.003929866 0.016776903 0.1417119 -0.0053276196 0.07568088 -0.053784527 0.037491247 0.08697785
-0.040365376 0.06625967 0.1959803 0.059917778 -0.07921835 -0.011133461 0.08460638 -0.022446228
0.08276994 -0.008855344 -0.10364895 -0.088511065 0.041127786 -0.14142352 -0.13353181 -0.2219343
-0.12566979 -0.118323304 -0.1874355 0.03997643 -0.04965062 -0.023199266 -0.0758003 0.069030315
-0.1970659 -0.16699703 -0.028605614 -0.12152251 -0.019071136 -0.19655477 -0.12316711 -0.02346433
-0.02316577 0.022752471 -0.09646827 0.08313316 0.009793167 0.013896858 -0.007069755 -0.06470429
0.06214931 0.066101946 0.0066997707 0.20752943 0.05677098 0.008301544 -0.07746352 -0.022502603
-0.03854741 -0.025244568 0.05701647 -0.049978595 0.07992177 -0.15868543 -0.0676549 -0.17718065
-0.045328144 -0.08119936 -0.14413624 -0.13826393 0.08498665 0.019904094 -0.09797888 -0.05505752
-0.05238436 -0.04417125 -0.03150625 0.075435355 -0.026789665 0.12783231 -0.046716083 0.06047726
-0.107271254 -0.1108332 -0.051533286 -0.016744515 0.025079157 0.089093484 0.05948095 0.096511364
0.046460494 0.083653234 -0.008519634 0.110441044 -0.0166007 -0.14352629 -0.024994759 -0.0057878993
0.21176249 -0.047633003 0.12312529 0.05986076 0.09746233 0.14875685 0.027005108 0.035886362
0.07860373 0.051804386 0.01237327 -0.032810323 -0.018629335 0.0950715 0.044310894 0.18162113
0.11137148 0.03330974 0.03816229 0.06383084 0.09564913 0.09718249 0.2273328 0.11493478
0.2087653 0.21089794 0.0979088 0.23758814 0.1376477 0.12459194 0.052167375 0.05210014
0.18350273 0.15820539 0.09578949 -0.053562254 -0.16280286 -0.02172154 -0.12957741 -0.20209311

rnn_layer.rnn_layer.weight_hh_l0 f4 [256, 64]
00000000: 43a9 cfbd 65cc 7a3d b107 e5bd 24d2 85be
00000010: c7ab c4bc 4454 b2bd df69 00be 6067 1bbe
00000020: 56cd 783b 0413 bd3a ba0e 88bd e6a1 9abd
00000030: 6399 65be 7ab5 66be 8214 39bd d13f b6bd
00000040: 067e 85bc 5e5c 52bd 66ce 83bd 3ffe 0dbd
00000050: 6e28 f2bd 0a4a f4bd 2347 0cbd 04f3 08be
00000060: 86bd 2ebe 776c ffba 0bca 03be 2daf c6bd
00000070: bc95 c3bd 447e 053b de47 d3bd 5611 f1bd
00000080: 8142 7fbd d0de 5fbe ebaf 39be c316 f2bd
00000090: f4c5 05be 8c54 44be 56ae 80bd 4aa9 3dbd
000000a0: ca3f 79bd a55c 9ebc 4598 11be c12e 1abe
000000b0: e4dc a2bd d923 97bd 2544 f0bc 75c4 55bd
000000c0: 0cbb cbbd 9a0d 05bd 3371 09be 2b31 37bd
000000d0: 36c6 58be 6131 1bbe 17a1 6cbd 30bd 54be
000000e0: df5c 603d 424f 20be c750 bbbc 5c6f bcbd
000000f0: f1db 2dbd 7235 2ebe 2e21 b2bd c7bc cabd
00000100: 6936 2a3e f6e9 813d 98a1 bebb f881 a9bd
00000110: 55a9 b1bd 4131 323d 35eb d7bc a54d eebd
00000120: b558 6abd 4784 8d3c 31a3 d2bd ff06 c4bc
00000130: df25 e5bb 80dc 4abd 4535 8ebd c277 393e
00000140: 6d4e ee3d e434 bebd c2a9 e0bc 5818 b5bd
00000150: e95b 50bd 57b1 b43c ef94 833d 4a25 22be
00000160: e62a 25bd ab83 cfbd 8d4e ecbd c643 ebbc
00000170: b537 56ba 80cf abbd 9192 bdbb 2a7d e03c
00000180: 7b7e 71bc 92cb c33d 1a6b 4f3d 639b d8bd
00000190: 8abe a9bc 80c2 d1bc e68a ea3d 2dc8 fd3c
000001a0: d06c 8dbc fa2f 3f3d 0169 2dbd c451 d9bb
000001b0: 5c47 7e3c e3a4 553d 4b38 fb3c de79 cbbd
000001c0: 3442 8dbd db4c a03d 1f4e 89bd 3e50 0e3d
000001d0: e254 c5bd 841e a33d cf19 483c f995 c3bd
000001e0: e6a0 803c 293c 36bb 2ad2 383b 1320 78bc
000001f0: 8291 16bc f023 b33c 1ca5 9fbd 532c 793d
00000200: a2f3 923d b96b 9f3c e421 95bd 4701 2cbd
00000210: 965b b3bd 90cf ac3d a79b aa3c d60d ac3d
00000220: 2caf 01be 2f80 4c3c 783f 39be 11e6 15be
00000230: 4c59 b2bb 3e95 7dbd 158b cc3c 7316 6abe
00000240: c1c1 5f3d 4fa3 4a3d 0cca e23d 9ffd efbd
00000250: 536e 213d 0b33 93bd a8bd 1d3e d68a a1bd
00000260: ea74 b93d 932b 2abd 0a3b 6a3a be79 78bd
00000270: 9543 e73d 97df a2bd 72da af3d e713 c6bc
00000280: 1e3b 773a 31bc c03d 9e1b abbb bc39 8fbd
00000290: 3adf 69bd e8e3 733d 56b6 43bb cc03 98bd
000002a0: a7f5 e9b9 d2df 4f3d 0b81 0f3c 2c0d 85bd
000002b0: 4378 4dbb f916 25be 5e35 26be d098 62be
000002c0: 1945 c63b c437 203c 19a3 103e f143 023d
000002d0: a762 ffbd 44b1 ae3d c77b 36bd ef76 643d
000002e0: 3785 053e 193b aebd 56ca fdbd f871 14be
000002f0: 5e64 463e 76b7 0d3d 7cb6 aabd 2361 e4bc
00000300: 83e9 8ebc 3a3b 6c3d 6877 12be f397 0cbe
00000310: bc14 22bd 4f91 5d3d 28ad bcbc 22d9 eebb
00000320: a6ec ef3d 6f3e 5abc 2122 963d 536c 68bd
00000330: 2d50 8a3d bf9b df3c 1980 1b3d 85c9 103c
00000340: 7791 173d 8b93 5f3c fdf1 403c e0f8 053c
00000350: 1825 05bd 0be9 86be 3c38 4a3e a4ea 93bd
00000360: 3efa c73c fe77 29be b50d 2b3c d964 a8bc
00000370: d8b9 123d 2e4d 8a3d 88f7 1a3d ccf0 8ebc
00000380: c2da 6d3d 12ec 883d b535 1bbe c220 75be
00000390: 30f4 193d 3ced c03b 04b5 8ebc d900 c9bc
000003a0: 3e42 c5bd f1a1 30bc 9446 a63d 61f3 7cbb
000003b0: 24c6 e6bc 448b 62bd 1dfb 92bd 8bfb 5f3d
000003c0: f9aa d7bd 30d4 a13d 5248 9bbd a700 49be
000003d0: c156 2f3d f691 a9bd 67fa dc3c f2dc c9bd
000003e0: fa9b e03d a72a 18be 92d6 e83b e5a1 b0bc
000003f0: 2177 5abd f5fe 743c c751 16be 0f79 26bd
-0.10139706 0.061230082 -0.11183108 -0.26136887 -0.024007691 -0.08707479 -0.12540387 -0.15176153
0.0037964187 0.0014425223 -0.06643434 -0.07550411 -0.22421794 -0.22530165 -0.045185573 -0.08898891
-0.016295444 -0.05135762 -0.06435852 -0.034666296 -0.118241176 -0.11928184 -0.03424753 -0.13373953
-0.17064485 -0.0019487281 -0.12870042 -0.09701381 -0.09550044 0.002036945 -0.10316442 -0.11770885
-0.062319282 -0.2186234 -0.18133514 -0.11820748 -0.13063794 -0.19172877 -0.06283252 -0.046304025
-0.06085185 -0.019331286 -0.14218242 -0.15056898 -0.07952288 -0.07379884 -0.029329369 -0.05218931
-0.09947786 -0.032483675 -0.13422088 -0.044724625 -0.21169361 -0.15155555 -0.057770815 -0.20775294
0.05477607 -0.15655234 -0.022865666 -0.092009276 -0.04244608 -0.17012575 -0.08697735 -0.09899288
0.16622318 0.06343453 -0.0058176033 -0.08276743 -0.08674876 0.043504003 -0.026357273 -0.11635903
-0.057213504 0.017274989 -0.102850325 -0.023929117 -0.00699304 -0.04952669 -0.06943754 0.1811209
0.11636052 -0.09287432 -0.027424697 -0.08842534 -0.050868902 0.022057218 0.06424891 -0.15834537
-0.040324114 -0.101325355 -0.1153842 -0.02871884 -0.0008171753 -0.08389187 -0.0057852943 0.027403433
-0.014739628 0.09560312 0.05063925 -0.10576513 -0.020720739 -0.02560544 0.11452274 0.03097924
-0.0172638 0.046676613 -0.042336468 -0.0066320617 0.015519943 0.0521592 0.030666491 -0.09935354
-0.06897393 0.07827159 -0.067043535 0.034744494 -0.09635331 0.07964805 0.0122131845 -0.095500894
0.015701722 -0.0027806854 0.002820144 -0.015144366 -0.009189965 0.021867722 -0.07795164 0.060833286
0.071753755 0.019460546 -0.07281855 -0.041993406 -0.08757703 0.08438027 0.020826174 0.084010765
-0.12664479 0.012481733 -0.18090618 -0.14638545 -0.005442774 -0.061909907 0.024968663 -0.22860126
0.054628137 0.04947215 0.11073694 -0.11718296 0.039411854 -0.0718747 0.1540438 -0.07887809
0.09055503 -0.041545462 0.0008935189 -0.060662977 0.11292187 -0.07952803 0.08586587 -0.024179412
0.00094311114 0.09410895 -0.005221798 -0.06993434 -0.05709765 0.05954352 -0.002986332 -0.07422599
-0.00044624248 0.05075056 0.008758794 -0.06496653 -0.00313522 -0.16122045 -0.16231295 -0.22128606
0.0060507176 0.009778921 0.14124717 0.031803075 -0.12469988 0.085299045 -0.044551637 0.055777486
0.13039099 -0.08507366 -0.12392108 -0.144966 0.19374225 0.03459879 -0.083355874 -0.02787835
-0.017445331 0.05767367 -0.14303362 -0.13729839 -0.039570555 0.054093655 -0.023031786 -0.007289068
0.11715059 -0.013320549 0.07330728 -0.05674393 0.067535736 0.027295945 0.03796396 0.0088371085
0.03700396 0.013646017 0.0117764445 0.008177012 -0.03250608 -0.26349673 0.19748014 -0.072224885
0.024411317 -0.1654968 0.01044028 -0.0205559 0.035821766 0.06753002 0.03783372 -0.017448805
0.05806995 0.06685652 -0.15157206 -0.23938277 0.03758639 0.0058876555 -0.0174203 -0.024536537
-0.09631775 -0.010780797 0.081189305 -0.0038597214 -0.028170653 -0.055308595 -0.07176802 0.05468325
-0.10530657 0.079018 -0.075821534 -0.19629155 0.042807344 -0.08279793 0.02697487 -0.09856595
0.1096725 -0.1486002 0.007105657 -0.021561572 -0.053336266 0.014953365 -0.14679633 -0.040642794

rnn_layer.rnn_layer.bias_ih_l0 f4 [256]
00000000: 31bd 77ba 9d4c 033e 3e0f 7c3d 940a e93d
00000010: 1404 503d ff81 363e b36d 653e 5a33 733d
00000020: f764 6c3e 4fbf 6fbc 30a0 d43d 1f7b 62ba
00000030: 437d 40bc 850e 853d 376e 93bd bdeb 933d
00000040: f332 f13d 5534 9cbc 6a3c 853e f743 0e3e
00000050: 0bfd 61bd 4312 3bbd 8bf6 453e fbd9 6f3e
00000060: b146 c03d 0be6 be3d aa82 3a3d dad8 a23d
00000070: a219 203d 25ba 413e ae16 d33d 09c1 84bd
00000080: 3079 553e a5b8 ec3c d500 bbbc 3d5d 263c
00000090: b972 0abc bd91 c93d c1a9 ba3d 4347 133e
000000a0: 31cf 04bd f640 bb3d 0b8f 8b3d d7af 213e
000000b0: 669b 583d 63a1 c43c bcc3 fa3d 20d0 723e
000000c0: ded4 973e fac3 483e 6d2f 453e e4a4 66bd
000000d0: a0c3 343d 6f80 ec3d 18f6 36bd d46e 083e
000000e0: 8057 1bbe 1406 a23d b9ca 183d 7ed7 3b3e
000000f0: 1d2b 2e3e 5d30 843d bf0a c73c 716e 3b3e
00000100: 9a6d a1bd 2906 273e 3164 993d 352f 973d
00000110: 7513 7a3e 7bbe 653c 59b4 633d 6b38 ef3b
00000120: d311 353d 1237 02bd 129b a5bc a700 85bd
00000130: 18b6 dd39 a3d4 173e c668 2d3e 9263 273e
00000140: b7bd 823e 3d68 513e 78ec 8f3d 6ce0 c33d
00000150: f9cb 423d bd25 81bc ec28 24bd 860f 913e
00000160: c5a9 78bd 7af1 313e 2a2a 083e fd81 473d
00000170: 1706 303d 76ec e23d 57d1 8a3c 1e6f 943d
00000180: 688b aabc 6b48 f4bd 9ad4 86bc 5e7d 073e
00000190: d072 313d 08b4 27bd 2324 803d d9a2 5fbd
000001a0: e4ae 3f3e 24a0 68bc 25ba 143e 50e6 573d
000001b0: 59ab 33ba 86f2 263d ede0 1e3c 5c01 c5bd
000001c0: 42eb 85bc 1f1b 1cbd 4d76 083e 4f9e fa3d
000001d0: 6908 fbbc ad90 1abd 0c6f d43c d7d3 1ebd
000001e0: 8ce2 c93d 0be5 143d f7ba b03b 2f30 113e
000001f0: ba76 1c3e d6ef b23b 8def 913d 0517 f93d
00000200: cd63 e23c 9646 d03d 24fd 2b3d 07eb babd
00000210: 7ea7 8b3d e83f 11be 02b4 ee3c f00f 8e3d
00000220: b462 cc3d 664c 6e3d f79c b8bd 362e ecbb
00000230: e89c a93b 5fe1 b9bd 0e25 0cbd 49f2 cc3d
00000240: e3f1 e5bd 605b 9c3d 391c babc 1481 dbbd
00000250: f537 b7bd b844 61bd ad5c fb3d 4625 c63c
00000260: 9bfd bcbd 3c11 b23d 384c 033d 99a0 3cbd
00000270: 10bf abbd de79 f23d 3d98 c53d 7b21 1bbd
00000280: af3c 6d3d 3ffa 84bd 86c0 213e a680 133e
00000290: 2430 36bc ddc7 4c3c c751 723d 4e19 d5bc
000002a0: 62f3 0a3e dc85 633c aecd 4a3d 82cf 9fbd
000002b0: 1d95 afbd 65ce 2a3c b1fa 0d3e e844 9a3c
000002c0: 2a25 a7bc 0376 ff3c 5e68 a7bd 718f ccbd
000002d0: 6ec1 953c ae0c ccbb 97ff 9d3d d808 063e
000002e0: d90a ecbc 80b7 81bd 5478 113e 7215 eb3c
000002f0: 6872 0abe af07 a6bc 93fb dc3d 6965 b7bc
00000300: 4152 543e c3b3 4b3e 4d6b 3d3e 45e7 ee3d
00000310: b982 fb3d 8412 883e 97ee 3a3d e907 0f3e
00000320: c8c5 c43d 1124 103e 357d 6d3e 7fb4 fe3d
00000330: 1aea d23c bb79 713d b1ca 36bd b524 803d
00000340: 5a69 8b3e 93f2 d23d 3a74 9a3e 4854 243d
00000350: 44fb 253e a5fa aabd f2d1 8e3c 3984 8b3e
00000360: 25b8 783d 4a6a a93d 0b1e fe3d dd86 103e
00000370: 3ecf ae3c 9b0f 503e d6bb 213e 6cb3 ef3d
00000380: 22c3 803e 5cd3 853e ded6 193e 2b9f 2c3e
00000390: 1228 9f3d 41e2 d23d f3f6 773e 7029 163e
000003a0: 65f3 643d 0ed9 403d dd21 223e 7ce4 ca3d
000003b0: 0362 1d3e dc59 653e de99 fa3d d65f d73a
000003c0: cf6a ec3d f1f6 943c c3da ab3c b92f e33b
000003d0: e7e7 0a3d 470e 1b3e 98d2 803d d5b0 5a3e
000003e0: a61f 603e 31dd 093e 911c 363d 112d 3c3e
000003f0: 3151 963e ebd8 593e 8363 963d 108a 823e
-0.0009450494 0.12822194 0.061537974 0.11378971 0.05078514 0.17823027 0.22405128 0.059375145
0.2308539 -0.014633014 0.10382116 -0.00086395623 -0.011748615 0.0649691 -0.07198756 0.07222698
0.11777296 -0.019067923 0.26022655 0.13893114 -0.05517296 -0.045671713 0.1933233 0.23422997
0.09388483 0.09321221 0.045534767 0.079515174 0.039086945 0.18918665 0.1030706 -0.06482131
0.2084701 0.02889664 -0.022827545 0.010154066 -0.008450204 0.098422505 0.09114409 0.14382653
-0.032424156 0.0914325 0.06814393 0.15789734 0.052882574 0.024002736 0.122443646 0.23712206
0.29654592 0.19606009 0.19256373 -0.056309596 0.044131875 0.11547934 -0.044668287 0.13323528
-0.15170097 0.079113156 0.037302706 0.18343922 0.17008634 0.06454537 0.024297116 0.18303849
-0.07882233 0.16310944 0.07489813 0.07382051 0.24421485 0.014022465 0.055591915 0.0073004267
0.04420645 -0.0317908 -0.020215545 -0.06494265 0.00042288075 0.14827208 0.16934499 0.16346577
0.25535366 0.2044992 0.07027525 0.095642895 0.047557805 -0.015765065 -0.04007809 0.28332156
-0.06070878 0.17377272 0.13297334 0.04870795 0.042974558 0.110802576 0.016945524 0.072477564
-0.020818427 -0.11927875 -0.016458798 0.13231418 0.043322384 -0.040943176 0.062568925 -0.054598663
0.18719059 -0.014198337 0.14524134 0.052709877 -0.0006853841 0.040758632 0.009697181 -0.096194
-0.016347531 -0.038111802 0.13326378 0.12237226 -0.030643659 -0.03773563 0.025931858 -0.038776245
0.098576635 0.036351245 0.0053933817 0.14178537 0.15279666 0.0054607196 0.07125769 0.12162594
0.02763548 0.10169713 0.04198946 -0.09126859 0.06819056 -0.14184535 0.029138569 0.069366336
0.099797636 0.058178328 -0.09014314 -0.007207657 0.0051761754 -0.09076189 -0.034215026 0.1000715
-0.11227777 0.07634616 -0.022718536 -0.10717979 -0.0894622 -0.054997176 0.12273536 0.024187695
-0.09228059 0.086946934 0.03205511 -0.046051595 -0.08386052 0.118396506 0.09648178 -0.037873726
0.0579192 -0.06493043 0.15796098 0.14404544 -0.011119876 0.012498823 0.05916002 -0.026013043
0.13569406 0.013886895 0.049512558 -0.07803251 -0.08573363 0.010425185 0.13865162 0.018831685
-0.020403463 0.031184202 -0.08174203 -0.09988297 0.018280711 -0.0062270975 0.077147655 0.13089311
-0.028813766 -0.06333828 0.14206058 0.02869675 -0.13520205 -0.020267336 0.107901715 -0.022387223
0.20734502 0.19892792 0.18497963 0.11665205 0.12280793 0.26576626 0.045637693 0.13967861
0.09608036 0.14076258 0.23192294 0.12436771 0.025746394 0.05895398 -0.044626895 0.06257001
0.27228814 0.103001736 0.301668 0.04011944 0.16209131 -0.08348588 0.017434094 0.27249315
0.06072249 0.08272226 0.12408074 0.14113946 0.021339055 0.20318453 0.1579431 0.11704144
0.25148875 0.26137817 0.15023372 0.16857593 0.07771315 0.10297061 0.24215297 0.14664245
0.05589618 0.047082 0.1583323 0.09906861 0.1536942 0.2239756 0.12236379 0.001643176
0.115438096 0.018184157 0.020978337 0.006933179 0.033912566 0.15142165 0.062901676 0.21356519
0.21887073 0.13463284 0.044460837 0.18376566 0.2935882 0.21274154 0.07343199 0.25495958

rnn_layer.rnn_layer.bias_hh_l0 f4 [256]
00000000: e0f4 243d b89e ec3d 6ff0 673c 0b5c 2f3e
00000010: f945 1d3d 0425 a53d 03a3 4b3e edf0 463e
00000020: bc5d fe3c 8894 2d3e 4a1b 033d f034 eabc
00000030: 03c0 243b 6662 4b3e 3659 153e 087a 853e
00000040: 2eef 1b3d c5c8 c43c 1b36 943e 17a4 e4bc
00000050: 7e26 0e3e 7118 023e aeab 183e d75d a23c
00000060: 4a1d 7b3e 6396 823d 782d 063e 485b 083e
00000070: 7b1e 313e 18ee b13d 617c 023d 75d9 9c3d
00000080: d234 a63e 2366 7f3e a214 723d fc46 9dbc
00000090: bd12 373d 7a1e 5f3d ce6b 4b3d b510 24bd
000000a0: be43 22bc c2b5 013e 93c2 033d b437 0f3d
000000b0: 64db 853d f04a b33d 7bb3 303d d34b a83c
000000c0: f04c 213e 6c31 763d 2889 14bd ef17 c1bd
000000d0: 1fbd 123e eb0d 453e da34 b03d a5fa 953d
000000e0: 4d0a 06be 29ff cf3c b64f 0b3e 63e0 583d
000000f0: 9ebd ecbc 983c d53d d2fa aebc 5a7b 493e
00000100: 6e05 c43d 8373 643c 5535 b33b 3dbc c6bd
00000110: 11ce 023c 18d6 0dbd 7db9 e83b 8739 923d
00000120: cb92 963d 96a0 4cbd 8a55 3f3e 980e 093d
00000130: 97fd a4bd 6f2a 773d e4ad 8c3b 61dd 6f3d
00000140: f8e0 653e ba8f 203e 89f1 623b 83c5 9d3d
00000150: 3188 813d 9424 05bd 684f 71bc 9ba5 8f3e
00000160: da8f e13d 587e 273e f707 e93d 3b4c 083e
00000170: db8e 113d d652 933d 02a0 343e 4031 1e3e
00000180: 2e12 423d 22c0 24bc c90a 05bd a050 30bd
00000190: b42f 393e 3af3 813c ca5e fa3b 3aa9 3c3d
000001a0: 90a9 c43d 4a79 113e 1c03 023e 3727 b53d
000001b0: 520a 96bd 0d4d 403d dae0 97bc 26d8 9e3d
000001c0: f1f9 debc 969f 62bc dcc5 20bb f1a5 cf3d
000001d0: 8bc2 08bc 4a2e cf3c a331 4b3d 79ee b13d
000001e0: d4ab 613e 3a74 613c c9bb 5d3e 8390 bc3d
000001f0: b6b9 af3d ac91 ff3b d7ec e8ba 6b1b 47bb
00000200: c074 6cbd 1558 0f3d 88dd 2ebe 473d 9abd
00000210: fda4 f7bd 61af 9f3d 604f dabd 75d6 273d
00000220: e67c c43d d431 2b3c bed4 8c3d 057a c5bd
00000230: d0c4 bfbd 09e2 b53c 2ce2 ba3b 5beb 003e
00000240: 3652 06be 4d81 883d c70e 49be 5c91 2e3d
00000250: ba1e 8b3c 16ce 4ebd 0d8b 6dbd e48b 303d
00000260: 1609 2dbd 56e4 d73d 80f5 0cbd 46ea b13d
00000270: ac4d 9d3d 2fa5 993d 0eb2 36bd 11a2 85bd
00000280: 1f87 a0bd 8d3a 5dbc 0141 f63d 4952 c0bd
00000290: 7279 aabd 40e2 aabd f562 9c3d 15a5 f5bc
000002a0: 5ccd dabb 0b36 40be 9c70 f83c 5b7e b6bd
000002b0: ecfd c4bd 32c0 c33d 1cc7 31bd 0753 06bd
000002c0: 9110 17be 3966 f93d ea74 d0bd cdcc 253d
000002d0: 16a7 99bd 30ab 5cbd d875 86bd bac9 273e
000002e0: 024d 6abd 7d1a f5bc 50bd 0bba 11f0 063e
000002f0: 3410 9abc db07 6f3d 8fe9 9d3d 7213 97bd
00000300: 1b0d 103e 00a8 ee3d 227e 1c3e 8a6d 063d
00000310: fc6b 7f3d 9696 713e 7c23 673e 241f e13c
00000320: 7ba9 c13d c63c 2b3e 9462 8f3d 939a 433d
00000330: 1081 8d3d f9d5 343e 04d9 a0bc d639 6a3e
00000340: 31b7 933e e354 063e e50e 7b3e 7bdf 6cbb
00000350: d24b 823e 1cbc 133e e314 863c 3feb 673e
00000360: 5e90 633e df81 483e 4c3e 303d 7371 5b3e
00000370: 616e eb3c 7bd0 e43d a16b 0b3d e908 83bc
00000380: 97a2 803e a63b 663d c7be cb3d 5d5c d73d
00000390: 231d cb3d c6ae 053e cbac 553e 843d 1e3e
000003a0: dcf9 983d c802 6e3e 518e 0b3e ba2a 0bbd
000003b0: d446 c63d 1838 be3d 3b67 493e 8dd3 2a3c
000003c0: 1d19 683e ee6a 393e 8c27 cb3d 633d c03d
000003d0: d5ab 153e 53df 953d 07b8 363e 1552 c53d
000003e0: a360 2e3d df43 e63c 2828 c73c 9264 eb3d
000003f0: 4147 2f3e 5909 663d 2448 463e 7295 b53d
0.040272593 0.11553711 0.014156445 0.17124955 0.03839681 0.08063701 0.19886403 0.19427843
0.031050555 0.16951191 0.032008447 -0.028589696 0.0025138862 0.19861755 0.14584813 0.26069665
0.038069896 0.024021516 0.2894753 -0.027910275 0.13881871 0.12704636 0.1490924 0.019820137
0.24522892 0.0637634 0.13103282 0.13316071 0.17296784 0.08687991 0.0318569 0.07658664
0.32462174 0.24941306 0.05910171 -0.019198887 0.044695605 0.054472424 0.049663357 -0.040054996
-0.009903846 0.12666991 0.032167982 0.034965232 0.06535986 0.087545276 0.043139916 0.020543968
0.15752006 0.060105726 -0.036263615 -0.09428393 0.14329956 0.1924359 0.08603831 0.07323197
-0.13089867 0.025390225 0.13604626 0.052948367 -0.02889901 0.10411948 -0.021359835 0.19675961
0.09571348 0.013943556 0.005469004 -0.09703872 0.0079837 -0.034628004 0.00710219 0.07139879
0.07352217 -0.049957834 0.18684974 0.033461183 -0.08056181 0.060343202 0.0042931903 0.058560733
0.224491 0.15679827 0.003462883 0.07703688 0.063248046 -0.032505587 -0.014728405 0.28056034
0.11013766 0.1635679 0.11378472 0.1331033 0.03553663 0.07193534 0.17639163 0.15448475
0.04738062 -0.010055574 -0.03248099 -0.04304564 0.18084604 0.01586305 0.0076406943 0.046059825
0.09602654 0.14206424 0.12696499 0.0884537 -0.07326187 0.04694848 -0.018539835 0.07756071
-0.02721879 -0.013831994 -0.0024531996 0.10139073 -0.008347164 0.025290627 0.049607884 0.08688063
0.22038203 0.013760621 0.21653666 0.09207251 0.085803434 0.007799348 -0.0017770779 -0.0030381333
-0.05772853 0.03499611 -0.17076695 -0.07531219 -0.12092016 0.07797123 -0.10659671 0.040976007
0.09594135 0.010448892 0.06876515 -0.09642414 -0.09363711 0.022202509 0.0057032313 0.12589781
-0.13117298 0.06665287 -0.19634543 0.042619094 0.016982425 -0.050489508 -0.057993937 0.04310216
-0.042244993 0.105415985 -0.034413815 0.08687262 0.0768083 0.075022094 -0.0446034 -0.06525052
-0.07838272 -0.013502729 0.12024117 -0.09390695 -0.08323945 -0.08343935 0.07636062 -0.029985944
-0.006677313 -0.18770616 0.030327134 -0.08910819 -0.09618744 0.09558143 -0.043402776 -0.032794025
-0.14752413 0.121777005 -0.101785496 0.040478516 -0.07502572 -0.053874195 -0.06565446 0.16385546
-0.057202347 -0.029919857 -0.0005330639 0.13177516 -0.018806554 0.0583571 0.077105634 -0.07376756
0.140675 0.11653137 0.15282491 0.03281931 0.06235884 0.235926 0.2257213 0.02748067
0.09456154 0.16722402 0.07001224 0.047754835 0.06909382 0.17659749 -0.019634731 0.22873625
0.288507 0.13118319 0.245174 -0.0036143947 0.2544847 0.14427227 0.016367381 0.22648333
0.2222304 0.19580792 0.04302816 0.21429996 0.028739156 0.11172577 0.03403819 -0.01599546
0.25124046 0.05620923 0.09948497 0.10515664 0.09917667 0.13054952 0.20866697 0.15453154
0.07469532 0.23243248 0.13628508 -0.033976294 0.09681478 0.09288043 0.19668286 0.010426414
0.2266583 0.18107197 0.09919652 0.093867086 0.1461633 0.07317986 0.17843638 0.096347965
0.04257263 0.028108535 0.02431114 0.11493792 0.17117025 0.05616126 0.19363457 0.08866395

rnn_layer.rnn_layer.weight_ih_l0_reverse f4 [256, 50]
00000000: 7dc0 ebbd 3a70 713c 1c98 1bbe e2ae 0abc
00000010: 4b74 88bd ce7e b53d 41af 2f3e 28ad bd3d
00000020: 9471 2c3e 6f0b 983d ea01 343e b201 ad3b
00000030: 99a3 513e aadb a83e 4234 b63e 05b3 0a3e
00000040: 2fda 95bd 02ff db3c 716c 6abc ad27 30be
00000050: 8127 053c fa0f d9bb 52d8 3d3e 4459 2d3e
00000060: a1ab 01bc 4688 56bd 35be d9bd 1b69 efbd
00000070: 1b90 063e 44ab b0bd 6d98 c93d 7ac1 363e
00000080: 46bc aabd 834a 903d 987a 213d 5642 6b3d
00000090: 2c77 c63d 5ec8 083e 6967 683e 5c70 8c3d
000000a0: a69e 4e3e 75fa 1a3e adbe 6a3e 83d1 933e
000000b0: e957 9f3e 51af 8d3e 0202 683e 354e 953e
000000c0: 5520 053e 6f09 053e d5a6 b7bd c9e7 50bc
000000d0: 6b16 453d 7e5d 9abc 418a a33c 1e55 46bd
000000e0: e067 3d3d 0b10 6b3d 257e b83d 0c37 3b3e
000000f0: 0666 2b3e 42bf d13c d768 50bd 270f 493e
00000100: a5bf 733e 3054 b43d 2f62 303e 1625 f63d
00000110: a286 6e3d f48a 7a3d 17f7 373e c2eb 703d
00000120: 61a5 2c3d dd27 4c3c 2d3b 453e a56d 953d
00000130: a7c1 3d3e 8cfc bebc 724f 103e ccf5 f73d
00000140: 0fa2 153e 86b1 bf3d f6c4 273e d548 0c3e
00000150: 2ef0 283e 6865 5b3c b66b 983d 7b52 253d
00000160: fb93 c53d 54b9 333d ebed 8f3d 186f d93d
00000170: caca ef3d 5aec fc3d ff56 a13c cbf6 af3d
00000180: 8916 ab3c be50 a83d 2b7f c1bb fc90 3f3e
00000190: 39d4 ac3c a6bb 9fbd c61a 913c 89e4 aabc
000001a0: 3f38 15be eb34 9cbd 6cd2 b3bd 8f01 abbc
000001b0: 5139 38be a25b 93bd a7ca 93be 0174 5bbe
000001c0: 2c55 5ebe 596f 45bd d7ca f73d 8768 a83e
000001d0: ee19 023e 1aa8 d53d 1ac5 c83d 218f 893d
000001e0: 789d 4d3e 1ff3 703e adab 8e3e 01cd 9a3d
000001f0: 1780 383e 9f75 723e 9552 153e 90b2 0d3e
00000200: 7893 143d 1ca9 213e 28b6 9c3e 2c13 91bd
00000210: 5062 8cbb b917 c8bd 0803 1cbd 4288 0f3e
00000220: 1870 cc3d 4847 543d 0efe f33c e5b6 953d
00000230: 1b8d 7abc 5eda febc ee0a 643e 4e81 373e
00000240: 0f0e 773d 03ca be3d 22e3 8a3d eb00 03bd
00000250: f6fa 563e 1192 003e f4a3 d7bd e372 7e3b
00000260: 875c c53c 2f80 9f3c e308 763c 65ef a6bd
00000270: 4d76 f2bd e2fb 2ebe 5456 19be 6302 b7bd
00000280: 8ecc 53bd 25fd 993d 1b27 bd3d 4b9a bdbd
00000290: e9dc ce3d 39d7 633d 65a9 01be 3224 ec3c
000002a0: f47e dc3a b8c1 37bc 4af7 193e 6a84 353e
000002b0: 916b 0c3e b3cf 2c3e 284e f13d fc9b 5cbd
000002c0: 76e1 2b3d 230c 0a3e e58e 343c f3d2 be3d
000002d0: c069 113d 24ee b63d 8fd8 713d 98e6 163d
000002e0: b444 6b3d 5fa4 853c aa78 f23c 9500 903d
000002f0: 4552 d23d 35da cf3d 0759 563e f8c8 473e
00000300: bbf5 6f3e 9170 243e a8fa 013e 1fb2 f93d
00000310: c7ae 4c3d 366d 213d 5e81 2a3e c0b7 64bd
00000320: 4044 a2bd 4f1b 8dbd 88bd c83d 16e0 193c
00000330: fdf0 93bd 411e d9bc fade 3bbd 331c 093e
00000340: 79c6 173d 7a55 2d3e 04c4 98bb c8e9 4a3d
00000350: 681b 303d 2f99 433e 3803 463e f502 813d
00000360: 1486 86bd 3af1 8a3a 1583 843c 55a1 c53d
00000370: 431d 713e be20 813d 90d2 593d c1fa 643d
00000380: c53f ab3d e733 223c 8128 e13d 360b 373d
00000390: 29b9 fa3d 0132 f93c 8be0 183d 43d4 693d
000003a0: 967a 813d 5d4e 2c3e b445 71bc b858 9f3d
000003b0: d2a4 843d 273c 8c3e 9997 333e 2d21 7b3d
000003c0: 97d6 983d f02c e43d 6c01 4c3d 0ec1 7a3e
000003d0: 337d 6d3e e3ef 213d c909 403d cdfe 503d
000003e0: 9e11 2f3e e402 523e 8996 bcbd 192c 93bd
000003f0: 44cd 4e3e c808 363e 9e7c b23b 0cd4 923c
-0.115113236 0.01473623 -0.15194744 -0.008464547 -0.06662806 0.08862077 0.17156698 0.092615426
0.16840202 0.07424056 0.17578855 0.005279743 0.20472564 0.3298009 0.35586745 0.13544853
-0.07317006 0.026854996 -0.014308081 -0.17202635 0.008127094 -0.006624219 0.18539551 0.16928583
-0.007914455 -0.052376054 -0.10631982 -0.11689969 0.1314091 -0.08626416 0.09843526 0.17847243
-0.083366916 0.07045462 0.039423555 0.05743631 0.09690699 0.13357684 0.22695698 0.06857368
0.20177707 0.15134604 0.229243 0.28870782 0.31121758 0.27672818 0.22657016 0.2916123
0.13000615 0.1299188 -0.089673676 -0.012750574 0.048117083 -0.018843409 0.019963386 -0.048421018
0.04624164 0.057388347 0.09008435 0.18282717 0.16738138 0.025603894 -0.050881233 0.19634686
0.23803575 0.0880512 0.17224954 0.12018792 0.058233865 0.061167672 0.17965351 0.058818586
0.042149905 0.012460676 0.19260855 0.07296304 0.18530904 -0.023313783 0.14092806 0.12107429
0.14612602 0.09360032 0.16383728 0.13699658 0.16497871 0.013390876 0.07442419 0.040361863
0.09647366 0.043877915 0.07027801 0.106168926 0.11708601 0.12349768 0.019694803 0.08591994
0.020884769 0.08218525 -0.005905052 0.18707651 0.02109729 -0.07799463 0.017712962 -0.020860927
-0.14572237 -0.07627281 -0.08780369 -0.020874767 -0.17990614 -0.07195212 -0.2886555 -0.2143097
-0.21712178 -0.048201893 0.120992355 0.32892248 0.12705204 0.104324535 0.09803219 0.06716753
0.20079601 0.23530243 0.27865353 0.07558633 0.18017612 0.23677681 0.14582284 0.13837647
0.03627345 0.15787166 0.30607724 -0.07083735 -0.0042841807 -0.0977015 -0.03808883 0.14016822
0.09982318 0.05182579 0.029784229 0.07310275 -0.015292431 -0.031109985 0.22269794 0.1792042
0.06031614 0.093158744 0.067816034 -0.031983297 0.20994172 0.1255572 -0.105293185 0.0038825802
0.024091972 0.019470302 0.015016767 -0.0815113 -0.1183897 -0.17088273 -0.14974338 -0.08936002
-0.05170875 0.075189866 0.092359744 -0.09257945 0.10100729 0.055625174 -0.12662275 0.028825853
0.0016822503 -0.01121562 0.1503574 0.17726293 0.13712908 0.16876106 0.11782485 -0.053859696
0.041963063 0.13481192 0.011020397 0.09317579 0.03550124 0.089321405 0.059044417 0.036841005
0.057438567 0.01631373 0.029598553 0.07031361 0.10269598 0.101490416 0.20932399 0.19510257
0.23433582 0.16058566 0.12693274 0.12192177 0.04997137 0.039410792 0.16650912 -0.0558393
-0.07923174 -0.06889974 0.09801775 0.009391805 -0.07223699 -0.026503684 -0.045866944 0.13389663
0.037054513 0.16927138 -0.0046620388 0.049539357 0.042994887 0.19101404 0.19337165 0.06299392
-0.06568542 0.0010600456 0.016175786 0.09649912 0.23546319 0.06305073 0.053179324 0.0559032
0.083617724 0.00990007 0.10994054 0.044688426 0.12242348 0.030419352 0.037323516 0.057087194
0.063222095 0.16826768 -0.014726091 0.07780594 0.064767495 0.27389643 0.17538299 0.061310936
0.07462805 0.11141384 0.049806044 0.24487707 0.23192291 0.039535414 0.04688433 0.051024247
0.17096564 0.20508915 -0.092084 -0.07186145 0.2019549 0.17776787 0.0054469844 0.017923377

rnn_layer.rnn_layer.weight_hh_l0_reverse f4 [256, 64]
00000000: 44fe 16be 9902 a9bd f04b 3bbe 2ddd 1e3b
00000010: 2639 fdbb 2388 58bd 454d de3d 2e83 a8bd
00000020: 7a93 a23d 25fb be3c 0499 babd 989d 81bc
00000030: 07db fe3d bd22 ffbd 2d86 9abd 0dce 623e
00000040: 3f6a 593c e413 9abc 53c3 983d ba2c 3a3d
00000050: 1add 153e 3828 13be 7e20 0cbe 0ebb 0ebc
00000060: a3b1 fb3c 06b0 bf3d adcc 12bc 9152 8dba
00000070: 4bfe 89bc 081f e8bd a3f4 1e3d 1f7f 1c3e
00000080: f309 1b3d 5abd f1bc f222 87bd e1ba 00be
00000090: 0684 1c3c 4ec0 543d 3f5d 9c3c 200e 0ebe
000000a0: a75a 2cbe bf62 3abe b83b 8dbc 266b c83d
000000b0: 0b75 87b9 65f2 aebd 0865 be3d 35df da3c
000000c0: 7820 013e 12d8 a8bc c7dc 85bd d45c a73d
000000d0: 85e1 bc3c 3400 10be 6ada 08be 201b 3b3e
000000e0: 9811 893d 60f4 bf3d 1ee6 16be 5d9c 6abe
000000f0: 4b0b 38bd 678a 0a3e 1958 e13b 7576 e63d
00000100: eed0 373e e48b 0abe 7ef9 d9bd fb4b f1bd
00000110: dcd3 1dbd 1078 4ebd 2293 703c 03f4 1fbe
00000120: 94a7 72bb 16f1 5e3d d584 7ebd 023a b33d
00000130: 154a 2b3d 0582 103d 90f0 8f3d 26a7 b93d
00000140: b63c d83c 2703 463d 99dd a33e fb53 183c
00000150: 6462 8f3e 1aea a2bd c0d0 283e 6c25 903d
00000160: 9701 ac3c 3b2c 82be a3f5 07bd b705 aabd
00000170: 04c0 01bd de2b 303d a69a 4dbd a712 20bc
00000180: 25be 7fbd db63 cdbc 11aa 2a3d d1b0 5bbd
00000190: e46e 1a3d f1f0 e93c 412f 8c3d 632b 373e
000001a0: 20e8 09bd ab95 1f3d 8743 47be 3ea0 b03d
000001b0: a379 0dbd a95c 953d b4a0 853d 6b0a 06be
000001c0: 0ca1 f6bc c35d 023d a1e5 473d 6ce0 d7bd
000001d0: 73a0 05be 8023 23bd c7e3 073d 5a2b e93c
000001e0: 8aeb a8bb 3fd4 113e f0fa d1bd 7763 c53e
000001f0: 7964 3fbb 4f61 46bc 0fae c33c a913 3b3c
00000200: b153 a5bd 89bf 233c 496d 0abe d7f6 cabd
00000210: 6f8d 51bd 838f 2bbe 79e2 cabd 795f bd3c
00000220: 1962 b3bd 9afc 943c 8691 b1bd 1dd8 51bd
00000230: 9ca9 c4bd a1ae 8cbc 604a 44be 13d5 413e
00000240: b0ae 993d 8661 89bd 6ab2 0c3d 600a f8bc
00000250: ec21 9b3d 751c 293e 9425 4c3a d11d 4bbc
00000260: 281b aa3d b7ef b6bd cf97 683c eceb b13c
00000270: e4ab 873d cfbc 94bd 22eb 893d 2cc2 023e
00000280: 933a d13c 0f1d 403d b61b f9bb 6fd7 c83d
00000290: 4e95 59bd 7979 1a3e 2e09 57bd 3b4e 0ebd
000002a0: 4538 9d3d 4cc6 413d 6f88 71bd 989b 99bd
000002b0: c9b0 8cbc 6f51 273e 9c0d 143e 96f4 643d
000002c0: babe e33c 28ed dabc 38db 1e3c 3b60 bf3c
000002d0: f0ae 03be b2c5 0b3e aac8 fb3d 9a5c b63c
000002e0: e46f 0c3e 6c23 02bb 889c fe3d 0c3e b93d
000002f0: f16e 8cbd 31dd 42bd 4381 d93d 0b4e 573c
00000300: f84c 023d 864f 4abe 9758 b2bd 5110 90bc
00000310: 9cae a43d f7f6 1ebe 3f46 be3d e3bd 4c3d
00000320: a3cf adbc 5d12 54bb 61ca 87bd b978 493e
00000330: 1fb5 b83c 0f9f 7d3d 077b ed3c 2ebe d93c
00000340: ed4b 123c 4351 733b 3d51 bb3d ef34 e53c
00000350: 5e6b e03d ca63 063d 4f67 9e3c b2af 0dbd
00000360: 9590 a9bd a7a6 0dbd 2f3a 2a3d cd0e 91bd
00000370: f06d 653d 7066 8dbd 4072 2b3d d8a0 8f3c
00000380: dbbd bb3d ca6c 033d 4f04 c5bd bac2 86bd
00000390: 854b 993d 2f42 b53d e771 be3c 3919 c0bd
000003a0: 6905 b4bd 0785 903c 4a29 41be 4c4a 0bbe
000003b0: 464a adbd cad1 0c3e d722 1e3d 5610 bdbd
000003c0: be78 33be b329 0a3d 0a25 cdbc 775a 4abd
000003d0: 28de 95bd 41b7 e0bd 5621 793d 3220 823c
000003e0: 50c6 a8bd 8814 1d3e fbcf 4cbd 3bed b5bb
000003f0: 651c 253e 3e25 47bd 610f 9a3c f6e0 4cbd
-0.14745432 -0.082524486 -0.18290687 0.0024240718 -0.00772776 -0.052864205 0.10854582 -0.082281455
0.07938285 0.023313114 -0.09111217 -0.015822217 0.1244412 -0.12457798 -0.07545123 0.22148915
0.01326996 -0.018808313 0.0745913 0.04545281 0.14635125 -0.14370811 -0.1368427 -0.0087115895
0.030724352 0.09359746 -0.008959931 -0.0010782053 -0.01684489 -0.11334044 0.038807523 0.15282868
0.037851285 -0.029509235 -0.06598462 -0.12571289 0.009552961 0.05194121 0.019087432 -0.13872576
-0.16831456 -0.18201731 -0.01724039 0.09786062 -0.0002583641 -0.08542327 0.09296614 0.026717762
0.12610042 -0.020610843 -0.065362506 0.081720024 0.023056755 -0.14062577 -0.13364568 0.18272066
0.06692809 0.09372783 -0.1473622 -0.2291121 -0.044932645 0.13529359 0.006876957 0.11253063
0.17950794 -0.13529927 -0.1064329 -0.1178207 -0.038532123 -0.05040747 0.014683517 -0.15620427
-0.0037026154 0.054429136 -0.062138397 0.087512985 0.041818697 0.035280246 0.070283055 0.09065084
0.026396137 0.04834285 0.32005003 0.009297366 0.28004754 -0.079548076 0.16485882 0.07038388
0.020996852 -0.2542437 -0.03319324 -0.08301871 -0.03167726 0.043010585 -0.050196312 -0.009770072
-0.062437195 -0.025072029 0.041666094 -0.053635422 0.03770341 0.028557273 0.068449505 0.17887644
-0.033668637 0.038961094 -0.19459353 0.08624314 -0.03453983 0.07293064 0.06524792 -0.13089912
-0.03010609 0.0318277 0.048802976 -0.10540852 -0.13049488 -0.039828777 0.03317621 0.028463054
-0.0051550316 0.14241122 -0.10252941 0.38552448 -0.0029204173 -0.012108161 0.023886709 0.011418262
-0.080726035 0.009994396 -0.13518251 -0.09910362 -0.051160272 -0.16753964 -0.099064775 0.023116814
-0.08758945 0.018186856 -0.086703345 -0.051231492 -0.09602663 -0.017173113 -0.19168997 0.18928938
0.07504022 -0.06708054 0.034349836 -0.030278385 0.075748295 0.16514762 0.0007787582 -0.0123972455
0.08305961 -0.08932441 0.01419635 0.021718942 0.066245824 -0.07262575 0.06734301 0.12769383
0.025540626 0.046902712 -0.0076021804 0.09806716 -0.053120904 0.150854 -0.05249899 -0.034742575
0.07676748 0.04730825 -0.058968004 -0.0750038 -0.017174141 0.16339658 0.14458317 0.055897318
0.027800906 -0.026724413 0.0096958205 0.023361316 -0.12859702 0.13649634 0.12294133 0.022260953
0.13714558 -0.001985754 0.124322 0.090450376 -0.06857098 -0.047574226 0.10620358 0.0131411655
0.031811684 -0.19756898 -0.087083034 -0.017585905 0.080411166 -0.15523897 0.09290742 0.049985778
-0.021217173 -0.0032359578 -0.066303976 0.19674958 0.022547303 0.06191927 0.028989328 0.026579943
0.008929235 0.0037127293 0.09146354 0.027979342 0.10957979 0.03281001 0.01933637 -0.034591384
-0.0827953 -0.03458276 0.041559394 -0.07082901 0.056013048 -0.06904304 0.041857004 0.017532751
0.091670714 0.03208617 -0.096199624 -0.0658011 0.07485107 0.08850514 0.023247672 -0.09379811
-0.087900944 0.017641557 -0.18863407 -0.13602561 -0.08461432 0.13751903 0.038607445 -0.092316315
-0.17526528 0.033731174 -0.025042076 -0.04940268 -0.073177636 -0.10972453 0.060822807 0.015884493
-0.0824095 0.15339863 -0.050003033 -0.0055519617 0.16124113 -0.0486195 0.018806161 -0.050019227

rnn_layer.rnn_layer.bias_ih_l0_reverse f4 [256]
00000000: 423c a6bd b473 033e 0062 843c 510c 123e
00000010: d763 5f3d d67d 183d bcc0 043e 4872 cfbc
00000020: 7387 1e3e d204 2c3d 9ab5 21bc f3c9 f73d
00000030: 5e73 053e c166 613e 2ea3 0b3d 90a5 0bbc
00000040: a82c 243e dd85 7dbd c9b3 6d3e fbc9 823d
00000050: 2a31 63bc e71a 433e 428b 2b3e 122e 583e
00000060: 4845 d43c b568 433e 3453 c0bc d5fb 443e
00000070: c9b4 353e f16c 243c 1647 c13d 7a81 203e
00000080: 60ba 9e3d 89a1 5f3c 1ea8 813d ebd7 433d
00000090: 6886 9b3d 0296 de3d 589b c83d a594 093e
000000a0: f3e5 fe3d e72c 7d3e ce80 ff3d 61c1 543e
000000b0: 24cd 783d b862 e03c 1b75 323e 8a72 553d
000000c0: 0b76 b63c 8218 053e 85b4 04bd 4267 403e
000000d0: 678f e43d 92ca 27bd 2b15 fa3d c528 243e
000000e0: fa83 013d 83ed 243e 99ea 3c3e 695f 23bd
000000f0: 18f4 b43c 0252 983e 8646 463d 1eeb 103e
00000100: ff81 d33d e999 023e 4afb 78bd 53fb 7a3d
00000110: 8c88 1b3e 3a06 7abd fa29 29ba bc9a a5bd
00000120: ebbd ab3d ed22 7f3c 87de 723c b042 d9bd
00000130: 067e f73c a88b 2f3e b07e 7f3c a19c 493e
00000140: c3d9 df3d 6864 1e3e 43a6 903d 77dc c2bb
00000150: 08b1 f3bc dc94 a8bc b577 dc3d ea05 c43b
00000160: 884c 923d 831a 423d aacf e63b 389a 983c
00000170: 1a8e d4bc d2b4 f13d 33bc 093e f247 b13d
00000180: 36f8 953d 2d40 733d ddc4 bbbd 1d22 603d
00000190: 0515 fe3d 827d 6abd 5ee2 8c3d a467 95bd
000001a0: ada0 913d 1a75 c0bc 12d3 9f3d 9752 6d3c
000001b0: cc4d 2d3e 201f a03c d3ea 25bb 8923 a33d
000001c0: 0ee5 bcbd 0e0e 4cbd 154a 593e b5a8 1d3e
000001d0: e3a0 283d 31cf 473e 1650 053e 7e90 a13d
000001e0: 2f3a 0abd 3382 2bbd dd57 b83d ec7c 603d
000001f0: 3fa3 343d 0e69 4e3d f792 e33c 847b 68bd
00000200: 347e 4c39 8abf 8abd c34a 87bd 78cc e4bd
00000210: 0c8b 423d 21aa a5bd dc21 91bd 63fb 023e
00000220: 162c e838 d246 15be 1fc2 bf3d 75f4 f83b
00000230: d8fe 82bd 13f2 a33c c38c 62bd 709f 323e
00000240: eabc 76bd 1c5a eabd 2e12 b73b 8c6b b3bd
00000250: 398a 19be a6db c4bd f36f 68bd 86f1 053b
00000260: 9f17 d33b 1692 c13c 1bc4 b0bd ee14 c2bd
00000270: 6843 af3d ab77 0ebd ff30 6f3d 01c9 d43c
00000280: b79f e7bb eb4c f03d 87aa 4cbd 0d58 373c
00000290: 1088 43bd 6347 6bbb 6ae4 ef3d 6ec2 f83c
000002a0: 153a f73d 49dd e7bc d68b 783d 20f4 90bc
000002b0: 4cc4 9c3d 4b27 973d e40f 0b3e 7930 c43d
000002c0: 2b56 83bd d732 acbd 1ee4 debc b471 65bd
000002d0: 6f1c b13d 2d70 0f3e 8eb8 8f3d 4fa4 003d
000002e0: 1554 65ba 13aa d3ba b272 c73c 8c11 353b
000002f0: b14a 3cbe 13d1 a2bc 183f aa3c 4327 75bc
00000300: 855b 9a3d 4d21 533e b608 2a3e aa1b 343c
00000310: ca0e 1f3e ca76 163d aab5 16bc 2cb0 ea3c
00000320: 6de8 abbc 9504 243e d9e1 213d 7841 4ebd
00000330: 21d9 fc3c 0f26 013c e499 6e3e 0197 7b3d
00000340: 9e12 003e 232d 103e 927b f63d fb1f 403d
00000350: 9145 ee3c caed 82bb b7e0 4b3d a9dc dc3d
00000360: 89bf e3bc d74e 9dba 5ce1 a5bb 687d 1b3e
00000370: 5e91 353e bb23 393e 6f3f 6b3e 21dd ff3c
00000380: 0446 31bd 8afa ec3d d3b0 c5bc 064e 13bc
00000390: f8f9 bc3d d4f3 8a3b 2cc0 1d3d 2357 123d
000003a0: a66c 033e 1448 f83d 1796 233d 4b32 323e
000003b0: 1261 abbc 88f8 933c 4ced adbb ec77 063e
000003c0: 00f7 a9bc b2e8 073e 0657 e13d 4912 563e
000003d0: 29f7 9b3d c4c0 533d 555e 8d3d c210 843d
000003e0: a4a0 82bc 2b35 b73d 018a 283e 8ffe 663d
000003f0: 2455 dd3d 4d31 293e 9784 b73b f5f7 ac3d
-0.08116962 0.12837106 0.016160011 0.14262511 0.054538574 0.03722938 0.12964147 -0.025323048
0.15481357 0.041996785 -0.009869957 0.12099066 0.1303229 0.22011854 0.034091167 -0.00852336
0.1603266 -0.06189524 0.23213114 0.06386181 -0.013866702 0.19053231 0.16752341 0.21111324
0.025911942 0.19082911 -0.023477174 0.19236691 0.17744745 0.010035739 0.09437387 0.15674391
0.07750392 0.013649353 0.06330894 0.047813337 0.07593995 0.108684555 0.097952545 0.1343561
0.12446203 0.2472416 0.124757394 0.20776893 0.060742512 0.027390823 0.17427485 0.052111186
0.022273084 0.1299763 -0.03239872 0.1878939 0.11160164 -0.04096467 0.12211069 0.16031177
0.031620003 0.16106229 0.18448867 -0.039885912 0.02208905 0.29750067 0.0484071 0.1415219
0.10327529 0.12754025 -0.060786523 0.061274838 0.15188807 -0.061041094 -0.00064530934 -0.08086154
0.08385833 0.015572292 0.014823562 -0.10608423 0.03021146 0.17143118 0.0155941695 0.19688655
0.109302066 0.1546799 0.07062962 -0.0059466916 -0.029747501 -0.020578794 0.1076502 0.0059821503
0.071435034 0.047388565 0.0070437985 0.018628225 -0.025946666 0.11802067 0.13450699 0.086563006
0.07322733 0.059387375 -0.09168408 0.054720033 0.12406353 -0.0572486 0.068791136 -0.072951585
0.071107246 -0.023493338 0.0780393 0.014485023 0.16924208 0.019546092 -0.0025316968 0.07965762
-0.09223376 -0.04981809 0.21219666 0.15396388 0.04116906 0.19512631 0.13018832 0.07888888
-0.033746894 -0.041872215 0.090011336 0.054806635 0.044100996 0.050393157 0.02778004 -0.05675842
0.0001950197 -0.067748144 -0.066060565 -0.11171812 0.047495887 -0.0808909 -0.07086536 0.12791209
0.00011070834 -0.14577797 0.093631975 0.007597501 -0.06396264 0.02001289 -0.055310022 0.17443633
-0.060238756 -0.11442968 0.005586884 -0.08760747 -0.14994134 -0.09612207 -0.056747388 0.0020438149
0.006442025 0.02362923 -0.08631154 -0.09476648 0.085577786 -0.034782093 0.058396336 0.025974752
-0.0070686 0.11733421 -0.049967315 0.011190427 -0.04773718 -0.0035900704 0.117134884 0.030366149
0.12071625 -0.02830376 0.060680233 -0.017694533 0.07654628 0.073805414 0.1358028 0.09579558
-0.064129196 -0.084081344 -0.027208384 -0.05601664 0.086480014 0.14007635 0.07017623 0.031406697
-0.0008748186 -0.0016148709 0.024346683 0.0027628867 -0.18387868 -0.019875085 0.020782039 -0.014962974
0.07536987 0.20618172 0.16604885 0.010992924 0.15532985 0.03673438 -0.0091985855 0.028648458
-0.020984853 0.16017373 0.039522026 -0.050355405 0.030865254 0.007882609 0.23300892 0.061423305
0.12507102 0.14079718 0.12035288 0.0469055 0.029085906 -0.003995632 0.04977485 0.10784275
-0.027801292 -0.0012001646 -0.0050622653 0.15184557 0.17731234 0.18080036 0.22973417 0.031233372
-0.043279663 0.11571224 -0.024132168 -0.00899077 0.09227365 0.0042404924 0.038513348 0.03572763
0.12834415 0.12123123 0.03993806 0.17401998 -0.02092031 0.018062845 -0.005307829 0.13131684
-0.020747662 0.1327236 0.110029265 0.20905413 0.076155014 0.051697508 0.06902758 0.06448509
-0.01594574 0.08945688 0.16458894 0.05639511 0.10807255 0.16522713 0.0056005227 0.084457316

rnn_layer.rnn_layer.bias_hh_l0_reverse f4 [256]
00000000: b67e a33d 3157 993e 57a4 49bc 5b2b c4bd
00000010: 62be 2b3e 30f0 863d f7e0 033e 6b4b 033e
00000020: 2659 003e 2b60 a53d 611f af3d 233f a0b9
00000030: d5b4 733d fb70 523e dc99 5b3e b2bd eb3d
00000040: 6b1c 613e e273 f33c 1a5e 563e 349e 62bd
00000050: 94a1 6c3d 51dc e83d 99f0 f23c 4e80 883d
00000060: b2ee 4d3d a82c 403e f692 363e af1c a63d
00000070: 51a0 1a3e c24d 5a3c a7ff 4a3e b3b9 193e
00000080: b0d7 f13b 0bc8 abbc ea77 b03b 8ce4 7fbd
00000090: fe19 613e fcaf 2c3e cac6 a33d 47cd d73d
000000a0: 3bdf 9e3d 74c8 123e 0016 163e 2987 683c
000000b0: eb4c 9b3c 41c1 a53c 2ad9 55bb f777 4a3c
000000c0: 3358 203e 5cbb 9d3d 5876 cbbb 388e ed3d
000000d0: 0fad 1d3e 9aa5 c43d 3517 3d3c 1415 193d
000000e0: 68e1 bf3c d3fe 873d 469c e43c 1afc c5bd
000000f0: 1d39 3b3e c82d 963e 58e9 d5bb a7d1 9f3c
00000100: 98fe 49bc b315 b4bd 532d 263d d62a 613d
00000110: 5ec4 2d3e cd84 183d 673b b53c 4870 1fbd
00000120: ba87 003e f088 a93d 064a b63c b12a 9d3d
00000130: 0355 353e bd49 bb3d f897 a33d e744 cfbb
00000140: 5faf 763d f89e c33d 3fb4 8d3d 49bd 053d
00000150: f044 30bb 725e 2dbc 3c24 f43d 5a3d ec3d
00000160: fdf9 20bd 4d95 bb3d ff64 6a3d f782 8abd
00000170: 35dd 0e3e 1540 363e 318a 153c 1b2a d53c
00000180: 5e6f 973a 7148 8dbd 0523 a4bc 0b05 f43c
00000190: 8741 1e3e b4ed a43d 6851 5ebd c230 e33d
000001a0: 0715 0d3e 7421 49bc 8ebd 83bb 5e76 a03d
000001b0: bac4 6e3e d8ec 97bd f9bf df3d a148 353e
000001c0: ed37 e9bc 1759 c4bd 6317 f53d 1659 21bd
000001d0: 927f 203e 84e2 f13d 6971 3a3e 4c00 45bb
000001e0: ab34 e23d 4a58 a03c bdad 73bd bb45 853d
000001f0: fb0b d4bd ee3d b43d 497f a4bd ac45 1bbc
00000200: 9018 093d 5937 06bd 8e78 30bd e916 f2bd
00000210: b3db 1ebd 06a0 a4bd 6db8 c7bd 9f4b b63d
00000220: 6efb 9abd cd38 d1bc fa51 c5bd 0395 6dbd
00000230: 4843 a83c b7fe fbbc a262 12be f807 cf3d
00000240: a231 41bd 7cfd a43c 5ada a63d 0e9d 53bd
00000250: 9e58 09be 4923 8bbd d15d 71be ee79 6e3d
00000260: 82f1 f93c dafe f53b f924 82bd 79b1 03be
00000270: aadb 83bd 86a0 bf3c c630 abbd 695b b6bd
00000280: b1e2 3cbd e5a4 81bd 1576 ccbd 5848 053c
00000290: ab68 ec3d 402a 90bd bec0 a23d 4a8d 533d
000002a0: e6de 5cbd c01b 2ebe 089a bb3d 9d14 a2bc
000002b0: 4018 a8bc e4de d8bd 674e be3c f41e 8fbd
000002c0: 3491 b23c 0e0c 04bd 217d c63d 2f75 bc3d
000002d0: 58fd a3b8 66ef c7ba 9a70 433d cc71 65bd
000002e0: e5bf 33bd bb0e 473c 9f36 f73c 53b8 09be
000002f0: 1c7a 123d b11f cbbd fc83 fabd 8eb0 a0bd
00000300: 8c7f 903d 5f88 673e 52ef 183e d77b 143d
00000310: 2a06 383e 2822 4abc 0073 50bc b1da 33bd
00000320: 5b10 943d 6ecf 3c3e e2ab 023e b5b9 30bd
00000330: bef7 59bd 04cb 96ba e5f6 2b3e f610 94bc
00000340: 33fd 483e b36d 0d3e c65c f33d 771b 073e
00000350: 07b1 12bd bdc7 eb3d 751f 203e 5e00 9d3d
00000360: becb dc3d 850c 3e3e 0d34 b53d 9662 9c3d
00000370: 48ec 16bd 45dc 2e3e 63fc 753e f244 aabc
00000380: a894 043e 58ac 803d 7de6 043e dc13 f73c
00000390: 2a45 eb3d 7da0 07bc 0807 2bbc 1e67 a43c
000003a0: daab ad3d 469c 2c3d 4234 dd3d c52b b13d
000003b0: 9a56 cbbc a213 013e 18b7 fa3d d4fe 243e
000003c0: 09e9 a03d 5715 c83d 1f18 29bd 77e3 4b3e
000003d0: 5038 093e 0136 693e 4106 5abc 3fd8 2a3e
000003e0: b227 df3c f1b4 833d e1f9 043e d781 db3c
000003f0: 8011 853d ced7 f1bb 4ccc ff3d 167e fabc
0.079831526 0.29949334 -0.012307248 -0.09578582 0.16771844 0.06588781 0.12878786 0.12821738
0.12534007 0.08074983 0.08550907 -0.0003056462 0.059498627 0.20550911 0.21445411 0.11510791
0.21983497 0.029718343 0.20934334 -0.055326656 0.05777128 0.11370147 0.029655742 0.06665097
0.050276466 0.18767035 0.17829499 0.0811094 0.15100218 0.013324203 0.19824086 0.15012245
0.0073804483 -0.020969411 0.0053853886 -0.06247382 0.21982571 0.16864008 0.079969004 0.105372004
0.077574216 0.1433428 0.1465683 0.014192381 0.018957576 0.020233752 -0.003263066 0.012357703
0.15658645 0.077017516 -0.006209176 0.11599392 0.15398048 0.096018985 0.0115411775 0.037373617
0.023422912 0.06640401 0.027906548 -0.09667225 0.18283506 0.29331803 -0.006528061 0.01950915
-0.012328766 -0.08793201 0.04057057 0.054972492 0.1696944 0.037236024 0.022123052 -0.03892544
0.12551776 0.08278072 0.022252094 0.07674158 0.1770821 0.09144924 0.0798797 -0.0063253525
0.06022584 0.09551805 0.06919145 0.03265122 -0.0026896559 -0.0105816 0.11920974 0.115351394
-0.039300907 0.09159336 0.057225224 -0.06763261 0.13951571 0.17797883 0.009127186 0.026021054
0.0011553576 -0.06898583 -0.02003623 0.02978756 0.15454684 0.08053151 -0.054276854 0.11093284
0.13777553 -0.012276042 -0.0040203994 0.07835077 0.23317233 -0.07418221 0.10925288 0.17703487
-0.02846905 -0.09587305 0.11967351 -0.0393916 0.15673664 0.118107826 0.18207325 -0.0030059991
0.11045202 0.01957335 -0.05949186 0.06507441 -0.103538476 0.08800875 -0.0803209 -0.00947706
0.03347069 -0.032767627 -0.04308372 -0.11820776 -0.03878374 -0.080383345 -0.09751973 0.08901142
-0.07567488 -0.02553978 -0.096347764 -0.058003437 0.020539895 -0.030761106 -0.14295438 0.10108942
-0.047166474 0.020140402 0.08147116 -0.05166345 -0.13412711 -0.067938395 -0.23570944 0.05822175
0.030510668 0.0075071873 -0.06354708 -0.12860669 -0.06438382 0.023391973 -0.08358912 -0.08904154
-0.046114627 -0.06330279 -0.0998346 0.008134924 0.11543401 -0.070393085 0.07946919 0.051648416
-0.05392351 -0.17002773 0.091602385 -0.01978522 -0.020519376 -0.10589388 0.023230745 -0.06988326
0.021797754 -0.03223806 0.09691835 0.092020385 -7.8196346e-05 -0.0015253841 0.047714807 -0.05601673
-0.043884177 0.012149508 0.030177413 -0.1344922 0.035760984 -0.09918154 -0.12232205 -0.07846175
0.07055578 0.22610615 0.14935043 0.036250915 0.17971101 -0.012337245 -0.012722731 -0.043909732
0.07229682 0.18438503 0.1276088 -0.043145854 -0.05321478 -0.0011504595 0.16793402 -0.018074494
0.19627838 0.13811378 0.118829295 0.13194071 -0.035813358 0.115127064 0.15637 0.07666086
0.10781048 0.18559463 0.088478185 0.07635991 -0.03684643 0.17076214 0.24022059 -0.020784829
0.12947333 0.06282872 0.1297855 0.030160837 0.114878014 -0.0082780095 -0.010438688 0.020068701
0.08480044 0.04214122 0.10800983 0.086509265 -0.024821568 0.12605146 0.122419536 0.16112834
0.07856948 0.09769695 -0.04128277 0.1991099 0.13400388 0.22774507 -0.013307155 0.16684054
0.027240608 0.06430996 0.12985946 0.02679531 0.064974785 -0.0073804623 0.124901384 -0.0305777
