dl_ouptut/best_model_epoc3.pth (torch, 674223 bytes, 46 tensors)

rnn_layer.rnn_layer.weight_ih_l0 f4 [256, 50]
-0.07145793 -0.031625107 0.042921737 0.06326112 0.0967297 -0.004582513 -0.020441756 -0.07671993
0.11900351 0.09098214 -0.047835417 -0.016725084 0.06290578 0.11086434 0.093407825 0.12737182
-0.0065869507 0.1583942 0.34390366 0.31111407 0.16768189 0.06329673 0.35109773 0.17732885
0.040711604 -0.029376088 -0.009539608 0.06937883 0.13122669 0.086801425 -0.06506162 0.06799712
-0.06308526 0.016947668 -0.036356077 0.10361593 0.02958562 0.10048105 0.09041045 -0.008467408
0.109779835 0.09636528 0.072834596 -0.039269045 0.11792627 0.03999588 0.14814012 -0.029928511
-0.00861796 0.022948094 -0.08714628 -0.07217072 0.062044535 -0.08290967 -0.008729609 -0.085765064
-0.049391497 0.0011774057 0.11077563 0.20881271 0.032831315 0.061315782 0.12002586 0.17178349
-0.016782185 0.0938439 0.013498075 0.08474162 0.09082899 -0.11883038 -0.050288577 0.14077365
-0.1116774 -0.049161345 -0.0030350387 -0.17541495 -0.10118662 -0.06675077 0.063202076 0.11904795
-0.050882053 0.095864 0.14376667 0.18317242 -0.036912862 0.100966 0.015595248 0.09110126
0.054567076 0.17586236 0.04385781 0.18023354 0.015869947 0.07434176 0.16785765 0.08838143
0.09648068 0.11479297 0.17396288 0.1970288 -0.11709147 0.040097095 -0.2550712 -0.26709116
-0.12039279 -0.064571716 0.050143998 0.029682698 -0.102086514 -0.20377392 -0.18498667 -0.083381794
-0.056130208 0.051745314 0.09255278 0.0812834 -0.058265384 0.10910934 -0.023521472 -0.02208686
0.01798445 0.023094963 0.14924039 0.009579262 0.090951495 -0.035941396 0.060552347 0.10738531
-0.03288048 0.05825151 0.1630465 0.017175587 -0.12115629 -0.047757592 0.057746246 -0.040500578
0.07275103 -0.014020088 -0.104502134 -0.08479833 0.046600822 -0.13648552 -0.12959316 -0.21713844
-0.11790517 -0.105102345 -0.16940203 0.060631298 -0.0272887 0.0013813305 -0.07603589 0.06924382
-0.1800081 -0.14409202 -0.009615912 -0.107620284 -0.0037771445 -0.18189567 -0.11032687 -0.016387368
-0.02401028 0.009824217 -0.12271018 0.042240366 -0.025877854 0.0029072186 -0.0057469923 -0.06016286
0.07610124 0.075817406 0.013936703 0.21594745 0.057025254 0.012590104 -0.069836415 0.0021910951
-0.0076990435 -0.004344893 0.05230936 -0.058095977 0.07540108 -0.16495927 -0.07166941 -0.18178296
-0.051743302 -0.08933504 -0.14651841 -0.13204521 0.09341269 0.023367558 -0.09883853 -0.056434464
-0.053252034 -0.04526542 -0.032360286 0.075245745 -0.02939397 0.12511735 -0.045980673 0.06344289
-0.10760385 -0.11117925 -0.06122278 -0.0051070405 0.03621048 0.087799504 0.05332403 0.08840109
0.02937799 0.054773767 -0.03856888 0.08896424 -0.035139155 -0.15437023 -0.03124953 -0.00918847
0.2114085 -0.0517308 0.11753841 0.047625203 0.09310102 0.15333961 0.026461983 0.025733763
0.057647966 0.04041421 0.02932951 -0.017143466 -0.017931342 0.092333905 0.038226146 0.17714752
0.11597471 0.03560328 0.035952322 0.064075105 0.10300292 0.10393868 0.22830494 0.109749824
0.20183796 0.2040589 0.08907678 0.22626732 0.12504947 0.11280671 0.03869116 0.039103094
0.17321429 0.14718258 0.09608674 -0.05372855 -0.14716566 0.0036796352 -0.10953644 -0.19410777
00000000: 8958 92bd 5489 01bd b4ce 2f3d 0c8f 813d
00000010: 391a c63d e828 96bb 7875 a7bc 571f 9dbd
00000020: 1db8 f33d d854 ba3d 12ef 43bd 0b03 89bc
00000030: bfd4 803d d80c e33d 9a4c bf3d c26d 023e
00000040: 59d7 d7bb 1732 223e 2414 b03e 584a 9f3e
00000050: cdb4 2b3e b7a1 813d 15c3 b33e b295 353e
00000060: 36c1 263d 1fa6 f0bc 044c 1cbc 7d16 8e3d
00000070: 4a60 063e f2c4 b13d 073f 85bd 1342 8b3d
00000080: d832 81bd d6d5 8a3c 1cea 14bd 9734 d43d
00000090: 8b5d f23c 02c9 cd3d 1d29 b93d e2ba 0abc
000000a0: 40d4 e03d 295b c53d 4e2a 953d 94d8 20bd
000000b0: 5483 f13d b8d2 233d 0bb2 173e a32c f5bc
000000c0: 5832 0dbc a4fd bb3c c079 b2bd 3ece 93bd
000000d0: 6922 7e3d 8ccc a9bd a206 0fbc 98a5 afbd
000000e0: bd4e 4abd 2e53 9a3a 55de e23d 00d3 553e
000000f0: 217a 063d 4226 7b3d 1ed0 f53d 03e8 2f3e
00000100: cb7a 89bc 3b31 c03d 0827 5d3c 048d ad3d
00000110: 8d04 ba3d 585d f3bd 65fb 4dbd f826 103e
00000120: 1fb7 e4bd 685d 49bd 80e7 46bb fa9f 33be
00000130: ee3a cfbd a1b4 88bd 1770 813d 69cf f33d
00000140: b369 50bd 5854 c43d 9237 133e 8d91 3b3e
00000150: f131 17bd 43c7 ce3d 3683 7f3c 4c93 ba3d
00000160: ba81 5f3d 4315 343e 3fa4 333d 248f 383e
00000170: b101 823c 7e40 983d e0e2 2b3e 5301 b53d
00000180: aa97 c53d 9418 eb3d 5323 323e ebc1 493e
00000190: a7cd efbd da3c 243d b198 82be 2cc0 88be
000001a0: 7f90 f6bd 2d3e 84bd cb63 4d3d 2129 f33c
000001b0: bc12 d1bd 1caa 50be 256d 3dbe 13c4 aabd
000001c0: cae8 65bd e5f2 533d 508c bd3d e977 a63d
000001d0: afa7 6ebd b874 df3d 1ab0 c0bc 81ef b4bc
000001e0: 2054 933c a631 bd3c 79d2 183e 56f2 1c3c
000001f0: c744 ba3d 4937 13bd bd05 783d d4ec db3d
00000200: afad 06bd 2399 6e3d a9f5 263e d1b3 8c3c
00000210: ca20 f8bd 779d 43bd 5487 6c3d efe3 25bd
00000220: 7efe 943d 83b4 65bc 3705 d6bd bfaa adbd
00000230: 81e0 3e3d dcc2 0bbe 12b4 04be 8a59 5ebe
00000240: 4478 f1bd e63f d7bd ba77 2dbe 8658 783d
00000250: 8d8c dfbc c30d b53a b4b8 9bbd b4cf 8d3d
00000260: 0b54 38be dc8c 13be 0f8c 1dbc 0668 dcbd
00000270: f889 77bb dc42 3abe 0ef3 e1bd cd3e 86bc
00000280: 35b1 c4bc c1f5 203c 7a4f fbbd 3c04 2d3d
00000290: cbfd d3bc 0987 3e3b 4451 bcbb 556d 76bd
000002a0: f8da 9b3d 2846 9b3d c556 643c 5421 5d3e
000002b0: 5093 693d b946 4e3c 6506 8fbd 7a98 0f3b
000002c0: 4248 fcbb 9b5f 8ebb 5742 563d 0cf6 6dbd
000002d0: e26b 9a3d 15eb 28be 69c7 92bd 5025 3abe
000002e0: c9f0 53bd 4af5 b6bd ec08 16be dc36 07be
000002f0: 274f bf3d 526d bf3c db6b cabd d327 67bd
00000300: ce1e 5abd 3c68 39bd 388c 04bd 711a 9a3d
00000310: 9fcb f0bc c31e 003e 3b56 3cbd 59ee 813d
00000320: 685f dcbd f2b1 e3bd bdc4 7abd f658 a7bb
00000330: 7151 143d 3ad0 b33d 4c6a 5a3d a10b b53d
00000340: 1caa f03c 755a 603d 67fa 1dbd e232 b63d
00000350: 13ee 0fbd 3b13 1ebe 04ff ffbc 3d8b 16bc
00000360: 787b 583e ade3 53bd fab7 f03d a512 433d
00000370: bfab be3d 0f05 1d3e cdc6 d83c 9dcf d23c
00000380: 4620 6c3d 5f89 253d 7144 f03c 7470 8cbc
00000390: c0e4 92bc 8f19 bd3d 0593 1c3d 2966 353e
000003a0: 2684 ed3d bfd4 113d be42 133d cf39 833d
000003b0: 32f3 d23d cddd d43d c5c8 693e 84c4 e03d
000003c0: 9cae 4e3e d1f4 503e e36d b63d 9fb2 673e
000003d0: f80c 003e 3407 e73d 9f7a 1e3d 912a 203d
000003e0: 165f 313e 08b7 163e 20c9 c43d 7812 5cbd
000003f0: 98b2 16be 0926 713b a454 e0bd 30c4 46be

rnn_layer.rnn_layer.weight_hh_l0 f4 [256, 64]
-0.10101585 0.06964833 -0.10073434 -0.25616637 -0.023872025 -0.08442245 -0.11691146 -0.14675245
0.0103026135 0.013935835 -0.0675726 -0.071937956 -0.21644214 -0.21948195 -0.05639234 -0.083124936
-0.029108116 -0.047713105 -0.077864125 -0.032703582 -0.11246117 -0.12318583 -0.02013533 -0.13799328
-0.16213362 -0.0036627068 -0.12036524 -0.08786222 -0.08444543 0.012699678 -0.074291594 -0.089735195
-0.05831092 -0.21098416 -0.17949325 -0.09098627 -0.13322487 -0.19856249 -0.058138594 -0.05097983
-0.04566256 -0.010992606 -0.13530523 -0.14761719 -0.0756709 -0.072272584 -0.02557109 -0.04401028
-0.095825486 -0.02147018 -0.13520946 -0.044556852 -0.20193031 -0.13899708 -0.061777398 -0.20212565
0.06391582 -0.16106835 -0.01617767 -0.09000465 -0.04227094 -0.16067676 -0.08577128 -0.099109724
0.16974741 0.066142745 -0.0025290593 -0.07406284 -0.07870374 0.048800714 -0.023210952 -0.103999354
-0.05797629 0.019654162 -0.09855277 -0.012445058 -0.002436045 -0.050263338 -0.06618218 0.18618156
0.11965849 -0.08522648 -0.020130502 -0.07906409 -0.042736717 0.030931002 0.07663206 -0.14193618
-0.03255994 -0.09154151 -0.09600646 -0.025013175 0.0085898675 -0.08505506 -0.0071184123 0.029211594
-0.0041621635 0.10015894 0.057877213 -0.1038239 -0.006223731 -0.013816633 0.115746915 0.041497834
-0.01228395 0.04346215 -0.03220827 0.013020202 0.021911642 0.06551191 0.042811938 -0.08954374
-0.057397846 0.08519726 -0.05635797 0.042675212 -0.089671075 0.08514191 0.019539157 -0.086549535
0.012234455 0.014329641 0.011459968 -0.012327137 -0.010223304 0.023326261 -0.07796973 0.066048905
0.06731647 0.016523696 -0.08662392 -0.050793458 -0.08921041 0.07551418 0.014633244 0.082631044
-0.12002476 -0.003633768 -0.17215884 -0.13813022 0.001275042 -0.048679687 0.019859577 -0.23930188
0.039433777 0.041084226 0.07755797 -0.119881764 0.019778593 -0.078667425 0.15867521 -0.08477436
0.08244427 -0.041872915 0.012083139 -0.061037753 0.1021404 -0.08996562 0.08283373 -0.030685473
-0.0065704025 0.08650385 0.004002942 -0.070576124 -0.063678026 0.050815187 -0.001178575 -0.093739904
-0.003871646 0.02835509 0.0054911072 -0.06397965 -0.015795292 -0.16859874 -0.14990987 -0.23331013
-0.007614321 0.0014974651 0.1320251 0.024661304 -0.14084029 0.081477925 -0.042043615 0.043313283
0.10567936 -0.09838493 -0.12815861 -0.1503092 0.19117169 0.043763794 -0.09362688 -0.035274662
-0.019660931 0.06681266 -0.13467197 -0.14044309 -0.027104314 0.058303647 -0.026115412 0.0045159115
0.11605743 -0.014821592 0.07073196 -0.050952323 0.0649729 0.02929982 0.039245073 0.0068429518
0.038309872 0.013866296 0.0025958864 0.019238388 -0.023993896 -0.25794235 0.2103556 -0.076893166
0.024329718 -0.1629029 0.011635108 -0.017364087 0.041774504 0.048972208 0.03721497 -0.0056078145
0.054251753 0.078977935 -0.14595692 -0.23618382 0.049840655 0.019702647 -0.005507235 -0.0211454
-0.08396794 -0.027578006 0.0952729 -0.0030028345 -0.030162608 -0.05410104 -0.06203603 0.061371993
-0.105674386 0.09613521 -0.06779843 -0.18584731 0.044762842 -0.08061949 0.036167014 -0.09771
0.100415386 -0.14845553 0.016629325 -0.009442794 -0.05761532 0.013893821 -0.13938361 -0.03192096
00000000: 66e1 cebd c9a3 8e3d ce4d cebd 3d28 83be
00000010: 448f c3bc ade5 acbd 476f efbd 4646 16be
00000020: 4bcc 283c 2153 643c 8163 8abd 3554 93bd
00000030: 02a3 5dbe e0bf 60be a8fb 66bd 683d aabd
00000040: 2574 eebc d16e 43bd 3a77 9fbd 31f4 05bd
00000050: 0b52 e6bd da48 fcbd d9f2 a4bc 1c4e 0dbe
00000060: 5b06 26be 060a 70bb 0d82 f6bd 1cf1 b3bd
00000070: baf1 acbd 4f12 503c 3126 98bd 16c7 b7bd
00000080: 6ed7 6ebd 3b0c 58be 14cd 37be 0257 babd
00000090: 1a6c 08be f753 4bbe bc22 6ebd 3ad0 50bd
000000a0: aa08 3bbd 551a 34bc 748d 0abe f628 17be
000000b0: 58f9 9abd a603 94bd 767a d1bc 2044 34bd
000000c0: 2740 c4bd 3be2 afbc 5974 0abe 3f81 36bd
000000d0: d2c6 4ebe 4055 0ebe 4c0a 7dbd 07fa 4ebe
000000e0: 4ce6 823d 1aef 24be 0887 84bc 5c54 b8bd
000000f0: 4b24 2dbd 7388 24be daa8 afbd 0afa cabd
00000100: 44d2 2d3e d975 873d 93be 25bb 42ae 97bd
00000110: 6d2f a1bd 42e3 473d e524 bebc 9dfd d4bd
00000120: 8c78 6dbd c401 a13c 09d6 c9bd 5be6 4bbc
00000130: 0ea6 1fbb eee0 4dbd 868a 87bd 61a6 3e3e
00000140: 830f f53d 398b aebd b9e8 a4bc 5bec a1bd
00000150: b20c 2fbd 0363 fd3c 45f1 9c3d b857 11be
00000160: 925d 05bd 1d7a bbbd 099f c4bd 6ee8 ccbc
00000170: 84bc 0c3c 5931 aebd 9241 e9bb 274d ef3c
00000180: c262 88bb 2120 cd3d a810 6d3d a0a1 d4bd
00000190: 71f0 cbbb 295f 62bc b80c ed3d a2f9 293d
000001a0: 9f42 49bc 5e05 323d d2ec 03bd af52 553c
000001b0: 0b80 b33c 1c2b 863d 925b 2f3d b562 b7bd
000001c0: 011a 6bbd e77b ae3d 9dd7 66bd 34cc 2e3d
000001d0: 78a5 b7bd e25e ae3d 9510 a03c e240 b1bd
000001e0: 0673 483c dfc6 6a3c 97c2 3b3c c3f7 49bc
000001f0: a57f 27bc b716 bf3c 98ae 9fbd a644 873d
00000200: 38dd 893d b45c 873c e267 b1bd cd0c 50bd
00000210: f3b3 b6bd 2ea7 9a3d 46c0 6f3c 773a a93d
00000220: 8bcf f5bd 8324 6ebb 684a 30be 0272 0dbe
00000230: 4f1f a73a 5a64 47bd 8db0 a23c 8d0b 75be
00000240: 5085 213d ef47 283d b7d6 9e3d 9284 f5bd
00000250: b706 a23c 631c a1bd c17b 223e 2e9e adbd
00000260: 8bd8 a83d ef82 2bbd 5cf8 453c b902 7abd
00000270: fc2e d13d e53f b8bd bba4 a93d 1a60 fbbc
00000280: 884c d7bb ee28 b13d 1c2b 833b 378a 90bd
00000290: a069 82bd 9623 503d 6a7a 9aba b5fa bfbd
000002a0: 71bb 7dbb ef48 e83c bfee b33b c307 83bd
000002b0: 2165 81bc 26a5 2cbe f981 19be dae8 6ebe
000002c0: 8e81 f9bb 9746 c43a 9631 073e 8106 ca3c
000002d0: 7038 10be e6dd a63d ed35 2cbd 4569 313d
000002e0: 6c6e d83d 0a7e c9bd 033c 03be a8ea 19be
000002f0: 83c2 433e aa41 333d 73bf bfbd 2a7c 10bd
00000300: f60f a1bc 13d5 883d 73e7 09be 50d0 0fbe
00000310: de09 debc cecf 6e3d fdef d5bc 36fa 933b
00000320: 85af ed3d 43d6 72bc ebdb 903d 62b3 50bd
00000330: 8310 853d 2d06 f03c 71bf 203d d73a e03b
00000340: d0ea 1c3d 762f 633c bf1f 2a3b d399 9d3c
00000350: d98e c4bc 0511 84be 7567 573e 2a7a 9dbd
00000360: 1e4f c73c 05d0 26be 2ea1 3e3c 213f 8ebc
00000370: be1b 2b3d 1597 483d b96e 183d c2c1 b7bb
00000380: 1637 5e3d 2fbf a13d bb75 15be 2cda 71be
00000390: b725 4c3d 7267 a13c 0976 b4bb 1e39 adbc
000003a0: 62f7 abbd 45eb e1bc 701e c33d 34cb 44bb
000003b0: 9317 f7bc 0d99 5dbd 7e19 7ebd 3361 7b3d
000003c0: d06b d8bd 89e2 c43d e7d9 8abd c24e 3ebe
000003d0: 3e59 373d d51b a5bd dd23 143d 2e1c c8bd
000003e0: 95a6 cd3d ba04 18be 393a 883c f3b5 1abc
000003f0: 0bfe 6bbd e9a2 633c 94ba 0ebe 8dbf 02bd

rnn_layer.rnn_layer.bias_ih_l0 f4 [256]
0.0139994975 0.1253448 0.08005764 0.10739133 0.033887804 0.16048811 0.23335004 0.06640597
0.21499544 -0.01908715 0.10694761 -0.008472885 -0.023468822 0.05705757 -0.06547786 0.0771328
0.107305646 -0.02371346 0.2642858 0.13497323 -0.046891525 -0.05773606 0.20344925 0.22968815
0.09356757 0.10080526 0.045495994 0.06931207 0.051717494 0.17770103 0.09437444 -0.06636602
0.19108266 0.032586236 -0.033655867 0.0032266653 -0.004577758 0.08475288 0.088879004 0.15477999
-0.032913458 0.11238098 0.06304911 0.15037405 0.05578529 0.018978102 0.1264074 0.2337709
0.30222923 0.21446621 0.18468763 -0.052436896 0.02523808 0.11284035 -0.05961723 0.1233712
-0.12145648 0.07237382 0.039878804 0.18381952 0.18088567 0.048507255 0.01585671 0.18734314
-0.08750853 0.16883402 0.08698196 0.07621734 0.2386649 0.023131292 0.058010537 0.012099198
0.052300055 -0.03492955 -0.01692354 -0.06397446 0.0027247018 0.15740117 0.17609796 0.16418302
0.25222147 0.20486404 0.06728177 0.102477916 0.047944028 -0.011293134 -0.032312475 0.2737765
-0.057992402 0.16521707 0.14433272 0.053674422 0.039443653 0.112435855 0.021110242 0.07012668
0.0011707715 -0.10864689 -0.003377455 0.12914002 0.053550757 -0.034148928 0.079737425 -0.0476175
0.19939022 -0.010482634 0.14963189 0.05136256 0.0037198248 0.04730827 0.020270701 -0.08327605
-0.020582221 -0.042037487 0.13911545 0.14272381 -0.017651698 -0.033345655 0.034839 -0.036141455
0.120265186 0.0314519 0.013234867 0.15270953 0.15530793 0.010339892 0.06916283 0.12669079
0.034838546 0.09330349 0.03740985 -0.102223136 0.06949553 -0.13138781 0.029546935 0.05796167
0.10107159 0.05398793 -0.10590663 -0.01519731 -0.0020916653 -0.091953285 -0.041783046 0.10764003
-0.116630115 0.071511924 -0.010814543 -0.115649566 -0.095850945 -0.056417212 0.11880755 0.024906926
-0.08042294 0.08138056 0.028130531 -0.04873424 -0.07133571 0.11784548 0.086463265 -0.049028568
0.054008044 -0.062432688 0.15398093 0.13534285 -0.006480853 0.017723687 0.054020695 -0.030503847
0.13688798 0.023828546 0.03947795 -0.072292894 -0.084630676 0.0038916105 0.12867717 0.015411003
-0.011645142 0.023105005 -0.08233315 -0.10838538 0.009306047 0.005673874 0.067542136 0.11381844
-0.040805638 -0.069528155 0.13979664 0.022469005 -0.13789599 -0.026196105 0.09596783 -0.016797325
0.21871145 0.192295 0.18738754 0.11152323 0.112159155 0.26294887 0.054805573 0.14074709
0.09748772 0.14941332 0.22897257 0.12298459 0.017812794 0.05490254 -0.045442306 0.06229865
0.2731379 0.09964184 0.30276516 0.03496694 0.15714017 -0.083363086 0.029556086 0.2799529
0.0772541 0.08336699 0.13849853 0.13703863 0.026669042 0.19421403 0.15144569 0.108965516
0.23677729 0.2689412 0.14171112 0.1605015 0.08831881 0.104970954 0.23977509 0.14291234
0.05854999 0.05165435 0.14491628 0.116321005 0.16404687 0.2210237 0.11998415 0.009277332
0.11792437 0.03918757 0.031333175 0.017015053 0.022984343 0.15862156 0.058929488 0.2032932
0.23040521 0.14003259 0.039986964 0.17889948 0.30426955 0.19641052 0.06368958 0.26573965
00000000: 265e 653c 635a 003e 43f5 a33d fcef db3d
00000010: f0cd 0a3d ff56 243e 50f3 6e3e daff 873d
00000020: c427 5c3e a85c 9cbc 5907 db3d dbd1 0abc
00000030: b041 c0bc 33b5 693d 4219 86bd cdf7 9d3d
00000040: 10c3 db3d bb42 c2bc 7850 873e 6c36 0a3e
00000050: 5411 40bd a67c 6cbd 0055 503e 5f33 6b3e
00000060: 5ba0 bf3d fd72 ce3d 025a 3a3d 7df3 8d3d
00000070: b9d5 533d 42f7 353e 6347 c13d e8ea 87bd
00000080: 2cab 433e 2579 053d bcda 09bd 7676 533b
00000090: 0401 96bb eb92 ad3d 3206 b63d a57e 1e3e
000000a0: 43d0 06bd 0028 e63d e41f 813d a8fb 193e
000000b0: 1e7f 643d f777 9b3c f170 013e a461 6f3e
000000c0: cabd 9a3e 089d 5b3e c11e 3d3e 12c8 56bd
000000d0: 17c0 ce3c d718 e73d 3231 74bd 0aaa fc3d
000000e0: 2dbe f8bd ba38 943d f557 233d 2f3b 3c3e
000000f0: 183a 393e 8baf 463d eee5 813c e1d6 3f3e
00000100: ac37 b3bd d3e2 2c3e 9923 b23d d617 9c3d
00000110: 9264 743e d67d bd3c 759c 6d3d b73b 463c
00000120: 9538 563d 4a12 0fbd 3ca3 8abc 0b05 83bd
00000130: e990 323b c62d 213e 0653 343e 981f 283e
00000140: 2c23 813e e1c7 513e 06cb 893d f1df d13d
00000150: f560 443d d606 39bc 165a 04bd 6f2c 8c3e
00000160: 7189 6dbd aa2e 293e f5cb 133e b6d9 5b3d
00000170: ab8f 213d c544 e63d 63ef ac3c 949e 8f3d
00000180: 9374 993a 4382 debd 4b58 5dbb 483d 043e
00000190: 0a58 5b3d bfdf 0bbd 604d a33d 910a 43bd
000001a0: f32c 4c3e 5bbf 2bbc 1a39 193e 8c61 523d
000001b0: 4ec8 733b 51c6 413d be0e a63c a28c aabd
000001c0: 0c9c a8bc 802f 2cbd 4874 0e3e 3126 123e
000001d0: 4b9a 90bc 7495 08bd 57b3 0e3d 1009 14bd
000001e0: 984d f63d b5d3 003d 0ed7 583c e35f 1c3e
000001f0: 0b09 1f3e a668 293c 3ea5 8d3d 3bbb 013e
00000200: ddb2 0e3d e615 bf3d 123b 193d 5d5a d1bd
00000210: ac53 8e3d 878a 06be 6a0c f23c 3769 6d3d
00000220: 9ffe ce3d 7322 5d3d 93e5 d8bd 23fe 78bc
00000230: 5214 09bb 0152 bcbd b324 2bbd 6072 dc3d
00000240: c5db eebd d874 923d 7b2f 31bc aed9 ecbd
00000250: 804d c4bd bc15 67bd 5f51 f33d 9c09 cc3c
00000260: c8b4 a4bd daaa a63d 0072 e63c 8e9d 47bd
00000270: 7518 92bd f958 f13d a713 b13d 2ed2 48bd
00000280: 8a37 5d3d 6bb9 7fbd 2dad 1d3e 5197 0a3e
00000290: 565d d4bb 4431 913c ce44 5d3d 34e3 f9bc
000002a0: 5d2c 0c3e 1534 c33c a2b3 213d 4c0e 94bd
000002b0: d952 adbd 640a 7f3b f3c3 033e 6e7e 7c3c
000002c0: 44cb 3ebc b546 bd3c 489e a8bd 27f9 ddbd
000002d0: 6478 183c e8eb b93b 8853 8a3d a419 e93d
000002e0: d023 27bd c764 8ebd da26 0f3e eb10 b83c
000002f0: 9b34 0dbe 3799 d6bc c88a c43d 8b9a 89bc
00000300: e5f5 5f3e fbe8 443e 85e2 3f3e 4b66 e43d
00000310: b3b3 e53d 3ca1 863e cf7b 603d 0120 103e
00000320: a4a7 c73d ceff 183e c977 6a3e 58df fb3d
00000330: 23ec 913c 7ce1 603d b621 3abd df2c 7f3d
00000340: bbd8 8b3e 0511 cc3d 0904 9b3e 7e39 0f3d
00000350: 5ae9 203e 44ba aabd 9b1f f23c fd55 8f3e
00000360: 6637 9e3d 50bc aa3d 8fd2 0d3e db53 0c3e
00000370: 0979 da3c 0be0 463e 9414 1b3e 5029 df3d
00000380: bf75 723e a9b2 893e b81c 113e 815a 243e
00000390: 7ee0 b43d 03fb d63d 9a87 753e 9d57 123e
000003a0: 1dd2 6f3d 8393 533d ef64 143e b539 ee3d
000003b0: e7fb 273e 0954 623e 40ba f53d f3ff 173c
000003c0: 5582 f13d 2583 203d 3757 003d 2763 8b3c
000003d0: a949 bc3c b16d 223e 0c60 713d 182c 503e
000003e0: 58ef 6b3e b464 0f3e 5fc9 233d 6d31 373e
000003f0: 38c9 9b3e d71f 493e af6f 823d 070f 883e

rnn_layer.rnn_layer.bias_hh_l0 f4 [256]
0.05534523 0.11262084 0.03252867 0.16502957 0.021461124 0.06259122 0.20808467 0.2017286
0.014571048 0.16563046 0.034911603 -0.036284883 -0.009161969 0.19112146 0.15303463 0.26618895
0.027354632 0.019509943 0.29362622 -0.03238654 0.14770289 0.11551866 0.15908052 0.014612141
0.24538222 0.07126491 0.13125972 0.12312389 0.18601444 0.075076535 0.022939436 0.07548139
0.30759427 0.2537892 0.048528105 -0.02621754 0.04873329 0.040666204 0.047269166 -0.029672844
-0.010323121 0.14772815 0.02696129 0.027060391 0.068301424 0.082718015 0.046857405 0.016519958
0.1627723 0.07808897 -0.044851605 -0.090529755 0.124714755 0.19003667 0.07149575 0.06318167
-0.10058926 0.018483715 0.13892977 0.052922506 -0.018718386 0.0882046 -0.02994217 0.20110708
0.08757018 0.019203968 0.017336903 -0.09517308 0.0016995897 -0.025670378 0.009370084 0.07639708
0.08170684 -0.053152982 0.1907859 0.03473502 -0.07851211 0.06919883 0.010532844 0.05895252
0.22126393 0.15701465 0.00026144547 0.083814204 0.06368298 -0.028085683 -0.006884019 0.271008
0.113385215 0.15498072 0.1250844 0.13833146 0.03198259 0.07344774 0.18105234 0.15238847
0.06958182 0.00091603026 -0.019449461 -0.046765212 0.19150212 0.022833833 0.024638154 0.05335382
0.10794248 0.14626566 0.13129866 0.08721761 -0.0690821 0.053517316 -0.008054105 0.091018684
-0.03148728 -0.017682184 0.0029765835 0.121677175 0.004714094 0.029876519 0.0585887 0.089906104
0.24244894 0.008790992 0.22503503 0.10284232 0.088107124 0.012685778 -0.0040989965 0.00163987
-0.050790828 0.026395068 -0.17600775 -0.086217195 -0.12020306 0.08911266 -0.10661058 0.02948318
0.09720337 0.006110146 0.05349583 -0.10469101 -0.10121225 0.021362238 -0.001740714 0.13354766
-0.13558413 0.061788447 -0.18498136 0.034615036 0.010924434 -0.05189553 -0.06248363 0.043880165
-0.030231837 0.09990682 -0.038544998 0.08460323 0.08983248 0.074336186 -0.0550602 -0.07649053
-0.08271777 -0.010845158 0.11614358 -0.103349626 -0.07882447 -0.07851248 0.071274504 -0.034489058
-0.00592562 -0.17839167 0.020233037 -0.0834029 -0.09511707 0.089312665 -0.053943235 -0.036375165
-0.1391609 0.113979734 -0.102439046 0.032412697 -0.084290825 -0.04212146 -0.07570395 0.14688362
-0.06928277 -0.036005832 -0.0032405728 0.12586759 -0.021138905 0.052672755 0.065076225 -0.06833746
0.15183511 0.10964217 0.1551338 0.027429618 0.05152225 0.23301654 0.2354495 0.028200222
0.09596413 0.17595686 0.06655819 0.0461347 0.06129496 0.1729118 -0.02037232 0.2289819
0.2894068 0.12791134 0.24609828 -0.008902704 0.24982001 0.14510222 0.028486082 0.23379947
0.23926367 0.19680466 0.057194084 0.21042779 0.03409206 0.10247094 0.027155517 -0.024484904
0.2365285 0.06313567 0.09080417 0.09688533 0.10984927 0.13263553 0.20618442 0.15082645
0.07740753 0.23758103 0.12280068 -0.01713758 0.10699035 0.08952084 0.19453432 0.018087901
0.22949146 0.20258224 0.10979471 0.10421898 0.13558425 0.0801366 0.17482388 0.08571094
0.053558357 0.03317687 0.01977459 0.10985776 0.18147168 0.0393442 0.18426546 0.09892591
00000000: aeb1 623d c1a5 e63d c83c 053d 83fd 283e
00000010: 3dcf af3c d32f 803d 2614 553e f191 4e3e
00000020: 68bb 6e3c 089b 293e 78ff 0e3d 759f 14bd
00000030: 151c 16bc 58b5 433e 1cb5 1c3e eb49 883e
00000040: d216 e03c 51d3 9f3c 2d56 963e c0a7 04bd
00000050: 6d3f 173e 0c95 ec3d 01e6 223e c367 6f3c
00000060: 7a45 7b3e 56f3 913d f368 063e 6128 fc3d
00000070: 927a 3e3e bac1 993d 7ceb bb3c fd95 9a3d
00000080: ff7c 9d3e a8f0 813e 68c5 463d 2bc6 d6bc
00000090: 8f9c 473d 9b91 263d 509d 413d 7714 f3bc
000000a0: 4f22 29bc 0c46 173e ecdd dc3c c1ad dd3c
000000b0: 9ee1 8b3d 1068 a93d 8ded 3f3d dd54 873c
000000c0: c8ad 263e 1ced 9f3d 51b6 37bd aa67 b9bd
000000d0: 736a ff3d f998 423e 5d6c 923d 6465 813d
000000e0: be01 cebd 296b 973c 9b43 0e3e 45c5 583d
000000f0: 4d57 99bc 9da4 b43d 4849 f5bc 04ef 4d3e
00000100: ff57 b33d a451 9d3c 1f06 8e3c 1bea c2bd
00000110: c4c4 de3a af4a d2bc fb84 193c 1376 9c3d
00000120: ea55 a73d f1b6 59bd 615d 433e 4f46 0e3d
00000130: f5ca a0bd 1eb8 8d3d f391 2c3c 3378 713d
00000140: 0393 623e 73c8 203e 9e12 8939 c8a6 ab3d
00000150: 396c 823d f213 e6bc 5693 e1bb 90c1 8a3e
00000160: 8236 e83d 44b3 1e3e 2016 003e c3a6 0d3e
00000170: 2d00 033d c56b 963d c965 393e b90b 1c3e
00000180: ea80 8e3d c021 703a 7a54 9fbc e18c 3fbd
00000190: 2219 443e 050e bb3c f4d5 c93c 8989 5a3d
000001a0: f210 dd3d aac6 153e 2873 063e 259f b23d
000001b0: eb7a 8dbd f934 5b3d 5df5 03bc 0168 ba3d
000001c0: cef8 00bd 3ada 90bc c912 433b e231 f93d
000001d0: b078 9a3b 9abf f43c b4fa 6f3d b120 b83d
000001e0: 8944 783e 1808 103c 956f 663e ff9e d23d
000001f0: 8271 b43d 02d8 4f3c e050 86bb e8f0 d63a
00000200: 0b0a 50bd 783a d83c 603b 34be a492 b0bd
00000210: 062d f6bd b380 b63d a656 dabd b686 f13c
00000220: 8f12 c73d 9f37 c83b 721e 5b3d 3e68 d6bd
00000230: 5e48 cfbd dcff ae3c ab28 e4ba b8c0 083e
00000240: 91d6 0abe e215 7d3d c16b 3dbe 7fc8 0d3d
00000250: 66fc 323c 6890 54bd d6ee 7fbd b0bb 333d
00000260: c2a8 f7bc f29b cc3d 5ce1 1dbd 7544 ad3d
00000270: 17fa b73d 923d 983d ce86 61bd 11a7 9cbd
00000280: ef67 a9bd e4af 31bc afdc ed3d f8a8 d3bd
00000290: b96e a1bd 27cb a0bd 5ef8 913d 6644 0dbd
000002a0: b42b c2bb 4eac 36be c1bf a53c 24cf aabd
000002b0: bdcc c2bd 8fe9 b63d 95f3 5cbd 20fe 14bd
000002c0: 3280 0ebe 356e e93d 90cb d1bd 2dc3 043d
000002d0: aba0 acbd 8d87 2cbd ac0a 9bbd a968 163e
000002e0: 20e4 8dbd da7a 13bd ca5f 54bb 6fe3 003e
000002f0: 7f2b adbc 63bf 573d af46 853d 83f4 8bbd
00000300: aa7a 1b3e 138c e03d 65db 1e3e 14b4 e03c
00000310: ff08 533d e39b 6e3e ac19 713e 2704 e73c
00000320: d788 c43d 092e 343e a94f 883d bdf7 3c3d
00000330: 6d10 7b3d ca0f 313e dae3 a6bc 3b7a 6a3e
00000340: 212d 943e 31fb 023e 3001 7c3e a6dc 11bc
00000350: d1d0 7f3e ad95 143e a55b e93c 2169 6f3e
00000360: 8901 753e 2987 493e 5844 6a3d 627a 573e
00000370: 1ea4 0b3d 49dc d13d 3f75 de3c 9194 c8bc
00000380: 8734 723e 464d 813d 89f7 b93d d16b c63d
00000390: a7f8 e03d 9cd1 073e 0222 533e 4072 1a3e
000003a0: d787 9e3d 7148 733e ec7e fb3d 1c64 8cbc
000003b0: c21d db3d b456 b73d 0134 473e 142d 943c
000003c0: cfff 6a3e b871 4f3e 0ddc e03d c370 d53d
000003d0: 99d6 0a3e a81e a43d 0805 333e 3889 af3d
000003e0: 0260 5b3d 78e4 073d 52fe a13c 1bfd e03d
000003f0: b6d3 393e 6227 213d 16b0 3c3e ab99 ca3d

rnn_layer.rnn_layer.weight_ih_l0_reverse f4 [256, 50]
-0.11547077 0.014781846 -0.16392967 -0.010735807 -0.06522372 0.08095863 0.16094778 0.08268896
0.16356355 0.069460675 0.16925949 -0.007867523 0.19090241 0.31890687 0.35361272 0.1499878
-0.060423616 0.02707936 -0.016384415 -0.15532961 0.023205694 0.00410054 0.20137505 0.17872624
-0.013572789 -0.06509661 -0.11588785 -0.12912379 0.11388078 -0.11443136 0.0718213 0.16208224
-0.0932935 0.059261777 0.019555122 0.04029373 0.08555326 0.1259058 0.22766094 0.07900902
0.21747279 0.1641135 0.23531234 0.28751168 0.30210158 0.25409797 0.20498073 0.27622506
0.112761326 0.10949393 -0.08995084 -0.012790416 0.043518513 -0.028207779 0.0069081653 -0.06012986
0.03268963 0.04341236 0.0793717 0.17007414 0.15664276 0.015698204 -0.058167223 0.18550244
0.22116633 0.07674828 0.17656532 0.13545951 0.07256381 0.06733049 0.17495841 0.05598285
0.03559015 0.0052891783 0.19150431 0.069507845 0.18161206 -0.030464483 0.13647935 0.12284197
0.14333315 0.08103283 0.15626767 0.12691335 0.15273751 0.009818831 0.071069606 0.039035335
0.101721466 0.047268096 0.073778 0.109140165 0.12172751 0.13513717 0.038050808 0.102566436
0.032234967 0.08824108 -0.004053961 0.19020617 0.021163115 -0.07823695 0.024479782 -0.019097032
-0.15194891 -0.0819383 -0.09194364 -0.024714667 -0.18270902 -0.068374366 -0.2814444 -0.20397566
-0.20444359 -0.036676906 0.121174686 0.32364976 0.12074445 0.10316128 0.09960979 0.048464198
0.15723841 0.21224155 0.2704958 0.08151439 0.20019744 0.25715408 0.16088222 0.154431
0.05683155 0.17377968 0.31372482 -0.061046332 0.0029964221 -0.094334096 -0.037993934 0.13945797
0.09966162 0.05171367 0.029354865 0.07081804 -0.02098124 -0.038597357 0.21552663 0.17226157
0.05477053 0.09197919 0.07077311 -0.02534885 0.22241938 0.14430279 -0.10562116 0.0038947011
0.021834081 0.011115963 0.007697895 -0.0834588 -0.11282319 -0.16361587 -0.14497878 -0.08765574
-0.047652066 0.08425335 0.10444707 -0.08869808 0.09679147 0.055903926 -0.12053955 0.03719684
0.020603051 0.010503087 0.16702451 0.17994766 0.13089791 0.16893806 0.12226614 -0.061053492
0.03082522 0.13576365 0.020789476 0.10107062 0.03641148 0.08596533 0.06332633 0.04469638
0.062576465 0.022682093 0.040288877 0.08015132 0.10932864 0.10859097 0.21253677 0.19478853
0.23038176 0.15383117 0.121573724 0.11530569 0.040717103 0.030969108 0.16196525 -0.050451465
-0.079476565 -0.069112234 0.10990241 0.014625908 -0.07013636 -0.026653396 -0.051009327 0.12685841
0.035718396 0.17164597 -0.0038465138 0.048944384 0.037919015 0.1763625 0.1769894 0.049585793
-0.07630756 -0.006606103 0.002128182 0.07873637 0.2347696 0.073516175 0.050022602 0.051405143
0.08745838 0.020650852 0.11338593 0.051309746 0.12769811 0.031907685 0.04090225 0.06407839
0.06832429 0.16943555 -0.015623185 0.077879116 0.058609746 0.26755273 0.17483085 0.062588334
0.0772533 0.11726735 0.057468526 0.2579762 0.24932602 0.059300356 0.06862793 0.06722845
0.18040949 0.20694499 -0.0923704 -0.07208318 0.1945788 0.17454791 0.0023731044 0.015061947
00000000: f07b ecbd 8e2f 723c 2edd 27be 3de5 2fbc
00000010: 0494 85bd a3cd a53d 7fcf 243e d458 a93d
00000020: 347d 273e 6641 8e3d 5c52 2d3e c8e6 00bc
00000030: ec7b 433e c347 a33e ba0c b53e 6796 193e
00000040: c17e 77bd 89d5 dd3c 9c38 86bc ba0e 1fbe
00000050: de19 be3c d35d 863b 4335 4e3e 0304 373e
00000060: 6760 5ebc 5f51 85bd 9c56 edbd 0739 04be
00000070: 543a e93d fd5a eabd 0c17 933d e3f8 253e
00000080: aa10 bfbd 7abc 723d 1032 a03c 0a0b 253d
00000090: 8c36 af3d 73ed 003e f31f 693e 7bcf a13d
000000a0: 30b1 5e3e 5f0d 283e b8f5 703e bb34 933e
000000b0: 0fad 9a3e 2119 823e 78e6 513e 5f6d 8d3e
000000c0: 69ef e63d 5b3e e03d 2538 b8bd e58e 51bc
000000d0: 7840 323d 0014 e7bc e45d e23b ba4a 76bd
000000e0: 90e5 053d 29d1 313d a18d a23d ea27 2e3e
000000f0: f666 203e 8599 803c c140 6ebd 5af4 3d3e
00000100: 6d79 623e 342e 9d3d 8acd 343e e6b5 0a3e
00000110: 569c 943d 91e4 893d 4c28 333e 464e 653d
00000120: fac6 113d d850 ad3b b519 443e 215a 8e3d
00000130: 83f8 393e a790 f9bc 3ec1 0b3e 9294 fb3d
00000140: edc5 123e 8af4 a53d a204 203e 93f5 013e
00000150: 3967 1c3e 2adf 203c f18c 913d 84e3 1f3d
00000160: 5853 d03d 319c 413d ec18 973d e184 df3d
00000170: 464c f93d 6661 0a3e 2adb 1b3d 5a0e d23d
00000180: d008 043d bdb7 b43d 17d7 84bb 68c5 423e
00000190: 455e ad3c b23a a0bd d389 c83c 6171 9cbc
000001a0: 7f98 1bbe 44cf a7bd f24c bcbd 6a76 cabc
000001b0: 1318 3bbe dc07 8cbd 7b19 90be ffde 50be
000001c0: a959 51be 863a 16bd 6f2a f83d 6cb5 a53e
000001d0: de48 f73d 3946 d33d 3800 cc3d 6582 463d
000001e0: 1b03 213e d955 593e 6d7e 8a3e 04f1 a63d
000001f0: 8f00 4d3e b3a9 833e 4fbe 243e 2923 1e3e
00000200: 33c8 683d 4df3 313e 8aa0 a03e b80b 7abd
00000210: 9f5f 443b 3c32 c1bd 879f 1bbd 12ce 0e3e
00000220: 641b cc3d b7d1 533d 9d79 f03c 0c09 913d
00000230: d9e0 abbc 4318 1ebd 03b3 5c3e 5665 303e
00000240: 1057 603d 965f bc3d 7ef1 903d 64a8 cfbc
00000250: e8c1 633e 1cc4 133e e84f d8bd 3e3e 7f3b
00000260: 63dd b23c ba1f 363c a03e fc3b 73ec aabd
00000270: d80f e7bd eb8a 27be 5175 14be da84 b3bd
00000280: d02e 43bd 058d ac3d 58e8 d53d 57a7 b5bd
00000290: 9b3a c63d 84fb 643d 71dd f6bd b75b 183d
000002a0: bbc7 a83c 2415 2c3c 7908 2b3e 3344 383e
000002b0: 1a0a 063e 19fe 2c3e ac66 fa3d 3a13 7abd
000002c0: 2c85 fc3c a005 0b3e b14e aa3c 1dfe ce3d
000002d0: 3424 153d 970e b03d 3cb1 813d 8d13 373d
000002e0: 1728 803d cccf b93c f305 253d 6026 a43d
000002f0: b2e7 df3d f164 de3d 3da3 593e a576 473e
00000300: 32e9 6b3e eb85 1d3e a5fb f83d 6425 ec3d
00000310: fac6 263d edb2 fd3c 38da 253e 32a6 4ebd
00000320: 9cc4 a2bd b78a 8dbd 8414 e13d 81a1 6f3c
00000330: a7a3 8fbd 3958 dabc 28ef 50bd 2ce7 013e
00000340: 744d 123d f6c3 2f3e cb15 7cbb e879 483d
00000350: f850 1b3d 5f98 343e b63c 353e 791a 4b3d
00000360: 2347 9cbd 0278 d8bb f878 0b3b 8940 a13d
00000370: 7167 703e a68f 963d 80e4 4c3d 338e 523d
00000380: 611d b33d fa2b a93c e236 e83d 2b2a 523d
00000390: 4bc3 023e a2b1 023d 1e89 273d 883b 833d
000003a0: 9bed 8b3d 8380 2d3e 63f8 7fbc 167f 9f3d
000003b0: c610 703d acfc 883e dc06 333e 502e 803d
000003c0: fa36 9e3d dd29 f03d 1e64 6b3d 7515 843e
000003d0: 524f 7f3e eee4 723d cd8c 8c3d 12af 893d
000003e0: 44bd 383e 63e9 533e b12c bdbd 59a0 93bd
000003f0: aa3f 473e b0bc 323e 1686 1b3b 62c6 763c

rnn_layer.rnn_layer.weight_hh_l0_reverse f4 [256, 64]
-0.16237801 -0.089992575 -0.18691109 -0.009406559 -0.02114234 -0.06098141 0.100497596 -0.09796349
0.06574421 0.013919445 -0.10672175 -0.02960818 0.12450415 -0.12564924 -0.07950731 0.19758187
-0.00012051979 -0.035896547 0.075224824 0.045923814 0.14166737 -0.14204878 -0.14838819 -0.010376761
0.018523164 0.089992374 -0.03170346 -0.015884358 -0.031768635 -0.1317735 0.032092445 0.13688293
0.027260952 -0.035003427 -0.080162615 -0.13339837 0.0029122143 0.04283428 0.0037397048 -0.14525913
-0.17220151 -0.18589474 -0.02739747 0.08765019 -0.0074461736 -0.09255986 0.091143236 0.01952387
0.1242651 -0.029065905 -0.07476412 0.0675103 0.019904198 -0.14157866 -0.13525334 0.16716045
0.06925094 0.08226366 -0.15242592 -0.22727874 -0.05474033 0.124355815 0.011678496 0.09453848
0.17221275 -0.12768833 -0.10161249 -0.114570335 -0.04754284 -0.051357795 0.0026266982 -0.16108905
-0.009134503 0.042303223 -0.0649472 0.07912287 0.031132406 0.03936144 0.057036925 0.08587578
0.03205036 0.05126256 0.31190637 0.009686633 0.28403687 -0.07002103 0.15686192 0.07457762
0.020187791 -0.25589857 -0.04206652 -0.082734466 -0.03840026 0.033266887 -0.054793082 -0.012886398
-0.062476005 -0.0155172665 0.03941389 -0.05570502 0.034172446 0.031950224 0.0582853 0.17333978
-0.025385445 0.032339297 -0.20114876 0.08887208 -0.043354932 0.0741937 0.06311114 -0.1356192
-0.027685318 0.022540256 0.043976363 -0.11027758 -0.13711253 -0.03573121 0.027507039 0.03123877
-0.00011172028 0.1319338 -0.10747316 0.39144257 -0.012399745 -0.017338255 0.018847667 0.0039812885
-0.06528866 0.00045692976 -0.14076462 -0.094027914 -0.06097229 -0.1549032 -0.105838224 0.02837833
-0.08834994 0.012745332 -0.083851844 -0.03725228 -0.091302134 -0.0137703065 -0.19618498 0.18994364
0.08695683 -0.077152185 0.025595283 -0.039879628 0.06262866 0.13761072 0.0024496655 -0.004782048
0.07990858 -0.08778157 0.027578704 0.030890338 0.07224431 -0.06558413 0.06942001 0.13163641
0.020445138 0.025891656 -0.009726303 0.10137753 -0.04609316 0.15976205 -0.056457117 -0.032585792
0.07963438 0.046843324 -0.05622528 -0.071091965 -0.0013808352 0.16003513 0.1317375 0.05839358
0.0225244 -0.027144045 0.014390038 0.015357271 -0.12196289 0.116639346 0.113859534 0.032729495
0.11831241 -0.0049105026 0.112924606 0.08198679 -0.06486035 -0.06452089 0.087590665 0.029188104
0.021712137 -0.17812954 -0.07435955 -0.012559954 0.06754781 -0.15202437 0.09562644 0.052279655
-0.027010731 -0.015334692 -0.07790185 0.19121838 0.02285064 0.06832596 0.01769048 0.015420364
0.016544055 0.0009764077 0.08324331 0.027213575 0.09878615 0.032776527 0.004457476 -0.03340841
-0.095672525 -0.038365874 0.0340882 -0.06833069 0.045704167 -0.07782591 0.04784018 0.0053795394
0.08310083 0.042841207 -0.106955186 -0.068497 0.06920908 0.08471116 0.009073424 -0.086940266
-0.07216241 0.0068029785 -0.19727165 -0.122482374 -0.079082936 0.15010224 0.038130764 -0.0984421
-0.16740815 0.022940507 -0.029970303 -0.048689466 -0.085044146 -0.09443194 0.0673749 0.028631262
-0.07582768 0.1468406 -0.06128893 -0.009798686 0.1466814 -0.06049965 0.025641734 -0.053461313
00000000: 6c46 26be 074e b8bd 9f65 3fbe f81d 1abc
00000010: b332 adbc a5c7 79bd afd1 cd3d 15a1 c8bd
00000020: e6a4 863d 620e 643c ef90 dabd db8c f2bc
00000030: 08fc fe3d 32aa 00be bbd4 a2bd e752 4a3e
00000040: 92bf fcb8 4208 13bd 790f 9a3d 9c1a 3c3d
00000050: 4011 113e 3c75 11be 13f3 17be 4a03 2abc
00000060: e4bd 973c ec4d b83d 7ddb 01bd ea1f 82bc
00000070: d41f 02bd a2ef 06be 5e73 033d 0a2b 0c3e
00000080: 5c52 df3c c15f 0fbd 4c2c a4bd 9599 08be
00000090: d9da 3e3b ff72 2f3d d615 753b cfbe 14be
000000a0: 9855 30be 315b 3ebe a970 e0bc f181 b33d
000000b0: 08ff f3bb 0690 bdbd 4ea9 ba3d 86f0 9f3c
000000c0: b37e fe3d 9f1b eebc ee1d 99bd d742 8a3d
000000d0: 210e a33c fff9 10be da7f 0abe 1c2c 2b3e
000000e0: 70d3 8d3d da79 a83d 8a15 1cbe c2bb 68be
000000f0: 6537 60bd 43ae fe3d 2a57 3f3c 649d c13d
00000100: 8a58 303e bbc0 02be 361a d0bd daa3 eabd
00000110: 48bc 42bd 8d5c 52bd af24 2c3b 87f4 24be
00000120: e2a8 15bc 2546 2d3d 0a03 85bd 2c0b a23d
00000130: 6309 ff3c 7639 213d 8d9f 693d a4df af3d
00000140: 3d47 033d b1f8 513d 31b2 9f3e afb4 1e3c
00000150: 486d 913e 3067 8fbd 69a0 203e 27bc 983d
00000160: de60 a53c 2305 83be f14d 2cbd b070 a9bd
00000170: 9749 1dbd dc42 083d b66e 60bd 7821 53bc
00000180: d7e6 7fbd 223c 7ebc 7670 213d f22a 64bd
00000190: 68f8 0b3d 3dde 023d 91bc 6e3d fc7f 313e
000001a0: 23f5 cfbc 3676 043d f1f9 4dbe 9102 b63d
000001b0: f194 31bd def2 973d 6a40 813d c2df 0abe
000001c0: 52cc e2bc 58a6 b83c 8f20 343d 36d9 e1bd
000001d0: 3a67 0cbe e45a 12bd 7156 e13c 73e8 ff3c
000001e0: 5e4b eab8 a719 073e e31a dcbd 296b c83e
000001f0: 4d28 4bbc f508 8ebc 6c66 9a3c 7875 823b
00000200: 10b6 85bd 1390 ef39 9a24 10be b591 c0bd
00000210: 14be 79bd f29e 1ebe b6c1 d8bd ac79 e83c
00000220: d0f0 b4bd ccd1 503c 84ba abbd d995 18bd
00000230: 9dfc babd da9c 61bc b7e4 48be 9680 423e
00000240: 6c16 b23d f701 9ebd 33ad d13c d258 23bd
00000250: 7443 803d d3e9 0c3e 918a 203b bab2 9cbb
00000260: 1ca7 a33d d3c6 b3bd bcec e13c bc0d fd3c
00000270: d3f4 933d f950 86bd 142c 8e3d b2cb 063e
00000280: 907c a73c bd1a d43c 125b 1fbc 069f cf3d
00000290: 2ecc 3cbd aa98 233e 943f 67bd ae78 05bd
000002a0: 5a17 a33d c9de 3f3d 7b4c 66bd aa98 91bd
000002b0: 24fd b4ba 40e0 233e 32e6 063e 1b2e 6f3d
000002c0: 1785 b83c 305d debc 32c4 6b3c 109d 7b3c
000002d0: aec7 f9bd 9ce0 ee3d 302f e93d 5d0f 063d
000002e0: c74d f23d 48e8 a0bb 0445 e73d b1e8 a73d
000002f0: 81d5 84bd 8723 84bd bc62 b33d e41b ef3c
00000300: a7dd b13c 9767 36be d249 98bd 44c8 4dbc
00000310: 8256 8a3d 47ac 1bbe ccd7 c33d 3123 563d
00000320: 9c45 ddbc 5c3e 7bbc 018b 9fbd c0ce 433e
00000330: 4431 bb3c 7bee 8b3d a0eb 903c b2a5 7c3c
00000340: 6687 873c 9df5 7f3a 787b aa3d 01ef de3c
00000350: 6550 ca3d ae40 063d 0510 923b 42d7 08bd
00000360: f5ef c3bd 8925 1dbd 12a0 0b3d f6f0 8bbd
00000370: 4b34 3b3d 3163 9fbd 11f4 433d d946 b03b
00000380: c530 aa3d 437a 2f3d 520b dbbd 2848 8cbd
00000390: 7dbd 8d3d 0b7d ad3d b3a8 143c bd0d b2bd
000003a0: e3c9 93bd 85eb de3b 9401 4abe 0ad8 fabd
000003b0: 3cf6 a1bd 67b4 193e 012f 1c3d 039c c9bd
000003c0: 0b6d 2bbe bbed bb3c 4884 f5bc 9b6e 47bd
000003d0: a02b aebd 8865 c1bd dafb 893d 1c8c ea3c
000003e0: 8b4b 9bbd 625d 163e 1a0a 7bbd ab8a 20bc
000003f0: a633 163e 7bce 77bd 9d0e d23c 40fa 5abd

rnn_layer.rnn_layer.bias_ih_l0_reverse f4 [256]
-0.07797631 0.11727245 0.019280652 0.13854134 0.055919264 0.042354662 0.15125278 -0.03681862
0.15500812 0.046868432 -0.0073908386 0.11735425 0.14115843 0.21625726 0.0470179 -0.013437973
0.15560824 -0.06182524 0.24143182 0.07392354 -0.0117014 0.17473751 0.16695903 0.21800983
0.019043336 0.18833034 -0.016452689 0.19143476 0.1816125 -0.0003902355 0.08378097 0.1583549
0.06752827 0.0112129655 0.07667643 0.04896473 0.08634122 0.09692963 0.098564506 0.14218676
0.13008755 0.23735327 0.12928484 0.2176803 0.07603771 0.015235732 0.18278293 0.050958134
0.028464876 0.12709343 -0.033869017 0.18505529 0.11992788 -0.036116738 0.12172169 0.15739642
0.02659297 0.16533925 0.1756951 -0.03478326 0.023930775 0.2734046 0.03398578 0.13770673
0.10790742 0.12448195 -0.06330502 0.06439266 0.15981667 -0.06306228 0.015821803 -0.088411696
0.09218582 0.013634775 0.01329537 -0.105081946 0.023250878 0.16906504 0.016647961 0.1951565
0.10577123 0.14181285 0.06963695 -0.0064185904 -0.0303619 -0.023885613 0.11009326 0.0024479441
0.06502108 0.04678394 0.014891302 0.01942356 -0.01960925 0.1198551 0.13643706 0.09848764
0.06260029 0.05702605 -0.08180267 0.06357664 0.12652013 -0.06914026 0.08078565 -0.054801613
0.07036058 -0.020064391 0.08588053 0.016686823 0.16064617 0.013773241 0.006214968 0.06750667
-0.08455242 -0.03997274 0.2152281 0.15545513 0.04355886 0.20189604 0.13302886 0.07303678
-0.041156057 -0.04412855 0.090735465 0.05272269 0.04503952 0.02727477 0.0015268449 -0.052680854
-0.005433366 -0.0627222 -0.06341858 -0.10791622 0.042798534 -0.08380174 -0.073482305 0.12152528
-0.0037563809 -0.14356183 0.09175713 0.0023512729 -0.058333904 0.025283296 -0.05669196 0.17079283
-0.06027421 -0.10681833 0.008120956 -0.08738317 -0.14896926 -0.092655525 -0.052820012 0.009464352
0.013871706 0.026064798 -0.09479388 -0.08596778 0.08785316 -0.035819236 0.06030747 0.015189389
-0.00051944336 0.120974936 -0.05620538 0.010555119 -0.055208888 -0.0046329703 0.12105736 0.039321937
0.12140768 -0.028333317 0.054480176 -0.017462254 0.07063329 0.07197322 0.13983978 0.097330645
-0.06437241 -0.08091848 -0.03190362 -0.0632604 0.09016738 0.13752988 0.069000185 0.024623327
0.0028086486 -0.0036190094 0.015879389 -0.0057877125 -0.18644997 -0.013926403 0.018076152 -0.021320028
0.09450149 0.19773605 0.16511837 0.005796472 0.16359977 0.038228743 0.009907364 0.019813552
-0.016278593 0.15921523 0.053949665 -0.047974285 0.034021758 0.0013904853 0.23571186 0.05920876
0.12607557 0.12746838 0.1267162 0.037657358 0.027081061 -0.010945051 0.052659657 0.10633484
-0.022014152 -0.0053653736 0.005689907 0.1473004 0.18481396 0.17690708 0.21326669 0.025094364
-0.051295154 0.11324298 -0.0022840793 -0.01291363 0.09930186 -0.0057860855 0.03973532 0.04131286
0.12990277 0.12493652 0.040330518 0.16464168 -0.020924551 0.013854157 -0.0055161198 0.13074346
-0.019466773 0.13354978 0.11200337 0.20470023 0.08113894 0.051954653 0.068240464 0.06571197
-0.017390238 0.091066055 0.15094316 0.060717944 0.106082 0.14661479 -0.009060009 0.08849953
00000000: 0bb2 9fbd 8a2c f03d 75f2 9d3c c8dd 0d3e
00000010: 990b 653d 157c 2d3d 02e2 1a3e 1fcf 16bd
00000020: 73ba 1e3e 1df9 3f3d d92e f2bb 6d57 f03d
00000030: d68b 103e 8b72 5d3e d795 403d f22a 5cbc
00000040: c457 1f3e 763c 7dbd e739 773e 3a65 973d
00000050: 3bb7 3fbc 64ee 323e 4ff7 2a3e f83d 5f3e
00000060: c500 9c3c abd9 403e cac7 86bc 7907 443e
00000070: a1f8 393e 8698 ccb9 5b95 ab3d c927 223e
00000080: 434c 8a3d 96b6 373c 8808 9d3d 3e8f 483d
00000090: aad3 b03d 0b83 c63d 30dc c93d 6899 113e
000000a0: ac35 053e bc0c 733e 3f63 043e 96e7 5e3e
000000b0: a9b9 9b3d 4b9f 793c 732b 3b3e 7ab9 503d
000000c0: 2c2f e93c c824 023e 3dba 0abd 227f 3d3e
000000d0: c09c f53d 25ef 13bd 3949 f93d 872c 213e
000000e0: 80d9 d93c b14e 293e 6be9 333e e478 0ebd
000000f0: 790a c43c b0fb 8b3e ac34 0b3d fe02 0d3e
00000100: 91fe dc3d 65f0 fe3d 10a6 81bd 4de0 833d
00000110: fba6 233e cc26 81bd ba9c 813c 3111 b5bd
00000120: ebcb bc3d 6464 5f3c d3d4 593c 3435 d7bd
00000130: a078 be3c 631f 2d3e 4e61 883c 1bd7 473e
00000140: 969e d83d 6337 113e d19d 8e3d 0a53 d2bb
00000150: 85b9 f8bc c3ab c3bc 9378 e13d b06d 203b
00000160: c629 853d 84a0 3f3d a6fa 733c 281e 9f3c
00000170: 94a3 a0bc 9776 f53d 28b6 0b3e e3b3 c93d
00000180: 9534 803d 2694 693d 2988 a7bd 7834 823d
00000190: 7e8e 013e 6999 8dbd f272 a53d a877 60bd
000001a0: 3519 903d 145e a4bc 22e2 af3d ceb2 883c
000001b0: 6e80 243e 29a9 613c eea6 cb3b f040 8a3d
000001c0: d229 adbd 75ba 23bd c164 5c3e a12f 1f3e
000001d0: c66a 323d d6bd 4e3e b838 083e 4f94 953d
000001e0: 4193 28bd 23c0 34bd 84d3 b93d bff3 573d
000001f0: 5c7b 383d 576f df3c 6a20 c83a e1c7 57bd
00000200: 610a b2bb 7f74 80bd 9ae1 81bd 2e03 ddbd
00000210: 844d 2f3d 3fa0 abbd e47d 96bd 3fe2 f83d
00000220: 9d2d 76bb df01 13be 2aeb bb3d d017 1a3b
00000230: 88ef 6ebd ea1e cf3c d435 68bd 51e4 2e3e
00000240: 17e2 76bd 92c3 dabd c20d 053c f3f5 b2bd
00000250: 668b 18be 2ec2 bdbd cc59 58bd 5f10 1b3c
00000260: 2746 633c d885 d53c 4b23 c2bd e00f b0bd
00000270: 5cec b33d 31b7 12bd f704 773d eadc 783c
00000280: 412b 08ba b5c1 f73d 9d37 66bd 61ef 2c3c
00000290: b722 62bd 2cd0 97bb ecec f73d 0a10 213d
000002a0: 97a4 f83d 461b e8bc 9b26 5f3d 000d 8fbc
000002b0: 30a8 903d b266 933d 2932 0f3e 4a55 c73d
000002c0: afd5 83bd 97b8 a5bd 5fad 02bd ab8e 81bd
000002d0: ada9 b83d a2d4 0c3e f84f 8d3d dcb6 c93c
000002e0: 4e11 383b e72c 6dbb 7e15 823c daa6 bdbb
000002f0: beec 3ebe 912b 64bc 7014 943c 57a7 aebc
00000300: ff89 c13d 527b 4a3e ca14 293e 55f0 bd3b
00000310: b386 273e be95 1c3d 7f52 223c 0850 a23c
00000320: af5a 85bc 5109 233e 53fa 5c3d af80 44bd
00000330: 665a 0b3d f240 b63a 735e 713e e284 723d
00000340: f419 013e 1287 023e e4c1 013e 9a3e 1a3d
00000350: 1ad9 dd3c df52 33bc a7b1 573d 15c6 d93d
00000360: 0657 b4bc 04d0 afbb 6672 ba3b ebd5 163e
00000370: df3f 3d3e 2127 353e 9562 5a3e b292 cd3c
00000380: de1a 52bd efeb e73d 7eb0 15bb b193 53bc
00000390: c65e cb3d 3499 bdbb 81c1 223d ac37 293d
000003a0: 3b05 053e b8de ff3d 9d31 253d d497 283e
000003b0: f769 abbc 8cfc 623c 91c0 b4bb 9de1 053e
000003c0: c878 9fbc 46c1 083e 0662 e53d f09c 513e
000003d0: 2c2c a63d 67ce 543d a8c1 8b3d ff93 863d
000003e0: f975 8ebc d780 ba3d d890 1a3e 61b3 783d
000003f0: 8541 d93d 3022 163e 6f70 14bc 3e3f b53d

rnn_layer.rnn_layer.bias_hh_l0_reverse f4 [256]
0.08352547 0.28892896 -0.009275095 -0.10061139 0.16945241 0.071102366 0.1503962 0.11719892
0.12544239 0.08574206 0.088284455 -0.004319152 0.07011391 0.20160268 0.2279417 0.11057746
0.21530159 0.0300732 0.21857333 -0.04563545 0.06015943 0.0976682 0.028663237 0.07309863
0.0434835 0.1851618 0.18594734 0.079832435 0.15508486 0.0029084617 0.18797088 0.15171309
-0.0028130796 -0.023513423 0.018572818 -0.06166531 0.23067454 0.15707162 0.08052511 0.11311197
0.08305411 0.13313128 0.15116303 0.023501266 0.034122817 0.008056455 0.004692977 0.011081069
0.16319548 0.073969625 -0.0075979875 0.11293216 0.16243918 0.10129302 0.010808438 0.034076493
0.018370422 0.070386246 0.01862632 -0.091746345 0.18517639 0.26920885 -0.021120137 0.015315299
-0.008056156 -0.09166009 0.038367234 0.058070738 0.17767835 0.035520233 0.038660865 -0.0463451
0.13397488 0.08105193 0.020747008 0.078312315 0.17057809 0.088834286 0.081133306 -0.008687666
0.056542464 0.08246751 0.06819425 0.032299325 -0.003219969 -0.013857359 0.12168856 0.11215697
-0.04605902 0.09112596 0.06522872 -0.06710537 0.14636694 0.18 0.010667543 0.037757237
-0.009695563 -0.07174627 -0.009931855 0.03856666 0.15709935 0.06906795 -0.042665 0.12965423
0.13723643 -0.00881223 0.003565732 0.08075113 0.22477512 -0.08024647 0.118347295 0.1651866
-0.020589493 -0.08617061 0.12241716 -0.038501505 0.15948573 0.12463802 0.18507577 -0.009112879
0.10349126 0.017508186 -0.059232786 0.063022226 -0.10305893 0.06500737 -0.10691017 -0.005252487
0.027945753 -0.027632901 -0.04037029 -0.11442552 -0.043749474 -0.08329261 -0.10021957 0.08250337
-0.07977762 -0.022950536 -0.098813176 -0.063453816 0.026431378 -0.02564849 -0.14460911 0.097217225
-0.047161203 0.028170208 0.084241316 -0.051327243 -0.13310619 -0.064384215 -0.23233831 0.065816835
0.038015235 0.009892624 -0.071958385 -0.11991245 -0.06257473 0.022535553 -0.08211913 -0.10018421
-0.039686877 -0.06022341 -0.10622748 0.007490089 0.10846983 -0.071643725 0.08327443 0.0606703
-0.05377535 -0.17049706 0.0854982 -0.01955941 -0.026734179 -0.108285 0.026917752 -0.06886308
0.02182169 -0.028914077 0.0926088 0.08523693 0.0033398212 -0.0045117415 0.046468955 -0.06307182
-0.0403344 0.010188164 0.021728242 -0.14346921 0.033872943 -0.093479335 -0.12547287 -0.08501632
0.089672774 0.21772154 0.14836758 0.03113299 0.18805707 -0.010995463 0.0063722567 -0.05297017
0.07729327 0.18350196 0.14231038 -0.040742327 -0.05031965 -0.007670673 0.17043486 -0.020536453
0.19750398 0.12477664 0.12518688 0.12295673 -0.038019996 0.10854785 0.15958646 0.07505598
0.11401915 0.18200952 0.09952067 0.07158083 -0.030011028 0.16683666 0.22378537 -0.027085597
0.12199484 0.060194846 0.15211205 0.0263597 0.121976405 -0.01834349 -0.009368848 0.02560518
0.08622344 0.0456007 0.10861399 0.07686012 -0.024837935 0.122178294 0.12260816 0.16064756
0.08015916 0.098414555 -0.03977884 0.19472358 0.13916801 0.22854862 -0.014349935 0.16838641
0.025930442 0.06584104 0.11610493 0.031025987 0.06284999 -0.026528638 0.11061175 -0.026893089
00000000: 670f ab3d 7fee 933e 91f6 17bc 580d cebd
00000010: ef84 2d3e 1e9e 913d 7601 1a3e fd05 f03d
00000020: f873 003e 8899 af3d 7bce b43d ac87 8dbb
00000030: e297 8f3d ef70 4e3e 8d69 693e 6f76 e23d
00000040: 0578 5c3e 125c f63c b0d1 5f3e 3dec 3abd
00000050: bc69 763d 4406 c83d 2acf ea3c bcb4 953d
00000060: c11b 323d 0e9b 3d3e fb68 3e3e 307f a33d
00000070: 91ce 1e3e e49b 3e3b 707b 403e ad5a 1b3e
00000080: a55b 38bb 399f c0bc 0626 983c c494 7cbd
00000090: f235 6c3e 62d7 203e 59ea a43d 40a7 e73d
000000a0: 4618 aa3d 9153 083e 7bca 1a3e ba85 c03c
000000b0: 5ec4 0b3d 39ff 033c 8bc7 993b 5f8d 353c
000000c0: b71c 273e 637d 973d 8af8 f8bb fa48 e73d
000000d0: 7556 263e b772 cf3d e015 313c cb93 0b3d
000000e0: 917d 963c aa26 903d 3996 983c 82e5 bbbd
000000f0: e19e 3d3e bed5 893e 2304 adbc 05ed 7a3c
00000100: f8fd 03bc 49b8 bbbd f626 1d3d 95db 6d3d
00000110: 50f1 353e aa7d 113d db5a 1e3d 5cd4 3dbd
00000120: b630 093e 8efe a53d a1f5 a93c 3562 a03d
00000130: 06ac 2e3e c0ee b53d 3829 a63d b656 0ebc
00000140: 1299 673d bae4 a83d 6da9 8b3d 4c4c 043d
00000150: 1e06 53bb fa09 63bc da37 f93d 8eb2 e53d
00000160: 62a8 3cbd 3fa0 ba3d a396 853d 8a6e 89bd
00000170: 37e1 153e ec51 383e ebc6 2e3c 55a7 1a3d
00000180: 24da 1ebc b5ef 92bd 38b9 22bc 13f8 1d3d
00000190: a7de 203e 7f73 8d3d 7fc1 2ebd 14c4 043e
000001a0: b587 0c3e 2c61 10bc 0eaf 693b d960 a53d
000001b0: 732b 663e 4358 a4bd 1160 f23d ad26 293e
000001c0: 4cab a8bc 377a b0bd d9b5 fa3d c1b3 1dbd
000001d0: 3a50 233e 3842 ff3d 8184 3d3e 2f4e 15bc
000001e0: 3af3 d33d 546d 8f3c 149e 72bd cc11 813d
000001f0: 8f10 d3bd 9622 853d b8f3 dabd 0e1d acbb
00000200: 7eee e43c 655e e2bc 515b 25bd ed57 eabd
00000210: a632 33bd 5195 aabd eb3f cdbd 87f7 a83d
00000220: 7362 a3bd c302 bcbc 905e cabd 13f4 81bd
00000230: 9e86 d83c c81c d2bc 6914 14be d319 c73d
00000240: 1b2c 41bd 35c5 e63c b686 ac3d 843c 52bd
00000250: fd4c 08be dfdb 83bd 18ea 6dbe faca 863d
00000260: ddb5 1b3d ac14 223c eb5e 93bd a994 f5bd
00000270: 2e27 80bd 7b9c b83c 132e a8bd 612d cdbd
00000280: b58e 22bd d3ac 76bd cb8d d9bd 6c6f f53b
00000290: 6e25 de3d f2b9 92bd c98b aa3d 6c81 783d
000002a0: 8b43 5cbd c896 2ebe ae19 af3d 0e3b a0bc
000002b0: a301 dbbc 87c4 ddbd 9e82 dc3c 1608 8dbd
000002c0: 67c3 b23c 37dd ecbc afa9 bd3d b390 ae3d
000002d0: e7e0 5a3b 3bd7 93bb 3b56 3e3d cc2b 81bd
000002e0: af35 25bd 42ec 263c 6dff b13c 98e9 12be
000002f0: 5bbe 0a3d 1872 bfbd f67b 00be 091d aebd
00000300: 5ca6 b73d 65f2 5e3e aced 173e 9d0a ff3c
00000310: 0892 403e 5026 34bc 5dce d03b 40f7 58bd
00000320: ef4b 9e3d f0e7 3b3e d0b9 113e 6de1 26bd
00000330: fa1b 4ebd 455a fbbb 7a86 2e3e 103c a8bc
00000340: 7c3e 4a3e e58a ff3d fd30 003e bdd0 fb3d
00000350: dbba 1bbd 564e de3d a26a 233e f3b6 993d
00000360: df82 e93d b460 3a3e 7ed1 cb3d f898 923d
00000370: b0d9 f5bc 3bd7 2a3e fe27 653e 9de2 ddbc
00000380: 6ed8 f93d df8e 763d 43c3 1b3e 4cf0 d73c
00000390: c4ce f93d 1645 96bc cc7f 19bc f4c1 d13c
000003a0: ea95 b03d cdc7 3a3d 0371 de3d d768 9d3d
000003b0: ed78 cbbc 9d38 fa3d fd19 fb3d cb80 243e
000003c0: 7c2a a43d 928d c93d 23ef 22bd 9e65 473e
000003d0: 0f82 0e3e a608 6a3e fd1b 6bbc 7d6d 2c3e
000003e0: 146c d43c abd7 863d 6cc8 ed3d 362a fe3c
000003f0: 7fb7 803d 9652 d9bc 6a88 e23d e54e dcbc
