dl_ouptut/best_model_epoc7.pth (torch, 674223 bytes, 46 tensors)

rnn_layer.rnn_layer.weight_ih_l0 f4 [256, 50]
000000 09 70 91 bd 64 bb 00 bd 2e 6d 70 3d b1 0b a2 3d
       -0.07101447 -0.03142871 0.058697872 0.07912386
000010 23 57 d4 3d dc 59 1f bc f6 e9 19 bd 45 f7 c9 bd
       0.103681825 -0.009726014 -0.03757664 -0.09861616
000020 f1 23 bc 3d dc 9c 80 3d 24 9a 8f bd f0 f8 06 bd
       0.09186543 0.062799186 -0.07011822 -0.03295225
000030 fe 9c 41 3d 71 96 ca 3d 61 8a af 3d e3 9a e9 3d
       0.04726886 0.09891976 0.085713156 0.114064954
000040 e1 78 16 bd 50 e2 0f 3e 00 31 b1 3e 6b 72 a5 3e
       -0.036736373 0.14051175 0.34607697 0.32313856
000050 07 cc 32 3e 90 5a 8a 3d 5d 69 b8 3e 6b 4b 4c 3e
       0.17460643 0.06755555 0.36017886 0.19950645
000060 7e 6b 1c 3d 24 0e 9b bd cd 9b 7f bd b3 3b 84 3c
       0.03818845 -0.075710565 -0.062404443 0.016141748
000070 b8 8f de 3d 4b 40 94 3d f2 1b 98 bd 17 a1 8c 3d
       0.10867256 0.072388254 -0.07427205 0.06866663
000080 cb ed 65 bd db c2 bf 3c 85 18 02 bd 83 3b da 3d
       -0.05613498 0.023408344 -0.031761665 0.10655882
000090 cc ba 0a 3d b1 64 d1 3d 6a f9 b5 3d 63 23 51 bc
       0.03386955 0.102242835 0.088854626 -0.0127647845
0000a0 a6 1b d1 3d ca 4d b4 3d 36 9b 85 3d d7 b7 42 bd
       0.10210352 0.088038996 0.06523745 -0.047538605
0000b0 68 e9 da 3d 05 63 fb 3c 78 5f 10 3e e9 f2 17 bd
       0.1068905 0.030686865 0.14098918 -0.03709689
0000c0 7a ab 8c bc 77 35 90 3c fd 5f b1 bd be e5 92 bd
       -0.01717161 0.017603619 -0.086608864 -0.07172726
0000d0 63 88 5f 3d 67 61 b8 bd aa 16 b2 bc 5d aa c7 bd
       0.054573428 -0.09002953 -0.021739323 -0.09749291
0000e0 6e f9 58 bd 66 70 a8 3a 39 73 e2 3d 06 3d 5a 3e
       -0.05297225 0.001285088 0.11057133 0.21312341
0000f0 55 a0 1b 3d 1c 4a 81 3d 31 df 02 3e 83 df 32 3e
       0.0379947 0.06312963 0.12780453 0.17468075
000100 c1 be c1 bc 11 05 c1 3d d8 f6 cf 3c 9e 43 a5 3d
       -0.023650529 0.094247945 0.025386259 0.080695376
000110 65 7f 84 3d bf ac 0e be 4a 6d 8b bd c3 be 01 3e
       0.06469611 -0.13933085 -0.068079546 0.12670426
000120 da 41 f3 bd 9c 8a 4a bd 3d de c7 ba 84 23 30 be
       -0.118777946 -0.049448594 -0.0015248727 -0.17201048
000130 c0 7b b3 bd 1c d7 a1 bd c6 29 fb 3c 57 46 db 3d
       -0.08763838 -0.07902357 0.030659568 0.10706776
000140 70 f1 49 bd f2 fa c6 3d 65 8e 0a 3e c3 a9 2a 3e
       -0.04930252 0.09715833 0.13530882 0.16666321
000150 d5 15 3b bd 98 ce c0 3d 28 00 d7 3b e2 af aa 3d
       -0.045675118 0.09414405 0.006561298 0.08334328
000160 9c d9 4b 3d 19 5f 2e 3e 3f 83 2b 3d c1 1f 38 3e
       0.049768075 0.17028464 0.041873213 0.17980863
000170 0f d7 9a 3c 60 55 a7 3d fc 3f 37 3e d5 79 d3 3d
       0.018901376 0.08170581 0.17895502 0.10325972
000180 f8 32 eb 3d 0e 4e 0a 3e 20 a8 48 3e b5 67 67 3e
       0.11484331 0.13506338 0.19595385 0.22598155
000190 7f 50 ee bd b6 39 23 3d 73 68 8b be 86 33 98 be
       -0.11636447 0.03984996 -0.27228126 -0.2972681
0001a0 cf 27 2b be 09 d0 ff bd bc f8 62 3b 0b a0 aa 3b
       -0.16714405 -0.124908514 0.003463312 0.005207067
0001b0 47 62 d4 bd 0b 8b 51 be ee 99 43 be 4d 29 bb bd
       -0.103703074 -0.20463197 -0.19101688 -0.09138737
0001c0 73 2f 96 bd 1f 2d 03 3d 13 1d b3 3d 01 f5 94 3d
       -0.07333269 0.032025453 0.0874578 0.07273293
0001d0 c3 e6 ac bd e3 14 90 3d 33 39 75 bd 6f d9 63 bd
       -0.08442452 0.07035234 -0.059869003 -0.055627283
0001e0 6a 34 95 ba ef d6 ae 3c b8 7b 16 3e 01 9e 97 bb
       -0.0011383418 0.021342723 0.14695632 -0.00462699
0001f0 19 6d 9c 3d ed 7c 3e bd 9c 69 3e 3d 2e af cd 3d
       0.07637996 -0.046505857 0.046487436 0.100431785
000200 63 f4 e9 bc e3 01 a5 3d 60 5a 55 3e 81 92 94 3d
       -0.028558915 0.080570005 0.20835257 0.07254506
000210 66 49 89 bd 8f b0 57 bb 2c 51 b2 3d e1 be a8 bc
       -0.06703453 -0.0032911634 0.087068886 -0.02059883
000220 ab 5b b4 3d 57 36 69 39 6f de c2 bd 02 4e a9 bd
       0.08806547 0.00022240855 -0.09515082 -0.08266832
000230 46 3b 42 3d 8b 31 05 be 10 09 f2 bd 2c 33 50 be
       0.04741981 -0.1300718 -0.11818135 -0.2033202
000240 1d 8e dc bd 38 09 d6 bd be 50 35 be 2c f6 3e 3d
       -0.107692935 -0.10450977 -0.17706582 0.046621487
000250 e6 22 3c bd 7c b8 ba bc cc c2 9a bd f0 ed 8c 3d
       -0.04593172 -0.022793047 -0.07556686 0.068813205
000260 e5 88 58 be 5c d0 3c be 4f d6 29 bd fe 49 03 be
       -0.21145971 -0.18438858 -0.041464146 -0.12821195
000270 7c 08 cf bc 85 49 4f be e7 7d 03 be 42 ec d5 bc
       -0.0252726 -0.20242889 -0.12840997 -0.026113633
000280 0f af b2 bc ae 9c d5 3c 37 71 bb bd 9a 5d b1 3d
       -0.02181199 0.026075687 -0.091524534 0.08660431
000290 6e 81 45 3c 45 e8 44 3c 46 bb 39 bc b2 0b 88 bd
       0.012054784 0.012018268 -0.011336153 -0.06642856
0002a0 aa 30 82 3d bc b0 8f 3d 43 27 fc 3b f7 0b 53 3e
       0.06356938 0.07016131 0.00769511 0.20610033
0002b0 dd 1b 5c 3d 18 83 eb b9 69 56 bc bd 92 17 20 bd
       0.05373751 -0.00044920365 -0.09196169 -0.03908498
0002c0 4f 9e 64 bd e6 d1 18 bd 1c 34 55 3d 18 89 53 bd
       -0.055815037 -0.03730955 0.05205165 -0.051644415
0002d0 8e b4 9c 3d 4f 43 24 be 72 84 88 bd 24 e9 31 be
       0.076516256 -0.16041301 -0.06665887 -0.17374092
0002e0 1f 7c 21 bd d7 61 99 bd c7 21 0e be a7 44 09 be
       -0.03942501 -0.074893646 -0.13880073 -0.13405095
0002f0 9f b0 b4 3d 22 dd d5 3c 03 8f b7 bd 85 c3 3c bd
       0.0882275 0.02610642 -0.08962824 -0.0460849
000300 5a c0 35 bd 10 82 21 bd 6b 8c f1 bc 9d 14 98 3d
       -0.044372894 -0.039430678 -0.029485902 0.07425807
000310 89 1e f6 bc ae a5 fa 3d 70 a4 52 bd b2 5f 60 3d
       -0.030043857 0.12238632 -0.05142635 0.054778762
000320 a8 02 db bd 4c 49 e2 bd de 4d 48 bd ad ac a4 bc
       -0.10693866 -0.110491365 -0.048902385 -0.02010187
000330 07 17 74 3c 85 9f a0 3d 66 45 61 3d c7 fa c7 3d
       0.014898068 0.07842926 0.054997824 0.09764629
000340 8d 86 4b 3d 20 8d a5 3d ef b0 7a bc 36 38 d6 3d
       0.049688864 0.08083558 -0.015300973 0.1045994
000350 f3 ee b6 bc 70 dd 1e be e8 ca d6 bc fd f0 95 3b
       -0.022330737 -0.15514159 -0.0262198 0.004575847
000360 b9 19 67 3e 9a 1b 31 bd 78 c8 d7 3d c6 59 3e 3d
       0.22568406 -0.043239214 0.10536283 0.046472333
000370 53 9b bd 3d 88 3e 19 3e 08 de 01 3d 55 23 29 3d
       0.09258141 0.1496526 0.031705886 0.04129346
000380 15 31 ac 3d d4 e2 62 3d 18 d2 42 3c be 17 19 bd
       0.08407799 0.0553921 0.011890911 -0.037376158
000390 fe 59 cb bc 9f 5b bb 3d c6 db 34 3d fe 49 38 3e
       -0.024823185 0.09148335 0.044154905 0.17996976
0003a0 56 01 d8 3d 72 c0 e6 3c 74 0c 1d 3d c1 28 87 3d
       0.1054713 0.028167937 0.038341954 0.0659957
0003b0 a9 71 c6 3d 80 cd c8 3d ba 8b 69 3e d8 d6 ea 3d
       0.09689648 0.09804821 0.22807208 0.114667594
0003c0 46 06 56 3e bd 8b 5a 3e fd 3e cd 3d 9c a7 73 3e
       0.2090083 0.21342368 0.1002178 0.23794407
0003d0 23 62 0e 3e 17 df 01 3e e7 14 63 3d fa 84 5f 3d
       0.13904624 0.12682758 0.055439856 0.054570176
0003e0 1b 33 3c 3e c7 66 23 3e 48 92 c3 3d 5a b6 5a bd
       0.1837887 0.15957175 0.09549385 -0.05339656
0003f0 20 19 23 be e9 b4 df bc f2 c1 0e be 55 94 56 be
       -0.15927553 -0.027307944 -0.13941172 -0.20955022

rnn_layer.rnn_layer.weight_hh_l0 f4 [256, 64]
000000 7b 9b c8 bd 6d 9c 76 3d 18 64 e6 bd 28 36 8d be
       -0.097952805 0.060207773 -0.1124956 -0.2758038
000010 08 ac c6 bc c4 f1 af bd 96 22 05 be de ae 1a be
       -0.024251953 -0.08591035 -0.13001475 -0.15105769
000020 7c b7 87 3a 62 87 0d bb 21 68 8c bd aa c1 a4 bd
       0.0010354365 -0.0021595587 -0.068557985 -0.08044751
000030 ab 4c 6f be 5b 61 69 be 08 a4 3b bd e6 86 be bd
       -0.2336909 -0.22791044 -0.04581073 -0.093030736
000040 45 5d 26 bc 4b 4d 5c bd b6 fa 84 bd a7 19 17 bd
       -0.010154073 -0.05378465 -0.06493132 -0.0368897
000050 ca 65 fa bd 83 2a fa bd 60 c9 15 bd 1c ad 0e be
       -0.12226446 -0.1221514 -0.036569 -0.13933223
000060 3e 95 33 be 79 7b d5 ba cf 9b 0f be fe 6c c7 bd
       -0.175374 -0.0016287408 -0.1402428 -0.097375855
000070 78 96 c7 bd b2 c9 db 3b 72 d4 cb bd 27 5c f8 bd
       -0.097454965 0.0067073936 -0.0995263 -0.12126952
000080 29 d8 77 bd 38 0e 60 be 16 e0 38 be 7b ff 03 be
       -0.06050888 -0.21880424 -0.18054232 -0.12890427
000090 79 82 08 be 44 9f 4a be 3f f3 75 bd b8 ff 1a bd
       -0.13331021 -0.19787318 -0.06004643 -0.03784153
0000a0 21 92 8b bd f1 d5 aa bc 51 aa 17 be 1e 01 22 be
       -0.06814981 -0.020853968 -0.14811064 -0.15820739
0000b0 9d de a5 bd e9 1f 9a bd a9 f7 1b bd d3 c1 68 bd
       -0.08099101 -0.07525618 -0.038077984 -0.05682547
0000c0 ef ce cc bd 82 88 04 bd 4a 3e 0e be d3 9c 4a bd
       -0.10000407 -0.032356746 -0.13890949 -0.049465965
0000d0 d7 c3 5a be ed 74 1d be 6e cb 68 bd 41 12 57 be
       -0.2136377 -0.15376635 -0.05683463 -0.21003057
0000e0 4e 07 56 3d dd 29 20 be e9 19 b9 bc 78 6b c7 bd
       0.05225306 -0.1564097 -0.022595363 -0.09737295
0000f0 02 4e 37 bd fa 9a 33 be 28 04 ac bd 5c 14 c8 bd
       -0.04475213 -0.17539588 -0.0839923 -0.09769508
000100 08 9c 29 3e 2d 6b 7a 3d 78 a7 0e bc 79 b2 a1 bd
       0.16563427 0.061137367 -0.00870692 -0.07895369
000110 dc 33 c9 bd 81 e1 39 3d 2d a2 d0 bc 27 b9 02 be
       -0.098243445 0.045381073 -0.025467956 -0.12765943
000120 92 51 70 bd 9c 6a 89 3c 5a de d1 bd 6e 39 ce bc
       -0.05867154 0.016774468 -0.10247488 -0.025173869
000130 1c ec 3b bc 55 14 65 bd 3a 97 67 bd 70 56 38 3e
       -0.011469867 -0.055927593 -0.056540705 0.18001723
000140 97 3f dd 3d 85 57 b3 bd 7d 91 c5 bc d0 5d b5 bd
       0.108031444 -0.087569274 -0.024117226 -0.08855784
000150 09 d2 6e bd ca 3c a9 3c d7 a1 6c 3d 08 a6 23 be
       -0.058305774 0.02065887 0.05777153 -0.15981305
000160 a5 37 33 bd 58 bc ca bd 49 f2 f3 bd f7 e7 07 bd
       -0.04375424 -0.09899205 -0.119114466 -0.033180203
000170 5e 76 a7 bb 4b 5e 8d bd 7b d0 bd 3b b8 97 ea 3c
       -0.005110546 -0.069027506 0.005792675 0.028636798
000180 07 09 7d bc 0e 05 c6 3d e3 d4 30 3d c0 72 d2 bd
       -0.015444047 0.09668933 0.043171775 -0.10275793
000190 ad 93 c6 bc 61 ad e9 bc 79 f2 d9 3d 65 5a e4 3c
       -0.02424034 -0.028525056 0.10641951 0.027875135
0001a0 bb 95 b8 bc 21 a5 78 3d 86 a9 28 bd 9e c5 29 bc
       -0.022532335 0.060704354 -0.041177295 -0.010362057
0001b0 b4 8b 87 3c 0d b2 4a 3d 93 1f e7 3c fe 7f c5 bd
       0.016546108 0.04948621 0.028213298 -0.09643553
0001c0 2f ad 8c bd ae b8 98 3d 53 38 83 bd c9 f1 06 3d
       -0.0686897 0.074571 -0.06407227 0.032945428
0001d0 41 06 b5 bd 12 6b 99 3d 5c fb 28 3c 7d 69 be bd
       -0.088390835 0.07491125 0.010313835 -0.09297464
0001e0 6f 07 8f 3c ac 21 e2 bb 35 17 e1 ba 60 27 66 bc
       0.0174596 -0.0069009867 -0.0017173054 -0.014047474
0001f0 0d cf 07 bc 69 b6 bd 3c 8d a7 9e bd 0a 0b 72 3d
       -0.008289111 0.023158269 -0.077468015 0.05909256
000200 3c 89 7c 3d 79 df 34 3c ec a0 a7 bd f7 94 6c bd
       0.061654314 0.011039608 -0.0818499 -0.05775925
000210 1c cf c3 bd 1a 11 9c 3d 96 5f 28 3c 53 3e 87 3d
       -0.09560987 0.07620449 0.010276696 0.06603684
000220 ce 08 f8 bd f9 e4 3f 3b a4 5a 3d be fc 6a 1e be
       -0.12111054 0.0029280765 -0.18491608 -0.15470499
000230 29 2d f6 bc cc 54 9a bd 2b 28 2a 3c 6b 0c 66 be
       -0.03005083 -0.07535705 0.010385553 -0.22465675
000240 5b c7 62 3d f6 31 0f 3d 2f 6f d4 3d a0 a6 08 be
       0.0553659 0.034959756 0.10372769 -0.13344812
000250 39 2a 1b 3d e9 64 a3 bd a0 10 27 3e cf bd af bd
       0.037882064 -0.079782315 0.16314936 -0.08581125
000260 9a 2b ab 3d 87 e0 5a bd 3f d1 20 bc 18 95 98 bd
       0.08357926 -0.053436782 -0.009815513 -0.074503124
000270 d9 a8 e2 3d a7 98 ae bd ea 94 8d 3d 42 c0 2d bd
       0.110673614 -0.0852521 0.06913169 -0.04241968
000280 12 11 af bb 44 e3 b2 3d 39 84 ac bc 33 60 c3 bd
       -0.005342611 0.08734754 -0.021059142 -0.09539833
000290 aa e8 85 bd 4c 8f 4e 3d d6 2f f5 bb 8c 8a af bd
       -0.06538518 0.050429627 -0.007482509 -0.085713476
0002a0 02 45 4d bc cd 7c 66 3d 90 2e b6 bb ee a0 96 bd
       -0.01252866 0.056271363 -0.00555975 -0.07354914
0002b0 a0 4a 92 bc e3 4a 33 be da a8 36 be 49 df 6e be
       -0.01785785 -0.17509036 -0.1783785 -0.23327364
0002c0 54 c6 e7 bb 3d 02 30 3c 33 3d 08 3e 82 0c 9c 3c
       -0.007073203 0.010742721 0.13304596 0.019048933
0002d0 8e 6f 09 be 9d 91 96 3d 7e ec 75 bd 81 4c 45 3d
       -0.13421461 0.07351992 -0.06003999 0.048168663
0002e0 19 2e 19 3e c9 70 c2 bd 1e 2a 09 be c1 2b 22 be
       0.14958991 -0.09494168 -0.13394973 -0.15837003
0002f0 b8 b5 3c 3e a9 12 bb 3c f4 1c d1 bd 39 73 15 bd
       0.18428695 0.022836046 -0.102106005 -0.036486838
000300 31 91 1b bc c8 61 71 3d 66 b9 0a be 3b 6a 0f be
       -0.009495066 0.058931142 -0.13547286 -0.14005367
000310 05 3b 16 bd f3 b5 61 3d 6c 74 bf bc f2 e5 b9 bb
       -0.03667738 0.05510516 -0.023370944 -0.0056731636
000320 23 a7 fd 3d f3 dc ef bb 8d f4 a0 3d f5 73 76 bd
       0.123853944 -0.0073200404 0.07859144 -0.06016918
000330 c0 a5 88 3d 13 33 bf 3c fb cb 20 3d b3 fc 8a 3c
       0.06672239 0.023339784 0.03925703 0.0169662
000340 65 83 28 3d 39 18 04 3c 2b ce a5 3c 0a 58 dc 3b
       0.041140933 0.008062416 0.02023991 0.0067243623
000350 2e f4 c4 bc ff 75 81 be 99 01 4d 3e 5e 99 93 bd
       -0.024042215 -0.25285336 0.2002014 -0.07206987
000360 15 9b c7 3c 37 0a 2b be e1 23 94 3c a5 37 a4 bc
       0.024365941 -0.16703115 0.018083515 -0.020046065
000370 25 06 38 3d a8 99 93 3d 3a 8b 36 3d 7d 68 8d bc
       0.044927735 0.07207042 0.04456637 -0.017261738
000380 55 17 7a 3d cf db 8c 3d 19 4a 1a be 91 dc 75 be
       0.061057407 0.06877863 -0.15067329 -0.2400992
000390 f8 b4 1f 3d bb fd 25 3c fd 6d 41 bc ec 70 a7 bc
       0.038990945 0.010131295 -0.011806008 -0.020439588
0003a0 11 97 c3 bd 11 03 13 ba 0d 7b ad 3d e5 ce 9f ba
       -0.09550298 -0.0005608062 0.08470736 -0.0012192397
0003b0 ee 66 97 bc 96 11 40 bd 1e ff 8e bd 24 36 68 3d
       -0.018481698 -0.04689177 -0.069822535 0.056692258
0003c0 3c 86 ca bd 73 43 aa 3d 66 c9 a9 bd 1c 5c 46 be
       -0.098888844 0.08313646 -0.08290367 -0.19371074
0003d0 c2 1c 69 3d 8d b0 ac bd e7 64 bf 3c f0 bb c7 bd
       0.05691219 -0.08432112 0.023363544 -0.09752643
0003e0 21 0b f0 3d 2a dc 15 be 85 96 27 3c cd 69 c2 bc
       0.11720873 -0.14634767 0.010228758 -0.02373209
0003f0 44 b1 3f bd 12 ff 50 3c 5f b9 13 be 87 14 10 bd
       -0.046799913 0.012756126 -0.14426182 -0.035175826

rnn_layer.rnn_layer.bias_ih_l0 f4 [256]
000000 31 83 62 bb 70 71 05 3e 86 02 83 3d 1a a0 f0 3d
       -0.003456306 0.13031554 0.06396966 0.11749287
000010 c3 21 52 3d 42 27 49 3e 57 87 67 3e 95 43 76 3d
       0.05130173 0.19643882 0.22610222 0.060123045
000020 19 76 6b 3e 10 19 02 bc 3c 32 dd 3d 17 9b 0a bb
       0.2299427 -0.007940546 0.10800597 -0.002114957
000030 d3 37 16 bc a1 ac a0 3d 97 3d 9d bd 7e f4 a5 3d
       -0.009168583 0.07845426 -0.07677763 0.08103274
000040 6b ea d5 3d d2 68 f7 bb 7e cd 81 3e 73 07 09 3e
       0.10445102 -0.0075503374 0.2535209 0.13381748
000050 3e aa 34 bd d9 7f 3b bd 41 65 3f 3e ab ea 76 3e
       -0.044107668 -0.045776222 0.18690969 0.24112956
000060 1e 98 d4 3d 64 2b c1 3d 01 bb 4b 3d 95 3f b3 3d
       0.103805766 0.09432104 0.049738888 0.08752362
000070 10 09 26 3d ea 04 3d 3e cd a0 ca 3d e3 1f 86 bd
       0.040535986 0.18458906 0.098939516 -0.06549051
000080 6c 31 5a 3e 8a 0b a7 3c 6b 9e b6 bc e8 96 65 3c
       0.21307915 0.020391244 -0.022292336 0.01401303
000090 5f 61 ba 3a 36 37 c5 3d 65 30 ae 3d e7 03 0e 3e
       0.0014219693 0.09629671 0.08505324 0.13868676
0000a0 ca 09 10 bd f5 0a b2 3d 9e 5e 9a 3d e5 17 30 3e
       -0.035165586 0.08693496 0.07537578 0.17196615
0000b0 47 04 5d 3d bb 69 0f 3d a3 bb f1 3d 9e 0c 75 3e
       0.053959157 0.03501294 0.11803367 0.23930594
0000c0 bf 5b 9a 3e 32 ce 44 3e 07 dc 37 3e e2 8a 42 bd
       0.30148122 0.19219282 0.17955028 -0.04749573
0000d0 ae eb 46 3d 6f a1 f0 3d 5d a0 3d bd 0b 88 0c 3e
       0.048564605 0.11749541 -0.046295512 0.13723771
0000e0 2d 61 1e be 34 b7 ae 3d f6 c2 24 3d 85 28 40 3e
       -0.15466757 0.08531037 0.04022499 0.18765457
0000f0 7a 29 33 3e 0f 86 a5 3d a2 9d e7 3c 75 6a 3b 3e
       0.17496291 0.0808221 0.028273407 0.18302329
000100 67 4d a8 bd f5 c8 27 3e e6 47 a6 3d 4d e1 99 3d
       -0.08217888 0.16385253 0.08119182 0.07513676
000110 32 94 74 3e 5f 06 ab 3c 55 3c 51 3d 7a 9a 65 3c
       0.23884657 0.020877061 0.051082928 0.014013881
000120 ef eb 55 3d 21 62 e4 bc 37 b7 60 bc 6d 73 89 bd
       0.052226957 -0.027878823 -0.013715557 -0.06711469
000130 61 0d 66 3b 11 e8 1b 3e 2e cc 2f 3e f8 c3 24 3e
       0.003510319 0.15225245 0.17167732 0.16090381
000140 ba 4a 86 3e 61 31 55 3e be a7 80 3d 2a 92 b6 3d
       0.26228887 0.20819618 0.06281994 0.08914597
000150 33 d2 51 3d c8 6a 53 bc 1b e0 5c bd 31 da 94 3e
       0.051225852 -0.012903877 -0.05392466 0.29072717
000160 df 04 85 bd d0 15 2b 3e 24 f0 0e 3e d7 26 52 3d
       -0.0649507 0.1670754 0.13958794 0.05130657
000170 f2 dc 24 3d 95 6e df 3d 28 e0 12 3c 61 54 92 3d
       0.040249772 0.10909764 0.008964576 0.07145
000180 8b d9 f5 ba 4c 14 00 be 96 72 9a bc 31 4e 0b 3e
       -0.001875685 -0.12507743 -0.018853467 0.13604046
000190 a4 b3 48 3d 63 ad 4b bd c1 81 58 3d 83 b0 4f bd
       0.048999444 -0.0497259 0.052858118 -0.050705444
0001a0 3a b6 35 3e 3b 71 92 bc 7d 58 0f 3e 26 a3 6b 3d
       0.17745295 -0.017876258 0.139986 0.057528637
0001b0 f8 9b 25 3b 56 23 3b 3d da 79 fb 3b b2 49 c2 bd
       0.0025269967 0.045687996 0.007674438 -0.094867125
0001c0 ee 0a 40 bc 99 8e 24 bd c5 a1 08 3e 55 62 fc 3d
       -0.011721356 -0.040175054 0.1334296 0.12323443
0001d0 4f 3f 0d bd 2e 06 fe bc 80 80 e5 3c f8 68 2a bd
       -0.034484204 -0.031008806 0.028015375 -0.041604012
0001e0 9e 07 c2 3d ab 7e 2b 3d 08 58 21 3c a7 35 0c 3e
       0.09474109 0.041868847 0.009847648 0.13692342
0001f0 c3 e8 1a 3e f2 45 97 3b 97 ae 90 3d 92 ae ed 3d
       0.15127854 0.0046164924 0.0706455 0.11605562
000200 57 fa f9 3c 0e 58 d0 3d b4 bb 3a 3d 22 95 b0 bd
       0.03051488 0.10173045 0.045589164 -0.08622195
000210 bc 62 8f 3d ab de 0e be ea 54 ba 3c e6 b5 80 3d
       0.07001254 -0.13952129 0.022745568 0.062846944
000220 41 e1 da 3d 83 5f 81 3d ff 0a bc bd e2 fd c8 bb
       0.10687495 0.063170455 -0.09181785 -0.006133781
000230 10 d5 62 3c 4d c6 b5 bd f2 d1 17 bd 02 f7 d5 3d
       0.013844743 -0.088757135 -0.037065454 0.104475036
000240 b2 41 ec bd 42 22 92 3d 4b 23 2b bc 8f 67 e1 bd
       -0.11535968 0.071354404 -0.010445426 -0.1100608
000250 4e 11 c1 bd 38 cd 64 bd 22 94 ee 3d 99 8b cf 3c
       -0.09427129 -0.055859774 0.11649348 0.02533512
000260 38 b3 a4 bd 91 61 a3 3d 36 a5 de 3c bf 2d 37 bd
       -0.08041996 0.07977594 0.027178388 -0.04472136
000270 ce 2b ad bd 87 15 ee 3d 73 54 b1 3d 4b ee 2c bd
       -0.08455621 0.116252 0.086586855 -0.04221944
000280 90 4b 77 3d 84 c3 8b bd b6 07 1f 3e b0 71 0c 3e
       0.060374796 -0.06824401 0.15530285 0.13715243
000290 f4 7c 42 bc e9 65 49 3c 57 0b 65 3d a2 70 e5 bc
       -0.011870611 0.012292364 0.055919018 -0.02800781
0002a0 a7 bb 05 3e 62 5e b9 3c 1c 7c 4a 3d c5 79 89 bd
       0.13059865 0.022628013 0.049434766 -0.06712679
0002b0 b7 03 ac bd 2b e4 81 3c 1c aa 0d 3e b7 94 cf 3c
       -0.08399146 0.01585587 0.13834423 0.025339467
0002c0 5d 09 35 bc de e0 d9 3c ff 57 95 bd 14 54 db bd
       -0.011049596 0.026596483 -0.072921745 -0.10709396
0002d0 af 1a 67 3c 1d f5 8b 3b 36 c8 9a 3d d2 0e fa 3d
       0.014105483 0.004271163 0.075577185 0.12209858
0002e0 08 47 12 bd 64 43 6b bd 08 54 0e 3e 7d 3e ca 3c
       -0.035712272 -0.057437316 0.13899243 0.024688
0002f0 df 19 05 be 2b 26 ba bc ee 25 c5 3d 6a ba b4 bc
       -0.1299815 -0.022723278 0.09626375 -0.022061545
000300 83 c1 50 3e 05 b6 50 3e 0f c5 40 3e 8a 6a f8 3d
       0.20386319 0.20381935 0.18825172 0.12129696
000310 d8 a4 f8 3d 36 36 92 3e 1b 66 60 3d 3e e0 0b 3e
       0.121408165 0.28556985 0.054784875 0.1365976
000320 18 e1 dd 3d c1 f3 13 3e d3 5e 76 3e b8 01 01 3e
       0.10833949 0.14448453 0.2405961 0.12598312
000330 d7 44 0e 3d 79 b0 8a 3d 21 2a 37 bd 91 aa 89 3d
       0.03473362 0.06771941 -0.04471791 0.06721986
000340 0f f5 8d 3e 1d b7 d8 3d 4d a3 98 3e 4a 9a ed 3c
       0.27726027 0.10581801 0.2981209 0.029004235
000350 c5 61 28 3e 6a 31 b3 bd 7f 27 b4 3c 47 9b 8b 3e
       0.16443546 -0.08749659 0.02199149 0.27266905
000360 3b 10 8e 3d 63 bd 9f 3d aa 97 f9 3d 1b 9d 18 3e
       0.069366895 0.077997945 0.12187131 0.14903681
000370 0e 96 ae 3c 87 79 46 3e f8 3a 18 3e 2c b7 f2 3d
       0.021311786 0.19382297 0.14866245 0.118513435
000380 5e ac 87 3e b5 81 83 3e 39 3f 15 3e 1b 8a 31 3e
       0.26498693 0.25684896 0.14574899 0.1733784
000390 a4 a6 ae 3d d4 b7 cf 3d f2 45 75 3e 6d 44 1b 3e
       0.08527878 0.10142484 0.23952463 0.15162821
0003a0 92 f4 45 3d 07 35 28 3d 58 ad 24 3e 1f b1 e6 3d
       0.048328944 0.041066196 0.1608175 0.11264252
0003b0 2b 31 26 3e 13 33 68 3e 5b c6 e9 3d 8a a0 94 3a
       0.16229694 0.22675733 0.114147864 0.0011339348
0003c0 ee cd f9 3d 67 48 91 3c 35 83 7e 3c 7e a8 06 3c
       0.12197481 0.01773472 0.015534212 0.008218883
0003d0 7a 48 0a 3d 40 0f 1c 3e 28 85 8c 3d 6f 1f 56 3e
       0.033760525 0.15240192 0.06861335 0.20910428
0003e0 dd 27 63 3e 83 c5 12 3e 9e 78 33 3d ba 45 3a 3e
       0.22183175 0.14333157 0.0438162 0.18190661
0003f0 94 3e 95 3e 3d a4 66 3e c2 d4 ac 3d 90 ff 85 3e
       0.29149306 0.2252359 0.08439018 0.2617154

rnn_layer.rnn_layer.bias_hh_l0 f4 [256]
000000 6c 26 1a 3d f1 fe f0 3d d3 1c 89 3c 45 f9 32 3e
       0.0376343 0.11767376 0.016737377 0.17477901
000010 88 8d 1f 3d bc 0c cb 3d 6e ce 4d 3e 05 49 47 3e
       0.038953334 0.09914538 0.20098278 0.19461448
000020 be ee fb 3c 3d d8 33 3e 1f 28 15 3d a5 bf f3 bc
       0.03075349 0.17562957 0.036415216 -0.02975447
000030 63 79 a5 3b 60 c4 58 3e 29 c1 0f 3e 73 af 89 3e
       0.005049871 0.21168661 0.14038529 0.2689167
000040 37 c2 cc 3c 2e 05 11 3d 70 bd 90 3e b2 25 05 bd
       0.024994953 0.03540533 0.2826953 -0.032506652
000050 81 dd 18 3e 35 6f 01 3e 67 3e 12 3e af 55 e0 3c
       0.14928247 0.12640078 0.14281617 0.027384607
000060 f8 63 82 3e fe 09 85 3d a6 36 0a 3e de 62 10 3e
       0.25466895 0.064960465 0.13497409 0.14100215
000070 79 2d 32 3e a2 29 a9 3d b0 f5 e4 3c 2a 95 9a 3d
       0.17400159 0.08259894 0.027949184 0.07547982
000080 33 60 a8 3e 2c fd 75 3e e3 3a 73 3d cd d5 79 bc
       0.32885894 0.24022359 0.05938233 -0.015248728
000090 fe d5 5e 3d 01 f6 56 3d c3 00 33 3d 7a c9 36 bd
       0.054403298 0.0524807 0.0437019 -0.044625737
0000a0 93 52 50 bc f5 fa f9 3d 63 d6 21 3d 1a 6c 4a 3d
       -0.012715 0.122060694 0.039511096 0.0494195
0000b0 e6 fb 87 3d 59 71 c9 3d e0 a7 1f 3d b1 b8 bf 3c
       0.06639843 0.098360725 0.038978457 0.023403497
0000c0 b0 c9 26 3e 13 0c 68 3d e2 f1 46 bd a4 cc ae bd
       0.16287875 0.05665214 -0.04857052 -0.08535126
0000d0 fc f5 16 3e be e1 46 3e c6 09 ac 3d 35 91 9e 3d
       0.14742273 0.19422051 0.08400302 0.0774254
0000e0 5d 23 09 be 3b 10 02 3d 9d fd 0d 3e 96 cb 6b 3d
       -0.13392396 0.03175376 0.13866277 0.0575672
0000f0 fe b4 bf bc 79 51 f6 3d e2 3f 8d bc 95 6a 49 3e
       -0.023401733 0.120272584 -0.017242376 0.19669564
000100 49 0a bc 3d 58 3e 78 3c c8 48 44 3c 78 f5 c2 bd
       0.09181649 0.015151583 0.011980243 -0.09519476
000110 f0 84 5b 3b d1 48 e2 bc a6 d6 33 3b 20 92 9f 3d
       0.0033495985 -0.027622612 0.0027441173 0.07791543
000120 9a cf a6 3d 7b 5f 3c bd b9 56 45 3e 7c d1 fd 3c
       0.081450656 -0.045989495 0.19271363 0.030983679
000130 d1 27 9e bd 54 48 84 3d 07 e6 e9 3b d2 b7 66 3d
       -0.07722438 0.06459108 0.007138017 0.05632765
000140 24 17 6d 3e dc 7f 24 3e bd ee 77 bb a7 95 90 3d
       0.23153359 0.160644 -0.0037831508 0.07059794
000150 e4 f1 88 3d 33 6b f2 bc 00 bc ea bc aa 71 93 3e
       0.06686762 -0.029592132 -0.028654099 0.28797656
000160 3c c9 d7 3d ac ac 20 3e a0 b3 f6 3d 21 b1 0a 3e
       0.10536429 0.15690869 0.120459795 0.13544132
000170 93 7d 06 3d 3b 14 90 3d 50 f1 2b 3e 5d e2 1c 3e
       0.0328346 0.07035109 0.16791272 0.15320726
000180 79 64 87 3d 73 b1 84 bc 4e a5 0e bd 40 cf 1e bd
       0.066109605 -0.016197896 -0.034825616 -0.038771868
000190 b8 8f 3e 3e 2f 3d e2 3b 52 01 f9 ba 69 53 4b 3d
       0.18609512 0.0069042663 -0.0018997586 0.049640093
0001a0 16 4d b1 3d a6 35 0d 3e 46 61 f9 3d 16 cc be 3d
       0.08657281 0.13789997 0.121767566 0.0931627
0001b0 6b 00 8f bd 86 68 54 3d 36 ba a7 bc 54 77 a0 3d
       -0.069825016 0.051857494 -0.020474534 0.0783526
0001c0 73 cd b8 bc ef d2 82 bc f7 a9 f4 ba e3 8d d1 3d
       -0.022558903 -0.015969722 -0.0018666376 0.10232141
0001d0 46 d5 48 bc 0a 56 02 3d a9 6c 53 3d 9d 56 ab 3d
       -0.01225788 0.031820334 0.0516173 0.083661295
0001e0 93 5a 5d 3e 6f 82 9e 3c f2 9f 61 3e 14 ee b2 3d
       0.21616583 0.019349305 0.2203367 0.08736816
0001f0 03 09 ad 3d 18 ab e3 3b f2 b9 0d bb 5a b2 06 bc
       0.084489845 0.006947886 -0.0021625725 -0.008221233
000200 dd 93 5f bd a4 53 10 3d a7 7f 2a be 95 01 90 bd
       -0.054584373 0.035236016 -0.16650258 -0.07031552
000210 fa b4 f2 bd 56 0e a3 3d 46 8b e6 bd df 80 0d 3d
       -0.11850925 0.07961719 -0.11257033 0.03454673
000220 ab 00 d3 3d 14 74 7f 3c 2c 64 88 3d d2 b6 c2 bd
       0.10302862 0.01559164 0.06659731 -0.095075265
000230 ea 62 ad bd 20 6f c3 3c e3 db 32 3b 7f 58 05 3e
       -0.08466132 0.0238567 0.0027291707 0.1302204
000240 71 6a 09 be 59 ae 7c 3d 42 f1 3b be 94 df 20 3d
       -0.1341951 0.06168971 -0.18353751 0.03927572
000250 b1 0d 42 3c 69 64 52 bd a5 65 82 bd 7d 01 35 3d
       0.011844085 -0.05136529 -0.063670434 0.044190872
000260 13 2b fa bc 1e 14 c9 3d 2d 18 20 bd c7 cb b3 3d
       -0.030538118 0.0981829 -0.039085556 0.08779102
000270 64 db 9a 3d 12 87 95 3d 44 6f 5d bd bd 5c 8e bd
       0.07561377 0.07301153 -0.05406119 -0.06951282
000280 dc a2 9a bd 02 11 8b bc 6d 08 f1 3d e5 e9 cc bd
       -0.07550594 -0.016975883 0.11769185 -0.10005549
000290 fb 8c ab bd ea b0 aa bd 63 a4 95 3d 0c f0 02 bd
       -0.08376499 -0.08334525 0.07306745 -0.031967208
0002a0 7b 98 39 bc 60 9e 36 be dd 48 f8 3c f0 17 a0 bd
       -0.011327858 -0.17833853 0.030308181 -0.07817066
0002b0 4b 5d c1 bd 16 54 ce 3d c2 b4 30 bd 49 06 d6 bc
       -0.09441622 0.10074632 -0.043141134 -0.026126044
0002c0 9d 14 0d be e7 6b ef 3d 85 44 be bd 39 78 06 3d
       -0.13777395 0.116905026 -0.09290413 0.032829497
0002d0 83 9d a1 bd 1d 10 31 bd 59 c5 88 bd f2 ae 1e 3e
       -0.07891371 -0.043228257 -0.06678266 0.15496424
0002e0 d5 17 83 bd cb 9b c5 bc 54 c2 4e bb 56 80 02 3e
       -0.0640103 -0.02412214 -0.0031548934 0.12744269
0002f0 f7 8e 64 bc fc f9 63 3d ea 43 86 3d 6b 15 96 bd
       -0.013950101 0.055658326 0.06555922 -0.07328304
000300 49 b1 0c 3e e0 32 f9 3d 22 f3 1f 3e 98 85 1a 3d
       0.13739504 0.12167907 0.15620092 0.03772506
000310 b1 72 7a 3d e0 f8 82 3e fa ed 6f 3e 8c c1 ca 3c
       0.061144534 0.25580502 0.23430625 0.024750493
000320 ac c6 da 3d 5c f7 2e 3e 3d 30 a2 3d 9d 36 4b 3d
       0.10682425 0.17086548 0.07919357 0.04961263
000330 08 a4 9f 3d 8f 71 3d 3e a9 3b a2 bc cd 75 6e 3e
       0.07794958 0.1850035 -0.019803839 0.23287125
000340 20 3d 96 3e 7a 1f 09 3e 11 9b 77 3e 21 1b 6f bc
       0.2934351 0.13390914 0.24180247 -0.01459387
000350 43 58 83 3e 26 e6 0e 3e c9 70 ab 3c d9 41 68 3e
       0.25653276 0.13954982 0.020927804 0.22681369
000360 65 e8 6b 3e 63 50 43 3e f8 38 28 3d a8 4c 63 3e
       0.2303787 0.19073634 0.041069955 0.22197211
000370 1d 06 eb 3c 59 36 d2 3d 50 f0 cd 3c a1 2a 67 bc
       0.028689438 0.10264272 0.025139004 -0.014109285
000380 dc 8b 87 3e 42 54 56 3d 89 e3 c2 3d e8 98 e1 3d
       0.26473892 0.05232645 0.09516055 0.11015493
000390 98 78 da 3d c1 02 04 3e 49 16 53 3e 50 52 23 3e
       0.10667533 0.12891676 0.2061397 0.15949368
0003a0 2b 5a 89 3d a4 43 67 3e 1f 2a 0e 3e bd c5 a3 bc
       0.06706651 0.22584397 0.13883255 -0.01999175
0003b0 ff 42 d8 3d 47 c0 c4 3d 4d c1 40 3e 0d 0a 22 3c
       0.105596535 0.096069865 0.18823738 0.009890092
0003c0 bc 6f 6e 3e 54 71 38 3e 96 83 bf 3d 87 53 c2 3d
       0.23284811 0.18011981 0.0935127 0.09488588
0003d0 37 29 15 3e 3f 5e 98 3d c1 34 3c 3e 6a f0 bc 3d
       0.14566503 0.07439851 0.18379499 0.09225543
0003e0 45 bc 3c 3d 6d 1a 18 3d c5 64 c2 3c c1 05 e8 3d
       0.046077985 0.037134577 0.023729691 0.113292225
0003f0 9f 85 2d 3e 1e 97 8d 3d f0 1e 51 3e 33 7c c4 3d
       0.16945504 0.06913589 0.20421958 0.095940016

rnn_layer.rnn_layer.weight_ih_l0_reverse f4 [256, 50]
000000 01 06 eb bd 7a ae 70 3c 9b 00 0f be 24 da c9 bb
       -0.114757545 0.014690036 -0.13965075 -0.0061600376
000010 4f 47 96 bd b9 a5 a5 3d 79 b7 2a 3e 07 4f b6 3d
       -0.0733782 0.0808825 0.16671552 0.08901792
000020 6e 44 28 3e 4f 65 91 3d c3 de 30 3e d4 73 b3 3b
       0.16432354 0.07099401 0.17272477 0.0054764543
000030 e2 9d 56 3e 06 d9 ad 3e 25 f0 b9 3e 8c c6 0d 3e
       0.20958665 0.33954638 0.36316028 0.13845271
000040 92 c2 8a bd 67 71 17 3d 59 e6 ce 39 43 67 20 be
       -0.067753926 0.036973383 0.00039463004 -0.15664391
000050 82 71 a7 3c ee 18 74 bb 63 14 34 3e 6a 3f 24 3e
       0.020439867 -0.0037246305 0.17585902 0.16039816
000060 69 53 a6 bc ab 9a 8b bd 36 9e e7 bd 60 a5 ec bd
       -0.020303445 -0.0681661 -0.11309473 -0.1155498
000070 b4 8f 0a 3e 81 b7 a0 bd 10 a1 d4 3d c6 f6 35 3e
       0.13531381 -0.078475006 0.10382283 0.17769918
000080 a9 14 b2 bd fb b1 81 3d 54 22 ed 3c 5d 83 43 3d
       -0.08695347 0.06332775 0.028947033 0.0477327
000090 13 2c b5 3d f4 74 fe 3d cd fe 5d 3e 6d 60 74 3d
       0.08846297 0.12424651 0.2167923 0.05966227
0000a0 fe d2 47 3e a5 4d 17 3e f0 3d 67 3e 66 00 92 3e
       0.19514081 0.14775713 0.22582221 0.2851593
0000b0 48 94 9d 3e 24 13 8e 3e 2c c2 69 3e 47 f1 95 3e
       0.30777192 0.27748978 0.22827977 0.29285643
0000c0 89 81 08 3e 27 d7 09 3e 85 15 b7 bd 19 43 50 bc
       0.13330664 0.1346098 -0.089396514 -0.01271131
0000d0 d8 6b 09 3d 5e d5 17 bd d4 fb 33 3b a1 3f 71 bd
       0.033550113 -0.037068717 0.0027463334 -0.058898572
0000e0 18 02 2a 3d 77 ea 6c 3d 58 5f bb 3d e7 aa 39 3e
       0.041505903 0.05784079 0.09149045 0.181316
0000f0 97 57 28 3e 91 9b a7 3c b4 f1 76 bd d1 50 3e 3e
       0.16439663 0.020459922 -0.0602891 0.18585517
000100 42 ae 6f 3e 11 7f b2 3d 48 22 26 3e 16 96 d9 3d
       0.23406318 0.08715642 0.16224015 0.1062433
000110 b1 b6 5c 3d c9 0c 7d 3d 58 9d 36 3e 1e 94 7b 3d
       0.053885166 0.06177977 0.1783346 0.061420552
000120 45 9b 43 3d 37 34 c4 3c 09 77 4f 3e b0 ef 8d 3d
       0.0477555 0.02395068 0.20260252 0.069304824
000130 fe 4c 33 3e ab e7 e5 bc 85 7d 0c 3e c9 ff e3 3d
       0.17509839 -0.02806457 0.13719757 0.111327715
000140 8d 20 13 3e 7f 23 c2 3d 65 f2 28 3e 4f cd 0b 3e
       0.14367886 0.094794266 0.16498716 0.13652538
000150 51 37 25 3e 2c 56 e5 3b e9 e1 8b 3d 45 6b 04 3d
       0.16134383 0.006998798 0.06830198 0.032328863
000160 e7 72 ae 3d 0f c0 02 3d 51 19 72 3d bc ce c0 3d
       0.0851801 0.031921443 0.059106175 0.094144315
000170 4c ef d6 3d c8 fb e7 3d 6a 49 3b 3c 12 a1 a2 3d
       0.10494861 0.1132732 0.0114310775 0.07940878
000180 f5 bf 81 3c 4a 9f 9c 3d 82 87 5e bc 80 89 35 3e
       0.015838603 0.076475695 -0.013582112 0.17728233
000190 2d 4a ac 3c b6 3d 9f bd e5 28 6c 3c e3 17 af bc
       0.021031464 -0.07775442 0.014414047 -0.021373695
0001a0 f9 f4 11 be 3f 61 8c bd ae a6 9d bd 67 04 07 bc
       -0.14253606 -0.06854486 -0.07697807 -0.008240796
0001b0 c6 72 2a be 5c 2d 81 bd ab 66 92 be 51 8f 5d be
       -0.16645345 -0.0630748 -0.28593954 -0.21636702
0001c0 ad 26 62 be 8c c6 4b bd 04 2d f5 3d d0 4c a6 3e
       -0.22085066 -0.049749896 0.11971477 0.32480478
0001d0 36 67 f7 3d 11 f0 c2 3d 71 4d b3 3d 72 4c 7c 3d
       0.12080233 0.09518445 0.08755005 0.06159634
0001e0 dc 3c 61 3e aa 43 87 3e ac 53 98 3e 84 24 9f 3d
       0.21995872 0.2641881 0.29751337 0.07770637
0001f0 ef e1 38 3e dd f3 77 3e 9f 61 15 3e 65 46 07 3e
       0.18054937 0.2421412 0.1458802 0.13210447
000200 1d 4d bb 3c f7 ea 17 3e 72 cd 98 3e 86 01 aa bd
       0.022863919 0.14835726 0.29844242 -0.08301072
000210 c2 bc 85 bc 09 3d da bd 10 aa 2e bd 0f 34 0b 3e
       -0.016325358 -0.10656173 -0.042642653 0.13594078
000220 58 e5 c0 3d e9 96 39 3d 76 0b c9 3c f7 5a 8c 3d
       0.09418744 0.045309935 0.024541598 0.06853288
000230 ea a8 a8 bc dc 7e 1e bd e4 8c 5b 3e 82 41 31 3e
       -0.020588357 -0.0386952 0.21440464 0.17310145
000240 61 cc 6b 3d 24 ef bd 3d 8d 32 90 3d f4 a7 e6 bc
       0.057567958 0.09274128 0.07040892 -0.028156258
000250 9a 67 5a 3e cc b9 04 3e 00 f8 d6 bd 73 a7 7d 3b
       0.21328583 0.12961501 -0.10496521 0.0038704544
000260 6a b8 a4 3c 42 a4 84 3c e2 02 55 3c fe 40 b0 bd
       0.020107467 0.016191605 0.013001176 -0.08606146
000270 92 d1 01 be b0 14 37 be 10 71 1f be a9 8a c3 bd
       -0.12677601 -0.17878985 -0.15570474 -0.09547932
000280 86 e1 63 bd 50 74 97 3d f5 4e b6 3d b7 f8 b9 bd
       -0.055634998 0.07395232 0.089017786 -0.09080642
000290 b9 e2 e1 3d 0c 3d 7a 3d ee 49 fc bd 15 38 03 3d
       0.11029572 0.061093375 -0.123187885 0.032035906
0002a0 93 72 64 ba 6a 87 d1 bc 08 31 0f 3e 50 83 30 3e
       -0.00087145827 -0.025577266 0.13983548 0.17237592
0002b0 13 f1 06 3e 67 f1 2c 3e f7 0f ea 3d 4b aa 68 bd
       0.131779 0.16888963 0.11428826 -0.05680303
0002c0 40 58 33 3d 7d 10 0f 3e a5 70 d9 3c 83 92 d6 3d
       0.043785334 0.13971134 0.02654297 0.10477164
0002d0 1c 1f 26 3d ef e6 c1 3d 66 a9 8c 3d fa 68 4c 3d
       0.040557012 0.09467875 0.06868248 0.0499048
0002e0 c3 94 7d 3d c6 35 95 3c 33 95 08 3d 5e 80 93 3d
       0.06190945 0.018214118 0.033345412 0.072022185
0002f0 c1 e2 d4 3d 63 5f d7 3d 4a 15 5a 3e 29 44 48 3e
       0.103948124 0.105162404 0.21297184 0.19557251
000300 5a 35 6b 3e fd 58 1e 3e 62 d1 f7 3d 20 27 e9 3d
       0.22969571 0.15463634 0.121004835 0.113844156
000310 52 ae 25 3d b2 02 0d 3d 2c 96 2c 3e 8a ca 50 bd
       0.040449448 0.0344264 0.16854161 -0.050974406
000320 e4 c3 a1 bd 7b a9 8c bd 5e 24 cd 3d ca 4d 62 3c
       -0.07898691 -0.06868263 0.10016702 0.013812492
000330 2d 3e 84 bd af 3f ac bc 33 a0 29 bd 53 8f 0f 3e
       -0.064571716 -0.02102646 -0.041412544 0.14019518
000340 d3 d0 2e 3d 39 8c 2d 3e fb 04 02 bc d3 db 35 3d
       0.04267962 0.16948022 -0.007935758 0.044399094
000350 08 c9 18 3d e7 e7 42 3e 02 78 4a 3e b9 e9 8f 3d
       0.037301093 0.19033776 0.19772342 0.07027001
000360 82 3d 70 bd aa f8 a8 3a e1 9e 13 3c 3a b9 b6 3d
       -0.05865241 0.001289149 0.009010048 0.08922048
000370 9b a5 6e 3e e7 0a 85 3d ea 15 73 3d 55 99 7e 3d
       0.23305361 0.0649622 0.05934707 0.062157948
000380 6c 7b b6 3d 2c c5 46 3c 50 74 e1 3d d1 aa 24 3d
       0.089102596 0.01213197 0.11008513 0.040201966
000390 db 51 de 3d f8 73 9d 3c d1 7d db 3c 72 0d 2b 3d
       0.108554564 0.019220337 0.026793392 0.04176087
0003a0 a9 bc 57 3d ba b4 26 3e 5a 2b 6e bc 50 23 9f 3d
       0.052670155 0.16279879 -0.014536703 0.07770407
0003b0 5c 44 83 3d 43 b8 8d 3e 0f 12 3c 3e 6b 41 89 3d
       0.06409523 0.27679643 0.18366264 0.067019306
0003c0 15 61 a0 3d b2 9f ef 3d 42 65 71 3d ae 1f 82 3e
       0.07831017 0.11700381 0.058934458 0.25414795
0003d0 89 9e 75 3e 0d 44 4f 3d 52 a6 71 3d 9b 63 81 3d
       0.23986258 0.050602008 0.058996506 0.06317826
0003e0 29 33 3a 3e ab 22 5b 3e cd 02 bc bd d9 b7 92 bd
       0.18183579 0.21399944 -0.09180222 -0.071639724
0003f0 dd 24 4e 3e bf b6 37 3e 50 36 71 3c 7d fe df 3c
       0.2013125 0.17940806 0.014722422 0.02734303

rnn_layer.rnn_layer.weight_hh_l0_reverse f4 [256, 64]
000000 ba 81 0b be 51 f1 af bd 6d 67 3b be ca 38 d5 39
       -0.13623706 -0.08590949 -0.18301173 0.00040668837
000010 74 df c4 3b 84 3a 6b bd 07 5f d8 3d c9 5b ad bd
       0.006008083 -0.05742885 0.10565 -0.08464772
000020 a8 97 a5 3d 7b c3 e4 3c 5a ad ac bd cf 08 95 bc
       0.08085567 0.027925244 -0.08431502 -0.018192677
000030 7f 40 f2 3d 64 13 f8 bd f2 4a 97 bd 7a ba 67 3e
       0.11828708 -0.121130735 -0.073873416 0.22629729
000040 39 15 03 3c fc 77 7c bc 74 f5 a2 3d 1e 72 26 3d
       0.008000665 -0.015409466 0.07956973 0.040636174
000050 ba 26 1a 3e 1e c2 17 be af c8 03 be 8d ae 0b bc
       0.15053836 -0.14820144 -0.12869523 -0.008525503
000060 2a a5 02 3d 31 b0 be 3d 93 85 7a ba 7b 4f a4 ba
       0.031895794 0.093109496 -0.0009556647 -0.0012535894
000070 3e ac 8d bc 0b c8 e5 bd 04 ff 13 3d 70 d5 1f 3e
       -0.017294046 -0.11219796 0.036131874 0.15608764
000080 1a 51 2c 3d 19 72 18 bd 02 82 4b bd 2e eb f9 bd
       0.042069532 -0.037218187 -0.049684532 -0.1220306
000090 e9 3a 16 3c 59 58 4e 3d a3 72 01 3d 9e f2 0f be
       0.009169319 0.050377224 0.031603467 -0.14057395
0000a0 a9 fa 32 be 26 9f 31 be d8 c4 a2 bc 9d 29 bc 3d
       -0.17478432 -0.17345867 -0.019869253 0.091876246
0000b0 09 d1 84 bb 0e a8 bf bd d8 20 ce 3d af 81 e3 3c
       -0.0040532392 -0.09358226 0.10064858 0.027771799
0000c0 7b cc fa 3d fb 4c 90 bc f9 22 6d bd 2f 35 ac 3d
       0.12246033 -0.017614832 -0.05789468 0.084085815
0000d0 6f 90 dd 3c 69 63 16 be b7 a8 11 be 0e fb 37 3e
       0.02704641 -0.1468636 -0.14224516 0.17966864
0000e0 32 c2 5e 3d 0d bc c3 3d a0 6a 06 be a4 ef 64 be
       0.054384418 0.09557352 -0.13126612 -0.2235704
0000f0 25 e7 0e bd 6a c9 06 3e b2 36 7e ba 66 bd e9 3d
       -0.034888405 0.13162771 -0.00096974813 0.11413078
000100 c7 2e 31 3e b8 d2 14 be b3 b8 04 be 99 e8 05 be
       0.17303 -0.14533508 -0.12961082 -0.1307701
000110 72 f6 2b bd cf f3 55 bd 32 f2 ce 3b 4d 25 24 be
       -0.041983075 -0.052234467 0.006315493 -0.16029854
000120 57 2e e5 bb 7e 1a 4c 3d f0 77 8b bd f5 5d a9 3d
       -0.0069940495 0.049829952 -0.06809986 0.08269874
000130 8e 3b 41 3d 49 75 0e 3d 18 56 8c 3d 0a 93 af 3d
       0.047175936 0.03477982 0.068523586 0.08572967
000140 65 57 95 3c a4 92 23 3d ae 34 a6 3e 63 2e 22 bc
       0.01823015 0.03993477 0.32462066 -0.009898755
000150 c7 83 8c 3e 65 d4 c2 bd 85 2f 24 3e 5d 9e 91 3d
       0.27444288 -0.09513167 0.16033752 0.071102835
000160 db c0 9b 3c 93 c1 88 be d3 18 2c bd e5 d3 c7 bd
       0.01901286 -0.26710185 -0.04201586 -0.097572125
000170 08 72 29 bd 90 b8 0a 3d d2 2e 70 bd b5 74 61 bc
       -0.041368514 0.03386742 -0.0586384 -0.013760735
000180 9b 97 87 bd 5c 23 f2 bc 62 3a 0c 3d 8b 66 49 bd
       -0.06620713 -0.029557876 0.034235366 -0.04917006
000190 31 ac 0d 3d 5d 96 94 3c bf 2a 8c 3d 79 f2 2b 3e
       0.034588043 0.018138105 0.06844091 0.16791715
0001a0 32 5b 38 bd 80 33 0d 3d 6c bf 49 be 71 a8 a8 3d
       -0.045008846 0.034472942 -0.19701928 0.08235253
0001b0 66 d9 25 bd d4 d8 86 3d c0 20 76 3d d8 4f 09 be
       -0.04049053 0.065843254 0.060089827 -0.13409364
0001c0 92 24 23 bd dd 61 f0 3c 26 98 47 3d 29 28 f8 bd
       -0.039829798 0.02934354 0.048729084 -0.12117035
0001d0 09 53 0c be 1b a9 38 bd 99 57 f5 3c 7f 3b b8 3c
       -0.1370355 -0.045083147 0.029948996 0.022489307
0001e0 98 27 70 bc 26 89 0c 3e 0d 3c e3 bd 26 6b c2 3e
       -0.014657877 0.13724193 -0.11095438 0.37972373
0001f0 5d ea a4 bb 4d 4f cb bc 98 62 92 3c 13 bf 17 3c
       -0.005032821 -0.024818087 0.017869279 0.009261864
000200 37 6e b1 bd 04 aa 54 3c a5 08 12 be 85 75 c8 bd
       -0.086636 0.012979988 -0.1426111 -0.0978804
000210 52 c1 55 bd d5 c5 30 be 1c 0e da bd 96 49 59 3c
       -0.052186318 -0.17262967 -0.106472224 0.013262173
000220 68 62 c0 bd 1d e0 66 3c 06 f6 b8 bd 7e ec 59 bd
       -0.093937695 0.014091519 -0.090313 -0.053204052
000230 7c 26 cd bd 8a 62 8f bc 52 d6 53 be 06 1c 3d 3e
       -0.10017106 -0.017503042 -0.20687225 0.18467721
000240 b5 b0 9d 3d 65 51 68 bd 93 90 e6 3c f7 ee 27 bd
       0.0769972 -0.05671825 0.02814511 -0.04099938
000250 50 15 93 3d 3a e4 32 3e aa bc 05 bc 05 bf 64 bc
       0.071817994 0.17469874 -0.008162657 -0.013961558
000260 f6 3b a4 3d 59 c1 b8 bd 24 ea c7 3b 5a 6e a0 3c
       0.08019249 -0.09021253 0.00610091 0.01958387
000270 74 c6 75 3d 45 bb 9a bd 84 3b 89 3d e3 c3 f9 3d
       0.060003713 -0.0755525 0.06700805 0.121955656
000280 b4 5e e0 3c c1 73 58 3d 34 32 80 bc 29 21 c8 3d
       0.027388908 0.052844767 -0.015648939 0.0977195
000290 15 14 74 bd 84 8c 16 3e ed b1 73 bd 94 86 21 bd
       -0.059589464 0.1470204 -0.059495855 -0.039434984
0002a0 77 3c b4 3d a6 52 2c 3d a4 28 83 bd 76 25 8e bd
       0.08800595 0.042071007 -0.06404236 -0.06940739
0002b0 7e 46 01 bd d5 ff 31 3e 12 08 14 3e 99 ac 4e 3d
       -0.031561367 0.17382748 0.14456204 0.05045757
0002c0 76 47 d4 3c 8a fa 0e bd 10 85 35 3b ff 0c 83 3c
       0.025912981 -0.0349069 0.002769772 0.015997408
0002d0 0f 0b 08 be 4f d8 09 3e 17 19 f5 3d f0 39 b4 3c
       -0.13285469 0.13461421 0.11967676 0.022000283
0002e0 56 ee 15 3e a2 79 08 bc 5b b9 fa 3d d6 33 9f 3d
       0.14641699 -0.008329781 0.12242385 0.07773559
0002f0 9d b4 90 bd 0c 70 52 bd eb df dc 3d c0 41 9a 3b
       -0.07065699 -0.051376387 0.107848965 0.004707545
000300 2f a8 fe 3c 1b 63 48 be fb 4b c0 bd 9f c4 8e bc
       0.031086056 -0.19569056 -0.09389492 -0.01742774
000310 03 a3 a1 3d 88 2e 22 be 24 06 b4 3d c3 d0 58 3d
       0.0789242 -0.15838063 0.08790234 0.052933466
000320 0f d2 e6 bc 65 d3 cd bb 8f e9 90 bd 80 ee 3f 3e
       -0.028176336 -0.0062813037 -0.07075798 0.18743324
000330 fa 40 97 3c 20 2c 6c 3d b0 17 dd 3c 6e 74 b8 3c
       0.0184636 0.05765927 0.026988834 0.022516456
000340 33 1a 30 3c a1 6b f8 3b 96 eb ba 3d 36 dc e7 3c
       0.010748434 0.0075811897 0.09126966 0.028303247
000350 49 b8 f6 3d 2e 8d 16 3d ee 38 a7 3c 76 46 15 bd
       0.12046868 0.036755733 0.020412888 -0.03644415
000360 ed e8 a8 bd ea 09 25 bd 7c 8f 0e 3d 6c 6f a1 bd
       -0.08247552 -0.040292658 0.034804806 -0.0788258
000370 9b 5b 3c 3d 95 04 93 bd fc 47 21 3d 95 be b5 3c
       0.0459858 -0.07178608 0.03937529 0.022185603
000380 8e 29 c8 3d a3 4b 13 3d fb d3 d2 bd 3e 70 85 bd
       0.09773551 0.035960805 -0.10294338 -0.06515549
000390 39 49 87 3d 6e 51 b4 3d 0e c7 d4 3c af 9e c1 bd
       0.06605763 0.08804594 0.025973823 -0.094540946
0003a0 e2 23 d2 bd ec 10 78 3c 24 de 4b be 18 c0 0c be
       -0.1026075 0.015140753 -0.19908959 -0.13745153
0003b0 ea e0 c5 bd f4 18 0e 3e 71 b7 25 3d fb a9 c9 bd
       -0.096620396 0.13876706 0.040458146 -0.09846874
0003c0 d1 ae 33 be b3 c3 0f 3d d6 d9 e0 bc 38 4f 69 bd
       -0.17547156 0.035098743 -0.027447622 -0.056960315
0003d0 71 0f a3 bd 2e 50 d5 bd ae dd 96 3d 38 a7 00 3c
       -0.079619296 -0.10415684 0.07366501 0.007852368
0003e0 8f d5 a2 bd 62 95 20 3e 09 81 27 bd df d6 44 3b
       -0.07950889 0.15681985 -0.040894542 0.00300353
0003f0 a4 1e 22 3e be 5d 33 bd a8 3b b9 3c a6 e2 67 bd
       0.15832001 -0.04379057 0.022611454 -0.056612633

rnn_layer.rnn_layer.bias_ih_l0_reverse f4 [256]
000000 21 15 ac bd 49 db 13 3e bc fc 07 3c bf d3 11 3e
       -0.084024675 0.1443912 0.008300003 0.14240931
000010 77 c1 6d 3d d4 91 02 3d 20 b0 11 3e 06 76 c3 bc
       0.05804583 0.031877354 0.14227343 -0.023859989
000020 87 e4 21 3e f7 df 1c 3d 37 f4 c7 bb 01 77 e3 3d
       0.15809833 0.038299527 -0.0061021107 0.111066826
000030 56 45 03 3e c0 72 62 3e c7 0c 38 3d 3f bf d5 bb
       0.12819418 0.22114086 0.04493406 -0.0065230425
000040 75 ad 29 3e 8d 59 8c bd 0f 3d 74 3e 82 42 82 3d
       0.16570075 -0.06853018 0.23851417 0.063603416
000050 86 f4 9a bc 72 a8 49 3e 5d 99 21 3e 7f 8d 5a 3e
       -0.018915426 0.19693163 0.1578116 0.21343039
000060 5a bb 04 3d 28 2b 44 3e 6a c1 99 bc b3 3f 4a 3e
       0.032405235 0.19157088 -0.018768985 0.19750862
000070 d3 d5 39 3e 9a 1d e1 3b c5 c4 d8 3d d6 64 28 3e
       0.18147974 0.006869984 0.10584406 0.16444716
000080 04 79 89 3d 7e 6d 42 3c e7 e8 89 3d 4d ad 66 3d
       0.06712535 0.011866925 0.06733876 0.056317616
000090 7d fc aa 3d 60 a8 ce 3d 5b ca bc 3d 59 39 0d 3e
       0.083489396 0.10090709 0.09218284 0.13791408
0000a0 87 77 ff 3d 78 64 7a 3e 7e f5 07 3e 04 4c 59 3e
       0.1247397 0.24452388 0.13277242 0.21220404
0000b0 e5 17 92 3d 52 9c e7 3c f9 03 3c 3e 55 bc 43 3d
       0.07133464 0.028272782 0.1836089 0.04778703
0000c0 ad b3 ed 3c 09 13 fb 3d 2d b6 0c bd 94 28 47 3e
       0.02901634 0.1225949 -0.034353424 0.19449073
0000d0 65 3e e9 3d 35 36 0f bd 50 b0 02 3e 85 d4 22 3e
       0.11388854 -0.034963805 0.1276257 0.15901382
0000e0 82 5f c4 3c 2c 5d 1a 3e fd 84 31 3e d4 3a 3f bd
       0.023971323 0.15074605 0.17335887 -0.046686962
0000f0 cd fb 36 3c 47 ca 91 3e 96 31 53 3d e9 7e 11 3e
       0.011168432 0.28474638 0.05156096 0.14208569
000100 ba 94 ce 3d 38 00 0b 3e 72 ba 8e bd d1 53 83 3d
       0.10086961 0.13574302 -0.06969155 0.06412471
000110 59 05 19 3e 02 a6 7a bd 1d 5a 28 3c d7 d1 b0 bd
       0.14943446 -0.061193474 0.010275391 -0.08633774
000120 14 f0 ac 3d dd 95 6f 3c 8f d7 4a 3c f4 42 de bd
       0.08444229 0.0146231325 0.012380495 -0.10852614
000130 b1 69 f8 3c 25 3d 35 3e fb a4 67 3c 4e 9c 4a 3e
       0.030323835 0.17699106 0.0141384555 0.19786188
000140 9a 97 d2 3d 75 94 17 3e b2 78 94 3d 9f 04 99 bc
       0.10282822 0.14802726 0.07249583 -0.018678961
000150 39 ac aa bc 9a f3 f9 bc 9b 5d d8 3d 66 6a 22 3c
       -0.020834075 -0.030511666 0.10564729 0.009913063
000160 d4 93 9b 3d 72 b8 4a 3d a9 c6 33 3c 07 d7 ce 3c
       0.07596555 0.049492307 0.010972657 0.025249017
000170 9f 72 c8 bc 82 10 ee 3d 5c 75 10 3e 59 d3 c6 3d
       -0.024468718 0.11624242 0.14107269 0.0970828
000180 92 88 85 3d 3b 6f 53 3d b0 19 c5 bd b0 98 7d 3d
       0.06520189 0.05161975 -0.0962404 0.061913192
000190 0f 39 03 3e 90 4f 77 bd 4e de 90 3d 2f 05 8c bd
       0.12814735 -0.06037861 0.07073651 -0.06836926
0001a0 3a e0 9e 3d 09 e6 be bc d2 e6 ab 3d 6d f2 9c 3c
       0.077576116 -0.023303049 0.08393635 0.019158566
0001b0 ec 58 33 3e 51 9d 08 3c c8 6d 0c 3b 1d 1d a3 3d
       0.1751439 0.008338288 0.002142774 0.07964537
0001c0 35 7b b6 bd b8 34 52 bd 7b 09 5d 3e 49 36 23 3e
       -0.089102186 -0.051319808 0.21585648 0.15938677
0001d0 36 f9 2c 3d 68 07 43 3e 12 1d 06 3e 67 b1 9a 3d
       0.042229854 0.19045794 0.13097027 0.07553368
0001e0 e4 04 4a bd ed 5d 3f bd ba 4e a0 3d 9d e4 60 3d
       -0.04932107 -0.046720434 0.07827516 0.054905523
0001f0 50 6d 1e 3d f4 11 07 3d ed a4 43 3c 8b 07 7b bd
       0.038678467 0.032976106 0.011941177 -0.06128649
000200 e0 60 f7 bb 89 21 83 bd 14 a9 81 bd 24 00 d9 bd
       -0.00754939 -0.06402881 -0.06331077 -0.1059573
000210 70 64 3e 3d 0e 48 af bd ac fd 8e bd 95 36 03 3e
       0.046482503 -0.08558665 -0.06981978 0.1281379
000220 be da 95 38 3c c8 15 be e7 fa ba 3d 47 b7 82 3b
       7.1456176e-05 -0.14627165 0.09129887 0.0039891335
000230 6b 4e 83 bd b8 ad b9 3c a3 80 6f bd 6d af 30 3e
       -0.064114414 0.022665843 -0.058472287 0.1725442
000240 d7 ba 73 bd 55 eb de bd 06 b1 90 37 e3 2a b4 bd
       -0.059504356 -0.1088473 1.724857e-05 -0.087972425
000250 a9 02 19 be 94 da bf bd 16 5e 78 bd fb d1 9e 3b
       -0.14942421 -0.09367862 -0.060636602 0.004846809
000260 f9 93 fb 3b a2 68 ce 3c fa bb b6 bd 41 fd ba bd
       0.007677552 0.025196377 -0.089225724 -0.091303356
000270 d3 36 b5 3d 6e d2 0b bd 47 a0 77 3d be 56 be 3c
       0.088483475 -0.03413623 0.060455587 0.023234721
000280 b4 db d1 bb 7a 9a ef 3d d8 4e 45 bd af 9a 46 3c
       -0.0064043645 0.11699386 -0.048170894 0.01212184
000290 36 5d 5d bd eb 8f 5a bb 21 85 f1 3d b4 40 f8 3c
       -0.05404397 -0.0033349942 0.117929704 0.03030429
0002a0 4e ca f8 3d b4 d4 f9 bc d8 51 72 3d 65 71 1f bc
       0.121479616 -0.030496933 0.059160084 -0.009731625
0002b0 ff 4a 91 3d 4c ab 91 3d 1e e1 0e 3e 01 57 bc 3d
       0.070943825 0.071127504 0.13953063 0.09196282
0002c0 9d a3 7a bd fc ab ac bd 0f 8a df bc 54 fe 6a bd
       -0.06119119 -0.08431241 -0.027287511 -0.057371452
0002d0 12 a6 b1 3d 3e d2 10 3e 10 89 92 3d ee 30 e3 3c
       0.086742535 0.14142701 0.07155049 0.027733292
0002e0 d9 ea 5c 3b cf 2d f9 bb 33 53 bf 3c 3a 7a a5 3a
       0.0033709316 -0.0076043378 0.023355102 0.0012624927
0002f0 bd 09 3e be 6d fc 89 bc 4a a4 c9 3c 4f 52 b4 bc
       -0.18558402 -0.016843999 0.024614472 -0.022011904
000300 3e d5 89 3d 99 48 55 3e d6 41 1e 3e 62 27 f0 3b
       0.06730126 0.20828475 0.15454802 0.0073289135
000310 f9 47 22 3e b4 d4 0e 3d fb 9c 84 ba be a6 c0 3c
       0.15847768 0.03487082 -0.0010117585 0.023517009
000320 b0 30 b0 bc 8e e9 20 3e e0 5f 2c 3d 8b d9 5e bd
       -0.021507591 0.15714094 0.04208362 -0.054406684
000330 e9 47 05 3d cf 73 2f 3c 43 6a 6d 3e fb ae 80 3d
       0.032539282 0.010708763 0.23185067 0.06283375
000340 f1 8e 05 3e 12 23 07 3e 27 b0 fd 3d 13 ce 35 3d
       0.13042809 0.13196972 0.12387114 0.04438598
000350 97 ab e7 3c 43 27 14 3a 98 6e 2f 3d 46 e3 da 3d
       0.028280063 0.00056516024 0.04283008 0.1068788
000360 81 c7 7f bc 9d db 31 ba e6 ee 8f 3a 91 2c 21 3e
       -0.01561153 -0.0006784739 0.0010981231 0.15739657
000370 b5 c2 3a 3e 2e a5 38 3e de 02 73 3e 41 b7 0d 3d
       0.18238337 0.18031761 0.23731562 0.034598593
000380 55 2c 46 bd 11 96 e6 3d 74 b3 cd bc 3b 62 d3 bb
       -0.048382122 0.11259092 -0.025109984 -0.006450919
000390 bc 6e cd 3d 44 8b c2 3a e2 87 26 3d 15 02 20 3d
       0.100308865 0.001484253 0.04065693 0.039064486
0003a0 7f f2 08 3e 92 5e ec 3d 13 15 31 3d 1a a2 2f 3e
       0.13373755 0.11541475 0.04323299 0.1715168
0003b0 4c d7 9c bc bd 8d 49 3c 12 23 35 bb 76 d8 fe 3d
       -0.01914563 0.012301859 -0.0027639312 0.124436304
0003c0 f3 c5 7e bc 72 cf 01 3e 38 48 e7 3d d1 11 5d 3e
       -0.015550124 0.1267679 0.112930715 0.21588828
0003d0 24 40 9d 3d 9b c4 6b 3d 55 15 9c 3d 98 c4 8b 3d
       0.076782495 0.057560544 0.07621256 0.06824607
0003e0 ad 79 8d bc c6 bd ab 3d a8 70 23 3e 12 03 4f 3d
       -0.017269934 0.08385806 0.15960944 0.050540037
0003f0 6c de cf 3d 05 94 21 3e 3c a7 13 bb e6 23 b9 3d
       0.101498455 0.15779121 -0.00225301 0.0904005
