dl_ouptut/best_model_epoc0.pth (torch, 674223 bytes, 46 tensors)

rnn_layer.rnn_layer.weight_ih_l0 f4 [256, 50]
00000000: 36a1 94bd cd90 03bd 7934 c63b 93b8 353d
00000010: dc68 f23d 387a 193d c207 183d 8f0f 22bc
00000020: 3b68 3b3e 16a7 083e 3242 24bd 0259 2cbd
00000030: 96b0 913b 5a8a 013d 13b7 313d 87ff 093e
00000040: d0e8 f03c 5ab1 fd3d c393 873e f0df 983e
00000050: bb68 703e 2432 623d 290d 663e 4234 253e
00000060: 211d 963d e5ed 13bc ceaa ae3c 4e5d d23c
00000070: 95b4 b03d 0f7a b63d 10d3 05bd b5b0 c53d
00000080: d2de 1cbd 045d 1e3d c6db e2bc a132 de3d
00000090: 7338 2b3d 5931 eb3d 8c20 bf3d 615b 89bc
000000a0: 2c5a d33d bfa1 c03d d0c0 983d e01d 22bd
000000b0: e89f ee3d 6da3 093d 6553 193e 2297 ccbc
000000c0: a40d 6b3a f4e9 2c3d 4444 b5bd 2e1d 96bd
000000d0: 1456 813d 8a32 c8bd ee1d 0bbd 3bb6 f1bd
000000e0: 2f43 c3bd ed3d 82bd b174 e43c 7dff d63d
000000f0: 863d 99bd 28e5 0bbd 0c67 373d d6de 063e
00000100: 5eb2 ecbc baa4 063d 0ef7 cdbd 6c39 113c
00000110: abb8 9b3d 422a 06be ff3b 83bd cac5 203e
00000120: 0439 88bd 12db 58bd f053 32bc dc5e eebd
00000130: a407 56bd 6e11 01bd ffed 233d 7f6e 903d
00000140: 2fa5 8abd ecb4 8f3d e137 f83d 2e81 2c3e
00000150: 9d44 89bd 38d5 4d3d 63dd 22bd fb0a 303d
00000160: b1c3 9f3b be9e 063e c5fb 603b d0c7 203e
00000170: 21d8 47bc f8c3 1b3d f800 ff3d 802c 143d
00000180: 370a 0c3d d068 803d a9bd f33d 6393 fc3d
00000190: 838e f3bd c5ce 263d 0a7d 3abe ea02 57be
000001a0: 69f7 bebd 66f8 adbd ed56 0a3c f36f 5fbb
000001b0: ad5f f8bd 4159 44be e43f 0bbe ac05 63bc
000001c0: 8b1a 1b3d ee4f d43d de6e d43d 6314 f73d
000001d0: 2b55 863c bf4c 363e af4b e4bc 3376 71bd
000001e0: 353c 52bc d828 4ebd d665 813d ecac cc3a
000001f0: ff8a d43d 8dd1 88bd 6330 5f3c 6e66 b33d
00000200: d183 02bd 6273 1f3d 79df c63d e4c4 4fbc
00000210: 14cf 0cbe 29cb b8bd f465 4ebc ad71 a3bd
00000220: 73c7 5b3d a375 1dbd 9565 15be b3dd 04be
00000230: 613f d93c 04d4 edbd 4162 88bd 2735 0abe
00000240: 0f6e 0abd 511d 26bd 985b 0dbe f2b1 943d
00000250: b357 73bc d336 913c d028 9ebd 1207 903d
00000260: 5fc9 c8bd f2d6 3bbd 719b 463d 7381 95bd
00000270: 18ff 623d 9982 cebd c15a 16bd 0800 1e3d
00000280: ff6b 823c 187a 513d 02d7 0cbe 7170 3cbd
00000290: 3d7f 9ebd ee12 b33c abd0 383d 4916 62bd
000002a0: 1d08 563d b2b0 823d 541f aab9 e37f 3a3e
000002b0: e63a 0b3c 9a72 07bd 413f cbbd e93a 293d
000002c0: db34 853d 06e3 2b3d 0aad a43d e304 89bc
000002d0: 4eaf 243e ca70 14bd 6815 603d 3623 babd
000002e0: 862b 933c fa23 3cbd 690f ebbd d808 e4bd
000002f0: b9c8 d23d 8ba3 993c 7bf2 febd 6501 a8bd
00000300: 1292 85bd 1d37 85bd 384d 9dbd 1baa 463c
00000310: 4a88 e0bd edbe 053d 1ad4 1abe c548 19bd
00000320: bad1 dfbd 3541 e7bd ace2 00be 72ba 3dbd
00000330: c9da 49bc ef47 2e3d 67ea 39bc 0356 513c
00000340: 17f1 44bd 0fc7 67bc f5c7 a6bd 7f2e 9a3d
00000350: d75a 75bd de81 1dbe 5c7d 74bd f233 d7bd
00000360: fa14 e73d 63db ddbd a8cb b73d ac23 8bbc
00000370: 6e78 6a3d cbf5 3e3e 6f39 903d 7a62 813d
00000380: 41fd da3d 4082 e03d affd b03d 2184 9d3c
00000390: 0f7d 2dbd 52f0 3f3d eb81 593c 2a73 0b3e
000003a0: ebfb 963d 1d8a 343c f042 973c ec07 f23c
000003b0: 2c7c 423d d86c 3a3d 21bf 383e 026d 763d
000003c0: 4c24 183e 16ee 213e d688 2d3d 0039 3f3e
000003d0: 9eb9 ce3d 74df d03d 8b50 d53c 07c1 b63c
000003e0: ac05 123e 50cb c83d bfdc c73d 1784 5fbd
000003f0: bced 21be 4c46 7b3c 9d21 dbbd def3 34be
-0.07257311 -0.032120515 0.0060487357 0.044365477 0.118364066 0.037470073 0.037116773 -0.009891405
0.1830148 0.13344988 -0.04010219 -0.042077072 0.0044460995 0.031626083 0.043387484 0.13476382
0.029407889 0.12387343 0.2647992 0.2985835 0.23477452 0.0552236 0.22465958 0.16133216
0.07329775 -0.009028886 0.02132168 0.025679257 0.08628193 0.089099996 -0.032671988 0.09652845
-0.038298436 0.038662925 -0.027692687 0.108495004 0.04180188 0.11484022 0.0933238 -0.016767206
0.10319933 0.094058506 0.07458651 -0.039579272 0.116515934 0.03360312 0.14973219 -0.02497441
0.0008966571 0.042215303 -0.08850911 -0.07329784 0.06315246 -0.097752646 -0.03396409 -0.11802336
-0.09534299 -0.06359468 0.027887674 0.10497949 -0.07482438 -0.034154087 0.044776008 0.13170943
-0.028893646 0.03287194 -0.100568876 0.008863788 0.07603582 -0.13102058 -0.06407928 0.1570045
-0.066515 -0.052943297 -0.01088427 -0.11639187 -0.05225338 -0.031510763 0.040021893 0.070523255
-0.067697875 0.0701693 0.12120033 0.16846153 -0.0670254 0.05025217 -0.039761912 0.04297922
0.004875623 0.13146493 0.0034329754 0.15701222 -0.012197525 0.038028687 0.12451357 0.03617525
0.03418943 0.062699914 0.11901409 0.12332799 -0.11892416 0.040724535 -0.18211761 -0.20997205
-0.093245335 -0.08494644 0.008443576 -0.0034093827 -0.12127624 -0.19174673 -0.13598591 -0.013856333
0.03786711 0.10366808 0.10372709 0.12064435 0.016398033 0.17802714 -0.02786812 -0.058950614
-0.012831737 -0.05033192 0.06318252 0.00156155 0.10378074 -0.06680594 0.013622376 0.08759771
-0.03186399 0.038928397 0.09710593 -0.01268122 -0.13750869 -0.09023125 -0.01259755 -0.07980666
0.053657006 -0.038442265 -0.14589532 -0.12975197 0.02651948 -0.116127044 -0.066593654 -0.13496839
-0.033796366 -0.040555302 -0.13804471 0.07260503 -0.014852452 0.017726338 -0.07722628 0.070325986
-0.098040335 -0.045859285 0.048488084 -0.07300081 0.055419058 -0.10083503 -0.036707643 0.03857425
0.015920637 0.05114183 -0.13753894 -0.04600567 -0.077391125 0.021859612 0.045120876 -0.055197034
0.05225383 0.06381358 -0.00032448268 0.18212847 0.008497929 -0.033068277 -0.09924174 0.041315947
0.06504222 0.041964553 0.08040817 -0.016725963 0.16082498 -0.036240377 0.054707915 -0.09088747
0.01796509 -0.045932747 -0.11477549 -0.11134499 0.10292191 0.018754741 -0.12448593 -0.08203391
-0.06522001 -0.06504653 -0.07680744 0.012125517 -0.10963495 0.032652784 -0.15119973 -0.037422914
-0.10928674 -0.11291734 -0.12586468 -0.046320386 -0.012320229 0.04254907 -0.01134739 0.012776854
-0.048081484 -0.01414658 -0.081436075 0.075284 -0.059901085 -0.15381572 -0.059689865 -0.10507955
0.11283298 -0.1083286 0.08974391 -0.016984783 0.057243757 0.1864845 0.070422046 0.06317611
0.106928356 0.10962343 0.08642136 0.019228043 -0.042355593 0.046860047 0.013275604 0.1361815
0.07372268 0.011019257 0.018464535 0.029544793 0.0474817 0.045513958 0.1804166 0.06016255
0.14857596 0.15813479 0.042366825 0.18674088 0.100939974 0.1019887 0.026039382 0.02230884
0.14259976 0.09804404 0.09758901 -0.05456933 -0.15813345 0.015336584 -0.106997706 -0.17671153

rnn_layer.rnn_layer.weight_hh_l0 f4 [256, 64]
00000000: d482 afbd 1e2e 083e 9fa4 4ebd 131e 4abe
00000010: 5339 203d 8534 fdbb 1ca2 b7bc c103 c7bd
00000020: 5488 963d 421a f43c 3fbf cf3b e755 6abc
00000030: 7daf 0fbe 749f ebbd 1efc 6abd 2f42 af3b
00000040: ddd8 13bd 239a 90bd 8db1 26bd 3b94 573c
00000050: 91ba 66bd 82fd ccbd 3907 7e3d 54f6 efbd
00000060: 9c18 bdbd 52ab 0e3d 465d 44bc ab76 f9bc
00000070: d5fa 0ebc fc9b 56bc e53a 89bc 6420 d9bd
00000080: 617a 3f3c 360d 07be 3ec2 26be 8447 4cbd
00000090: 4402 c6bd e954 f6bd 60ed c83b 6a7e a1bd
000000a0: 3cb9 dfbc 3ead ad3d 0709 d0bd bdef bfbd
000000b0: 02c2 eebc 16ea 15bb 22a4 f1bc d963 85bc
000000c0: f1f2 15bd 4ec6 3b3d 28cc 26be 8158 63bd
000000d0: c1c2 28be 935b 25bd 42ef 1f3d 78fd 1cbe
000000e0: f399 c63d 2e57 0bbe 8fdf 223d 9aee a63b
000000f0: a728 2abd 97c0 aabd be0d 20bd c570 50bd
00000100: 782b 033e 4a4c 603d 4bfb c43c c43e 34bd
00000110: fbfd bbbd f3f1 263d a8dd d1bc d957 cdbd
00000120: 333d 9dbd 738e 5e3d d8f1 edbd 08fe babb
00000130: 13da cf3b 8cdf 9ebd 93d1 debc 2430 173e
00000140: 8614 f23d b84c dabc c36c 1d3c 2235 6bbd
00000150: a8b5 57bd 8eac 4e3d 8d41 debc ac02 03be
00000160: 1213 4fbd fa5e cabd 1260 b5bd e552 2abd
00000170: 8fde 0abd 65d9 88bd 6c2d 853c 05cc 923d
00000180: 3c93 aabc ffe1 9a3d b5a2 993d ee3c d6bd
00000190: 25da ae3c eb80 54bc 517b b03d f754 a33d
000001a0: 3754 7d3c 2862 87bd b27e 0fbd 8415 cd3c
000001b0: 05ee bb3c 4acb 873d e92e 3d3d 388a adbd
000001c0: b203 54bd 1de0 543d 9ff6 4bbc 2cf7 a03d
000001d0: 981e afbd 0300 863d 0c31 043d f65a c1bd
000001e0: cb7c bdbc b62a 643d 6dbd 683c 0bf7 96bc
000001f0: ca57 143d 735a 433c 114d 5ebd bd0e 303d
00000200: 7128 0c3d 308b 7b3d 25db 20be d8ac d1bd
00000210: ede4 9cbd 190f b83d a2ef 323d ff7d ab3d
00000220: 61a0 34bd 81c8 17bd 6862 05be 6e69 f7bd
00000230: c150 1b3d 89e6 b9ba 93be e7bc 72f2 0fbe
00000240: c8b0 263d 0f67 0f3d 528d 0a3d bd74 febd
00000250: fb32 40bd 285a e8bd b1a1 2b3e 9fab 8bbd
00000260: 2d9c 363d e8b8 f0ba fae1 173d 1ca0 c1bb
00000270: 85b3 003e 2e9c 2e3d e018 3f3d 4713 a6bd
00000280: c20b 89bd 0f81 673d 6b29 bd3c f7ec 76bd
00000290: 2393 18bd 8d0c 233d 6ccc 153d 2406 63bd
000002a0: 99d9 643d 731e 94bc c6ca c03b add1 8cbd
000002b0: a128 443d f427 1cbe 00cf e1bd 2486 11be
000002c0: d4d7 64bd 36b3 c13b 12b9 b73d 0061 06bc
000002d0: 3c7f 1bbe 7d87 b83d 84a4 28bc b290 5e3d
000002e0: 6cfe d83d 6b78 11be a44e bbbd 44c0 edbd
000002f0: 0295 eb3d 1efa 8f3d 4435 82bc 09ff 99bc
00000300: af76 d13b 157c a53d 973b fbbd aa2f 0abe
00000310: b5dd a8bc c313 b93d c51b 8539 7fef 843c
00000320: aa1a df3d f66b c5b9 39cb 5b3d a317 253b
00000330: 14d3 aa3d 4558 803d 5368 1f3d 2a30 8a3c
00000340: 17fd 893c 2a5b 473d c493 0dbb c4cb 9a3d
00000350: 3c00 76bc b0d1 3abe ec96 583e 3f15 26bd
00000360: 8db5 a33d 9510 2fbe 7d3a 893c ebab a6bb
00000370: 84c4 4c3d e3e5 a63c d69c 2e3d 4241 383d
00000380: 1575 6b3d 3b37 d73d d242 e9bd 02fa 25be
00000390: cad5 c43d 6bea 213d 3709 f83b d891 b73b
000003a0: 5598 5abc df19 4cbd 4677 993d 0801 213d
000003b0: 2770 06bd 1162 5dbd b333 78bd b540 c83d
000003c0: 2bae dfbd 19e5 ed3d 7a91 95bd 4bcb 1bbe
000003d0: b4db d63c 8576 76bd e9b6 b33d 858f b2bd
000003e0: 758c bb3d cfa0 06be cce8 bc3c d12c e53c
000003f0: 0805 64bd 2a75 153d d84d e2bd 99fe 69bc
-0.08569875 0.13298842 -0.050449964 -0.19738035 0.03911717 -0.007727208 -0.022416167 -0.09717513
0.07350221 0.029797677 0.006339937 -0.014302707 -0.14031787 -0.11505023 -0.057369344 0.005348466
-0.03609549 -0.07060649 -0.04069667 0.0131578995 -0.056330267 -0.1000929 0.062018607 -0.11716905
-0.092332095 0.034831353 -0.011985129 -0.030452093 -0.008726795 -0.013098713 -0.016751716 -0.10601881
0.011686892 -0.13188633 -0.16285035 -0.04987289 -0.09668401 -0.12027914 0.006131813 -0.0788544
-0.027310006 0.08480309 -0.10157972 -0.09371898 -0.029145245 -0.0022875122 -0.02949721 -0.016282963
-0.03660864 0.045843415 -0.16288817 -0.055504326 -0.16480543 -0.040370535 0.039046533 -0.15331066
0.09697332 -0.13607475 0.039763983 0.0050943615 -0.041542675 -0.08337515 -0.039075606 -0.050888795
0.12809551 0.054760255 0.024045607 -0.04400517 -0.09179302 0.040758085 -0.02561839 -0.10026521
-0.076776884 0.05433507 -0.11618394 -0.0057065524 0.006343135 -0.07757482 -0.027199542 0.14764458
0.11820321 -0.02664791 0.00960845 -0.05742372 -0.052663475 0.05045753 -0.027130866 -0.12793988
-0.050555296 -0.098813966 -0.088562146 -0.04158296 -0.033903655 -0.0668209 0.01625701 0.0716782
-0.02082216 0.075626366 0.07501737 -0.1046084 0.021344254 -0.01297019 0.08617271 0.0797519
0.015461973 -0.06610519 -0.035032935 0.025034674 0.022940645 0.06630571 0.046187315 -0.08473629
-0.051761337 0.051971544 -0.012448936 0.07859644 -0.08550757 0.06542971 0.032273337 -0.094411775
-0.023130795 0.055704795 0.014205319 -0.018428346 0.036216535 0.01192342 -0.054272715 0.042982806
0.034218255 0.061412036 -0.15708597 -0.102380455 -0.07660852 0.08987255 0.043685563 0.08373641
-0.04409826 -0.03705645 -0.1302582 -0.12080656 0.03791881 -0.0014183085 -0.028289115 -0.1405733
0.040695935 0.035010394 0.03382618 -0.1242461 -0.04692362 -0.11345321 0.16760899 -0.068198435
0.044582535 -0.0018365653 0.037080742 -0.005908979 0.12568481 0.042629413 0.046654582 -0.081091456
-0.06691696 0.056519564 0.023091039 -0.06028458 -0.037249696 0.03980689 0.036571905 -0.055425778
0.05587158 -0.018080926 0.0058835475 -0.0687593 0.04789031 -0.15249616 -0.1102581 -0.14211327
-0.055869892 0.005911256 0.08970846 -0.008201838 -0.15185255 0.09010217 -0.01029313 0.05433721
0.10595402 -0.14206092 -0.09145859 -0.116089374 0.1150303 0.07030128 -0.01589454 -0.018798368
0.006392322 0.080803074 -0.12267225 -0.13494745 -0.02061353 0.090369724 0.00025388427 0.016227482
0.10893758 -0.00037655205 0.053660605 0.002519109 0.08341041 0.06266836 0.03891785 0.01686867
0.016844315 0.048670925 -0.0021602968 0.075583965 -0.015014704 -0.18244052 0.21151322 -0.040547606
0.079936124 -0.1709617 0.016751522 -0.005086412 0.0499921 0.02037329 0.04263004 0.04498411
0.057484705 0.10508581 -0.11389698 -0.16208652 0.096110895 0.0395302 0.007569458 0.0056021027
-0.013341983 -0.04982936 0.07493453 0.039307624 -0.0328218 -0.0540486 -0.06059618 0.09777967
-0.10921892 0.116159625 -0.07303138 -0.15214269 0.02622781 -0.060171623 0.08775122 -0.087187804
0.091576494 -0.13147281 0.023060225 0.027975472 -0.05566886 0.03648869 -0.11050004 -0.014281892

rnn_layer.rnn_layer.bias_ih_l0 f4 [256]
00000000: c451 693d faab 7c3d 87c5 b23d c9f2 c63d
00000010: 6742 d63c 50b3 a63d 79a4 cd3d 79a7 593d
00000020: ad1e 373e 4889 08bd d661 873d 2d0b a4bc
00000030: 2807 7d3b 2cf4 bcbb 85f8 91bd 83b7 65ba
00000040: c097 e73d 5e58 2fbd dc9e 2f3e 8507 1b3e
00000050: 202a 8f3c cd5b 223b 79d5 423e 5eea 3b3e
00000060: 75bc 313d e671 543d 6b07 553c 0be8 813c
00000070: b103 a43c 2b95 053e 6d76 0a3d 78aa 94bd
00000080: d0b0 413d db30 9abc 79f1 0fbd 95c9 363d
00000090: d413 023d bb05 513d 9d3b 913c 07bb 193e
000000a0: 94ac f3bc 056c f63d 9d9e 3a3d 1786 293e
000000b0: ddd0 453d b989 66bd b2b9 ce3d ebe7 2d3e
000000c0: fabf 503e 5f92 533e c15f 3a3e 57a5 e1bc
000000d0: ad4a c7bb 3981 503c 9e04 60bd a861 e43d
000000e0: 5408 99bc 87ba ab3d 31c9 0abc 9536 1f3e
000000f0: 99dd 1d3e b227 743c 975a 4a3c dadd c03d
00000100: 0d9e bebd bb15 253e dd95 ee3c baa7 ed3d
00000110: 707c 2a3e 8786 ee3c 0bf5 9b3d 9f36 b3bc
00000120: 4b8c 9a3c 288c a0bc 74d9 dabd 30bc 86bd
00000130: f1a8 963c f40e 173e ea60 093e d754 063e
00000140: da5b 593d df53 303e beb7 de3c c076 d23d
00000150: 86c5 25bd 93d3 19bd 7859 2fbd 3aa7 683e
00000160: 3e34 08bd 65a5 283e cff6 853d 3711 943d
00000170: 9be3 563d 7c26 813d 4b8a 0dbd a3ea 683d
00000180: 78a3 e4bc 6a7d b2bd ef25 05bc 4c3a 093e
00000190: 3881 823c b974 8fbc e79b 643d a66c 97bc
000001a0: 6116 453e 8fe9 06bd 34c4 f93d 1647 543c
000001b0: 20d3 ab3d 4f4a a03c 1306 083c a199 8fbd
000001c0: c113 a53c d372 17bd d6f2 f43d 214d 253e
000001d0: 4d77 2cbc 44a6 e1bb da1e 8b3c 3aae 40bd
000001e0: 3964 ea3c 49df 0f3d 490a f33b 889f d23d
000001f0: 1146 be3d cfb2 c03c c36a 793d 0b88 ff3d
00000200: 8b8b 993d 7735 873d 52a3 933d e862 0ebe
00000210: 5e29 2e3d 7419 12be 3ed4 1e3d 272c adbc
00000220: 7943 373d 1121 ce3c 8b40 0bbe 5a05 34bd
00000230: f33e 2dbd 5bcd eebd 845e 99bd 1eb9 623d
00000240: e8f1 60bd 7e02 123d a442 ca3c ba8d 0bbe
00000250: 280e b0bd 132b 91bd 82bc 0a3e d414 a73b
00000260: 2d3a 7abd cc80 303d 08a4 a1bc 9ff9 94bd
00000270: 633d 20bd e9ff c83d 366d 953d 206e b4bd
00000280: 58ea ba3d 59ea 8fbc c3f6 be3d ef13 e33d
00000290: 1fe6 19bd 5011 f13b 29a6 9a3d d20d 33bd
000002a0: 0113 a43d 16bf 953d 1982 d23c e7dc e3bd
000002b0: 5512 bcbd ee3d f1bc 0cb5 8c3d 2b19 973a
000002c0: f099 0f3d a0a3 3a3d f796 bcbd 29e9 14be
000002d0: 1617 2abc cc7b 633c 52e9 e63c 2fef 973d
000002e0: 2681 80bb cb4d adbd 12f7 f83d 8958 7fbb
000002f0: c103 d4bd 20a4 98bd 6de0 9b3d 165d f8bc
00000300: d66f 463e fa15 313e 4298 293e 45ec db3d
00000310: 0116 a63d f062 463e 7852 e4bc ab68 eb3d
00000320: 93ef 913d efaf ec3d 4a9c 0a3e d40b 053e
00000330: 07a3 153d b3a4 7cbc 4124 86bc 1247 5a3c
00000340: 26b1 103e 2be1 b83d 8f06 333e 6fd7 463d
00000350: f430 9d3d 2f0d 47bc 50a5 cb3c b16b 463e
00000360: d922 053d 185e 2a3a 9345 093e c966 9c3d
00000370: 3f95 0dbc 6575 e73d 6ea6 313e 74a4 c83d
00000380: 3d6d ba3d 47ec 593e 4bc7 093e de04 2f3e
00000390: d859 5d3d 5ef4 ab3d 98c6 0e3e b2aa 273e
000003a0: 338b 523d 3f09 be3a afd2 ee3d da55 d23d
000003b0: 1aff eb3d 8e32 273e 5750 c53d ee60 5bbc
000003c0: a0d6 db3c 2cd8 fd3c 6fa1 8d3d 8684 fa3c
000003d0: b5d4 2d3d 1139 333d d176 863c a9ec 3f3e
000003e0: 5916 383e f80f f43d 55a4 2f3c 9129 d73d
000003f0: 1e38 453e c3df 1f3e 4397 5a3d add5 293e
0.056962743 0.061687447 0.087290816 0.09714276 0.02615471 0.0813967 0.10041136 0.05313823
0.17882796 -0.033334047 0.066104576 -0.02002486 0.0038609002 -0.0057664122 -0.071274795 -0.0008763002
0.11308241 -0.042808883 0.17150444 0.15139587 0.017476141 0.0024773956 0.19026746 0.18351123
0.043392617 0.051866435 0.013002257 0.015857717 0.020021291 0.13045184 0.033804346 -0.07259077
0.047287762 -0.018822124 -0.035142396 0.044625837 0.03175719 0.051030856 0.017728621 0.15012752
-0.029745378 0.12032322 0.04556142 0.16555057 0.04829489 -0.056283686 0.10094012 0.16983001
0.20385733 0.20661305 0.1820059 -0.02754466 -0.0060819 0.012726122 -0.054691903 0.11151439
-0.018680729 0.08385187 -0.008470819 0.15548165 0.15416564 0.014902042 0.0123507 0.09417315
-0.093074895 0.16121571 0.029124195 0.11604257 0.16649032 0.029116882 0.076150976 -0.021876631
0.018865725 -0.019598082 -0.10686007 -0.06578863 0.018391104 0.14751798 0.13415876 0.13118301
0.053066112 0.17219494 0.027187224 0.10276556 -0.040471576 -0.03755529 -0.042809933 0.22720042
-0.033252947 0.16469343 0.06541216 0.07229846 0.052463155 0.063061684 -0.034555715 0.056864392
-0.02790998 -0.08715327 -0.00812672 0.13401145 0.015930757 -0.017511712 0.055812743 -0.018484425
0.19246818 -0.032937583 0.12195626 0.012956401 0.08389878 0.019566683 0.008302229 -0.07011724
0.020151021 -0.03697474 0.1196038 0.16142704 -0.01052649 -0.0068862755 0.016982485 -0.047041155
0.028612243 0.03512505 0.0074169976 0.102843344 0.09290708 0.023522763 0.06089283 0.1247712
0.07497319 0.066019945 0.07208885 -0.13904917 0.04251992 -0.14267522 0.03877663 -0.021139218
0.04474208 0.025162252 -0.1359884 -0.043950416 -0.04229636 -0.11660262 -0.074887305 0.055352323
-0.0549182 0.035646908 0.02468998 -0.13628283 -0.0859645 -0.07088294 0.13548473 0.0050989185
-0.061090637 0.04309158 -0.019731537 -0.07274174 -0.039121043 0.09814436 0.07296221 -0.08810067
0.09126729 -0.0175678 0.0932441 0.110877864 -0.037572976 0.0073568 0.07551224 -0.043714352
0.08011437 0.073118374 0.025696801 -0.11126118 -0.09183184 -0.029448476 0.068704695 0.0011527886
0.035058916 0.0455662 -0.09208482 -0.14542069 -0.010381481 0.013884496 0.028187428 0.074186675
-0.0039216457 -0.084621035 0.121565 -0.0038962683 -0.103522785 -0.07453179 0.07611165 -0.030317824
0.193786 0.1729354 0.16561988 0.10738424 0.08109666 0.19373679 -0.027871355 0.11494573
0.07125773 0.11556994 0.13536182 0.12992793 0.036532428 -0.015420127 -0.01637471 0.013322609
0.14130077 0.090273224 0.1748297 0.048545297 0.07675353 -0.012149139 0.0248591 0.19377019
0.032503936 0.00064990064 0.13405447 0.07636792 -0.00864154 0.11301688 0.17348644 0.09796992
0.09102867 0.21281539 0.1345493 0.170917 0.05404076 0.08396219 0.13942945 0.16373709
0.051402282 0.0014498605 0.116612785 0.10270281 0.11523266 0.16327879 0.09634464 -0.013389809
0.02683574 0.030986868 0.06915557 0.03058077 0.04243918 0.043755595 0.016414078 0.18742622
0.17977275 0.11917108 0.010720332 0.10505975 0.19259688 0.15612702 0.05336691 0.16585417

rnn_layer.rnn_layer.bias_hh_l0 f4 [256]
00000000: 0ea9 ca3d 66bd 473d 25d2 1f3d 7a6b 1f3e
00000010: 06bc 5d3c 72b7 93bc 7416 993d df26 433e
00000020: f399 cabc a5f9 1d3e b649 e7bb e5b8 45bd
00000030: e0a9 963c 5786 053e b245 1a3e b5b9 433e
00000040: 6f95 023d 26f4 8e3a 1022 4e3e 9f38 98bc
00000050: 0247 5c3e 8cb9 363e 76b0 143e 2111 0fbd
00000060: de52 4a3e 491c b33c 2605 cd3d fd67 903d
00000070: 4b2c 203e cecf d63c 5ab6 1ebd 6961 923d
00000080: 9e98 293e efc7 523e b4f2 453d 6530 713c
00000090: 72ed af3d daf2 cc3b 75f7 c8bc b86a 18bd
000000a0: 91e0 debb fdf8 1f3e 32f7 113c a019 253d
000000b0: 65e2 793d 7c7e 0a3c 6d07 a53c 5f28 50bd
000000c0: 82d8 7e3d 9379 8b3d 5467 51bd 45a5 87bd
000000d0: 9275 c23d 1ea2 ba3d 02b6 a03d e85e 4e3d
000000e0: b6af 243b b28a ee3c 30ae bc3d 35a1 b83c
000000f0: d9e7 46bd e32e 623d 2ef0 0bbd e27e dd3d
00000100: 798d ad3d 497c 173c f56f 2abd 94af 6dbd
00000110: 42ec 97bd 0383 a7bc 3b22 db3c 79e0 313d
00000120: b59b 473d bc15 1cbd 9431 d53d d72a 0d3d
00000130: 934f 83bd 6f4e 6d3d c03f 0bbd 541e c73c
00000140: f322 b13c c520 fd3d 4e73 27bd 8fa4 ab3d
00000150: b297 c8bc 4eaf 5fbd a121 8bbc 09c6 653e
00000160: 6d2f 103e dfff 1d3e 5fdb 3b3d 0a14 223e
00000170: c2d9 373d b837 c03c 07f5 023e 4dc8 0f3e
00000180: 8c46 2a3d 739e c53c a34b c8bc b7dd 36bd
00000190: 15c9 1f3e 0f53 253d 239d 1bb9 0d2b ac3d
000001a0: e5f5 cb3d 0e4b 013e 0ba2 d33d f33a 4a3d
000001b0: 1627 233c a3f3 d33c 8da7 a7bc 62f0 da3d
000001c0: f5b0 143c b883 48bc 80e7 98bc 5e69 0f3e
000001d0: f7b4 473c 90cd 6a3d 585c 283d a2d7 a53d
000001e0: 885f 1c3e 1667 463c 0bdf 633e e1ca 553d
000001f0: bdfa c93c 9037 d43c cf6e 5dbc 838b 12bb
00000200: ae89 44bc ddab fdba 9123 14be 897a fbbd
00000210: cdbf 19be 4c73 a63d 61cc cbbd 090f 4dbd
00000220: 692c 273d 7b38 c0bc 683c d43c 9014 0abe
00000230: 1c66 12be a28e c6ba b828 0cbd e33f a73d
00000240: 8de5 97bd b81e d33c d0da 1bbe 80cb 853c
00000250: 282a b83c 4ac3 87bd ae3d 47bd 60a1 c73c
00000260: 38b6 25bc db92 7d3d 2519 b3bd 2a5f 803d
00000270: a11d ff3d 7aff 5c3d 52f2 90bd 518d edbd
00000280: 6af5 42bd 6ea6 0e3d eb85 603d a7b4 06be
00000290: 446d e3bd cb1b b9bd 9d89 be3d f0a1 43bd
000002a0: b8fb 84bd 6270 07be e68e c93b 0cf9 fabd
000002b0: 51e2 d1bd bcbc 6a3d 2026 efbd 56b6 52bd
000002c0: d46f c1bd cd2b 0d3e 3d69 e6bd 209a 1ebb
000002d0: 51f2 d7bd 2ef6 0dbd ac3a f0bd fcb5 dc3d
000002e0: b687 06bd e326 4fbd 1b3a c2bc d617 cf3d
000002f0: 81c4 763c dd8b b63b 013e 373d b74b a9bd
00000300: 85e2 003e 8b40 b63d e20c 083e d204 b43c
00000310: 77d6 9f3c 9641 273e 5855 1f3e 845e 273a
00000320: 6dc4 8e3d f1f2 113e c56c f2bc 2d7b 543d
00000330: 3543 a53d 16e2 d53d 53e3 143c 5aff 3a3e
00000340: e19c 213e 81ae f33d c82e f03d 40b8 823b
00000350: 27fc 2e3e ea2a 613e 10be c23c 276b 163e
00000360: d6c6 493e ee48 ed3d f0da 523d b986 1a3e
00000370: ab7d 90ba b884 a23c 838a 413d 97e0 19bd
00000380: d4e8 b93d 2c62 783b ccab a93d dab6 d93d
00000390: a975 9b3d cf7f e53d 46ae d73d 2fe6 2f3e
000003a0: f77e 903d 33da 423e 55d2 c03d 6487 06bd
000003b0: 1aa2 6a3d 3575 f33c 5430 303e 1689 91bb
000003c0: 1583 0f3e 01aa 493e ca6a 183e 5d04 f43d
000003d0: 4090 203e ea47 13bd 0d57 093e 5346 8b3d
000003e0: cbed 2639 1e61 2e3c 0cb2 20bc 931b 0f3d
000003f0: 3303 8b3d e8a5 5ebb 710c 343e 6aea 69bb
0.09895526 0.04876461 0.03901877 0.15568343 0.013533598 -0.01803181 0.07474986 0.19057797
-0.024731612 0.15427263 -0.0070583476 -0.048272032 0.01839155 0.13039528 0.15065649 0.1911381
0.031880792 0.0010906502 0.20130181 -0.018581687 0.21511462 0.17844218 0.1452044 -0.034928445
0.19758174 0.021864073 0.100107476 0.07051084 0.15641896 0.026222136 -0.038748123 0.07147486
0.16562125 0.20584081 0.048327163 0.014721011 0.08590211 0.006254536 -0.02453206 -0.03721115
-0.0068016727 0.15622325 0.008909034 0.04030764 0.061006922 0.008453008 0.020145142 -0.05081975
0.062218197 0.06810298 -0.051123932 -0.066233195 0.09495081 0.09112953 0.07847215 0.05038348
0.0025129146 0.02911887 0.09212911 0.022537807 -0.04856095 0.055220496 -0.0341646 0.108152166
0.084742494 0.0092459405 -0.041610677 -0.058028772 -0.074181095 -0.020448213 0.02674972 0.043426964
0.04873248 -0.038106665 0.10409847 0.034464683 -0.06411662 0.05793613 -0.033996344 0.024306454
0.02162311 0.12359766 -0.040881447 0.083809964 -0.024486396 -0.054610543 -0.016983809 0.22438826
0.14080591 0.15429638 0.045863505 0.15827957 0.044885404 0.023464069 0.12788783 0.14041252
0.041571185 0.024123406 -0.024450129 -0.044645038 0.1560405 0.040362414 -0.0001484049 0.08406649
0.0995901 0.12626287 0.103336416 0.049372625 0.009958049 0.025873011 -0.020465637 0.10690381
0.009075393 -0.012238435 -0.018665075 0.14005038 0.0121891415 0.057324946 0.04110369 0.08097769
0.15270817 0.012109539 0.22253053 0.052195434 0.024655694 0.0259054 -0.013515188 -0.0022360987
-0.011995716 -0.0019353587 -0.14466693 -0.12279231 -0.15014572 0.0812746 -0.099510916 -0.050063167
0.040813837 -0.023464432 0.02590771 -0.13484406 -0.14296764 -0.0015148709 -0.03421852 0.08166482
-0.0741683 0.025771484 -0.15220189 0.016332388 0.02248104 -0.06629045 -0.048642807 0.024368942
-0.010114245 0.06190763 -0.0874503 0.06268151 0.12456823 0.05395458 -0.07077469 -0.115992196
-0.047597326 0.03482669 0.054815214 -0.13154851 -0.11104825 -0.09038504 0.093035914 -0.047761858
-0.06493324 -0.13226464 0.006151068 -0.12254533 -0.102482446 0.057308897 -0.11677194 -0.05144342
-0.09445158 0.1378624 -0.11250541 -0.0024200752 -0.10544265 -0.034658603 -0.11729941 0.10776898
-0.032844268 -0.050574195 -0.023709347 0.10111968 0.015061499 0.005570872 0.044736866 -0.082663946
0.1258641 0.08899029 0.13286164 0.021974955 0.019511444 0.16333613 0.155599 0.00063846284
0.06971059 0.14252831 -0.029592881 0.051875282 0.08069459 0.10443513 0.009087401 0.18261471
0.15782501 0.11898518 0.11727673 0.0039892495 0.17088376 0.21989027 0.02377227 0.14689313
0.19704756 0.11586176 0.051478326 0.15090455 -0.001102378 0.019838676 0.047251236 -0.0375677
0.090776116 0.0037900312 0.08284721 0.10630579 0.07590801 0.11206018 0.10531287 0.17177652
0.070554666 0.19028549 0.09415118 -0.032843962 0.0572835 0.029718975 0.17205936 -0.0044413907
0.14014848 0.19693758 0.14884487 0.11914895 0.15680027 -0.035957254 0.13412113 0.06800523
0.00015919578 0.010643272 -0.009808075 0.034938406 0.067877196 -0.00339734 0.17582871 -0.00356927

rnn_layer.rnn_layer.weight_ih_l0_reverse f4 [256, 50]
00000000: 922e f0bd 19f9 753c 0c1c bebd 47db 453d
00000010: 780a 78bd 4862 923d 8737 053e ba80 363d
00000020: 2105 153e 7db3 8d3d dd49 303e d6a8 efbc
00000030: 2aa4 0b3e 77fa 803e 291d 923e 391a 063e
00000040: 4e4b 8bbc bd4c 7a3d 22ba 743c 156a 72bd
00000050: 4d05 fa3d 2b2f 8dbd 9b54 17bc 9284 1c3d
00000060: 8a44 6bbd 4d3f aabc 1c3d 5dbd 6ec3 19be
00000070: 908c 8f3d 678d debd 1d09 e63d f023 573e
00000080: 2f13 333a 595e 2b3e c021 a93d 311a a53d
00000090: 6f7e f93d e4f8 083e c19f 3d3e e863 be3c
000000a0: 0c81 2d3e fe1c d43d 8878 183e c47f 373e
000000b0: fa34 443e a63a 143e 72bb c83d 9efb 2c3e
000000c0: bd73 833b 5f77 2fbb 8f1a bbbd f1d5 54bc
000000d0: e6e4 afbb d67f 7ebd d6e0 6ebb f3a8 98bd
000000e0: 6760 8539 9ea4 4ebc 6046 d237 2aaf 9b3d
000000f0: 2703 973d f8bf 7dbd bde0 f5bd d91b d83d
00000100: 713a f13d 0838 88bb 1e83 bb3d 0e4b 313d
00000110: cea0 df3a 509d b13c 4049 283e aa1a c53d
00000120: 5c0d 383d d55b 07bd 06b5 0e3e 81a8 313d
00000130: 132f 313e edad 01bd bd65 fd3d 8ea8 d83d
00000140: b75d 093e bf5a 833d 79c9 e33d 2f99 5a3d
00000150: 2b93 a43d b214 88bd 1573 81bc a4e4 27bd
00000160: 3556 523d 7242 873c bc54 7a3d ecd4 e63d
00000170: fa95 143e eef9 3f3e 3f15 ef3d c94a 473e
00000180: c2a6 ef3d b5b9 123e 5c0d 0b3c e69a 2a3e
00000190: 1815 b03c 7ebc a2bd ef0c 353d 055b 173c
000001a0: 5d65 e6bd 3675 5dbd af16 b5bd ce90 5dbc
000001b0: 9362 f7bd dcd3 9b3d bc96 9cbd 9b6e 373c
000001c0: 5954 eabb 7a31 e13d 735d 203e 0e11 903e
000001d0: dd06 3c3d 110e 133d 7a28 9b3d b53a 2f3d
000001e0: c50f a93d 52d9 b63d 2a21 1a3e ebc9 50bc
000001f0: 794e f23d a9c4 083e ac04 ca3d 7467 ee3d
00000200: e9cc 9e3c 66cb 963d ee6e 6b3e ad51 05bc
00000210: 875d 803d f066 aabd ae36 a6bd 29c9 943d
00000220: bb61 413d 0bb6 c33c 02db c43c 72d2 ae3d
00000230: 2240 5a3c 808e a33b 1dec 853e 629b 5f3e
00000240: 6cfc ce3d 1b90 1b3e 18c7 0d3e 95fc 773c
00000250: d564 613e 6aa4 c43d ebb1 dbbd 3a9e 813b
00000260: 3506 6bbc b9a6 8e39 4091 77bc 8f54 41bd
00000270: 96ff 33bd a404 c7bd 4d76 d5bd fc49 77bd
00000280: e25a 05bd 420a b43d 36cc d63d 52e8 d6bd
00000290: a28f af3d d2d4 8c3d 263d dabd f368 963c
000002a0: 8c78 87bc f82b 993c 254e 263e f68a fd3d
000002b0: 146c ac3d c866 0e3e 84f3 e43d a84e 78bd
000002c0: c2ef d53c 69ee ed3d 2ca0 17bd f314 653d
000002d0: c7cd 5a3c d81c 933d e990 1e3d 2ae2 f03b
000002e0: 1a29 053d 0e8a 8fbc 4571 faba aa3a 373d
000002f0: a1ef 9a3d 2202 9d3d 5905 3b3e ff9f 273e
00000300: 2b91 523e a062 003e 95e0 a93d 255f b23d
00000310: dbec ba3c ece1 c23c 487d 2b3e ad7a 32bd
00000320: fc50 a5bd dfc0 8fbd 1c63 553d d041 f93b
00000330: 7314 3bbd 8c9b 0cbc 907f 36bd aa87 fb3d
00000340: be58 ea3c 7bba 2a3e ed68 4fbc c3a3 083d
00000350: 034b b03c 49da 113e d6c7 123e 5ec6 e13c
00000360: 6333 dcbd 9103 34bd fd17 43bd 40c3 41bc
00000370: cd30 1a3e abfb 563d 64e4 723d dafb 5b3d
00000380: 06f1 e53d 623c 133d 5281 d63d 5261 2b3d
00000390: 21db 0b3e 9a39 463d 5bd1 7c3d bdad a43d
000003a0: 2de5 8d3d 3c69 243e 9f3f 0bbd 593b 5f3d
000003b0: ad77 d3bb 4e01 3b3e 8798 b63d 892c 1cbc
000003c0: 3a9a 163d ac34 b23d 7ac1 d93c 8edb 663e
000003d0: 77e1 6e3e 4fa0 583d d2db 8b3d 3474 8c3d
000003e0: 58f0 2f3e f310 2d3e 4022 c0bd 49ef 95bd
000003f0: a020 dc3d fe56 6a3d d1a0 cfbd 378c 1dbd
-0.117276326 0.015013003 -0.09282693 0.048304822 -0.06055686 0.07147652 0.13009463 0.044556357
0.14552738 0.06919 0.17215677 -0.029255312 0.13636842 0.2519109 0.28537872 0.1309594
-0.017003682 0.06110834 0.014936956 -0.0591832 0.12208042 -0.06893762 -0.00923648 0.038212366
-0.05743841 -0.020782137 -0.054013357 -0.15015957 0.07009232 -0.10866814 0.11232207 0.21009803
0.00068311667 0.1673521 0.082583904 0.08061636 0.121823184 0.13376194 0.18517973 0.023240998
0.16943759 0.10357092 0.14889729 0.17919832 0.19160834 0.14475498 0.09801377 0.1689286
0.0040116 -0.0026774032 -0.09135925 -0.012990461 -0.005367863 -0.062133633 -0.003644993 -0.074540995
0.00025439562 -0.01261249 2.5066722e-05 0.07601769 0.07373648 -0.061950654 -0.12005756 0.105521865
0.11778725 -0.00415707 0.09155868 0.04328447 0.0017061473 0.021681458 0.16434193 0.096242264
0.044934615 -0.033046562 0.13936242 0.04337359 0.17303114 -0.03166001 0.12372921 0.10579024
0.13414656 0.06413793 0.11122412 0.053368744 0.080358826 -0.06644572 -0.015801946 -0.040989533
0.051351745 0.016511176 0.061115965 0.112710804 0.14510337 0.18747684 0.11673974 0.19462122
0.117017284 0.14328654 0.008487072 0.16660652 0.021494433 -0.07946108 0.044201788 0.009238009
-0.11249802 -0.05406686 -0.08842217 -0.013523294 -0.120793484 0.07608768 -0.07645938 0.011195804
-0.0071511683 0.10995765 0.15660648 0.28138012 0.045904983 0.035902087 0.0757608 0.042780597
0.08254961 0.08928169 0.15051714 -0.0127434535 0.11831374 0.1335627 0.09864172 0.11640826
0.019384818 0.07363014 0.22991535 -0.008137149 0.06267839 -0.08320415 -0.08115898 0.07264931
0.047212344 0.023890516 0.024030212 0.08536233 0.0133209545 0.0049913526 0.26156703 0.21836618
0.101067394 0.1519169 0.1384548 0.015135904 0.2201112 0.09601672 -0.107272945 0.0039556297
-0.014344742 0.0002720857 -0.015110314 -0.047199782 -0.043944918 -0.09717682 -0.10422955 -0.06037329
-0.032557376 0.08791019 0.10488169 -0.1049353 0.08572318 0.0687653 -0.106561944 0.01836059
-0.016536973 0.018697724 0.16240747 0.1238002 0.08419052 0.13906395 0.111792594 -0.060621887
0.026115302 0.11617739 -0.037017986 0.05592818 0.013354725 0.07183236 0.038712416 0.0073511796
0.0325099 -0.017521884 -0.0019107243 0.04473368 0.07565237 0.076664224 0.18263759 0.16369627
0.2056319 0.12537622 0.08294789 0.08709554 0.02281802 0.023789369 0.1674701 -0.043574024
-0.08072087 -0.07019209 0.05209647 0.0076067224 -0.0456738 -0.008582007 -0.044555247 0.12281735
0.028606769 0.16672699 -0.012659294 0.0333593 0.021520143 0.14243425 0.14334044 0.02756041
-0.10751989 -0.043948714 -0.0476303 -0.011826336 0.15057679 0.052486103 0.05929984 0.05370698
0.11227612 0.035946257 0.10473885 0.04184086 0.1365781 0.048394777 0.061723094 0.080409504
0.069284774 0.16055769 -0.03399622 0.054499958 -0.0064534754 0.18262216 0.08915811 -0.009532102
0.036768176 0.087014526 0.026581515 0.22544691 0.23328196 0.052887257 0.06829037 0.068581015
0.17181528 0.16900997 -0.09381533 -0.07321031 0.1074841 0.05721187 -0.10138095 -0.038463797

rnn_layer.rnn_layer.weight_hh_l0_reverse f4 [256, 64]
00000000: d5af 15be 2530 e9bd f6c5 32be 96f1 63bd
00000010: c231 f5bc 4e16 d8bd 894e 783d 6c9f 15be
00000020: a3f4 8d3c 689a e33c 86c4 c7bd 5fea 81bd
00000030: 1521 e53c 2188 23be 790c b7bd 136c 563e
00000040: 8e71 01bd 5a3b 2cbd 057c b53d aec3 193d
00000050: febe 2c3e 04fd 0fbe af7f 30be 2b03 6abd
00000060: ac26 fa3b 5040 163d 40ee a5bd fecf 05bb
00000070: 71ae abbd 967e 12be 8238 3c3d 3ef0 e43d
00000080: 68ae 0c3d 97a8 b1bc 1084 9dbd ccf2 29be
00000090: 9cf7 21bd 9b91 c33c 959c 3bbc 1908 11be
000000a0: 0835 13be b2f7 50be eb6e f0bd a602 613d
000000b0: a322 ffbd e14f d3bd e3ee a13d b35f c2bc
000000c0: 973f 8b3d e31b 86bc 1697 9fbd 912f 623c
000000d0: f5e4 82bc 649f 11be a94f 0fbe 54fa a13d
000000e0: 2437 3f3d a701 9e3d 7b2f 0cbe d3b2 38be
000000f0: 8e98 80bd 64e2 f23d c718 c73c a97b 193d
00000100: 4202 4f3e c729 02be 79da 10be 486d cfbd
00000110: 0355 34bc cc5f e83a 18a7 473d 61f4 cfbd
00000120: 25e5 213d c99d 253b 0405 00bd 3a99 d53d
00000130: ca27 b53d 4fca 9c3d 6c86 a93d d3d3 003e
00000140: 1bf6 a23d 75c6 ae3d 422b 053e 8ebd ebbc
00000150: 6ee3 db3d 2d47 d2bd 1061 273e 461e fb3d
00000160: a3a0 4d3d a282 0fbe 0166 4fbc 409a 4abd
00000170: f628 113d 26f4 8c3d 4b60 51bd acdb e53c
00000180: c6c3 d7bc b2a5 8e3b 3e7b 883d 4094 beb8
00000190: 808a b53d 8508 ab3d ff19 a83d 1f9d 383e
000001a0: c4d5 d13b 07a4 5b3d 33a4 19be 37e4 053e
000001b0: d544 4e3d d427 cb3d e233 253d 7ebb cebd
000001c0: ba26 323c 1eb0 e039 e703 c63d 79c2 a8bd
000001d0: e341 87bd db39 1ebd 1ee6 ac3c fe00 963d
000001e0: 361f 013d 3cab ec3d 36f0 2bbd cd4f 5e3e
000001f0: cab3 0c3c 9609 85bc 667e 91bc 5385 523d
00000200: d8b1 bebb b536 8cbc b007 9db9 38ba d7bd
00000210: 91d0 a83b 0f67 10be fd77 a8bd 0fff 9c3d
00000220: b48f 57bd 0459 fc3d 7d2c 9dbd cae1 ee3b
00000230: 8420 a8bd 954e afbc c40d d8bd 1649 803e
00000240: 7622 083e 28b3 68bd 78c3 873d 66c2 003d
00000250: a4af 7b3d c249 b33d 9da0 b93d 881a 60bc
00000260: a532 a23d af65 a9bd ca67 5a3d 7386 583d
00000270: 578d e43d 25a2 68bd 8076 e93d 1f54 163e
00000280: 646e 513d 530e 0f3d bb52 083d 0e60 e33d
00000290: c897 97bc 38d8 363e f51e 403d 4b3a 153d
000002a0: 23f0 b33d 8f75 0a3e 2ea0 32bd 3732 67bd
000002b0: 472a fb3c 0750 1c3e 8d09 143e 7037 b73c
000002c0: 05e2 dfbc 497d c93d 7113 1d3d 0636 cf3c
000002d0: 674a e9bd 66d5 873d 676b fe3d 4232 f63c
000002e0: c13e 893d bada 943d 58e3 973d e6b3 333e
000002f0: 524e 4e3d f062 b3bc dc92 0e3e 1441 aa3d
00000300: 1915 02bb b69e 87bd 2773 813b 6374 3dbc
00000310: 065d 6e3d 6505 cbbd bb08 e83d f855 a63d
00000320: 80df 59bc 5417 703c 99fe 89bd 5ad4 513e
00000330: f764 af3d 82be dc3d d57a e93b 4e00 b53b
00000340: 71d3 c63c a089 b63c 1c9f c33c 31c9 443d
00000350: dcf3 323d 0ee8 ed3d 8769 c9bc e440 8d3c
00000360: 29a0 62bd 2909 e8bb d0a1 1f3d 9eea 66bc
00000370: de3b 9b3d d719 91bd f161 e33d 0022 7c3b
00000380: 3835 d23d 9bcb a23d 9bd3 afbd 46f9 22bd
00000390: d7bc a93d b3dd d73d 819e e2bc 1a74 85bd
000003a0: 78e9 d0bc 741f c7bb 9e65 07be e5e0 90bd
000003b0: f143 f1bb e065 2d3e 79cc 093d f631 17bd
000003c0: b1bf d2bd dc95 0cbd 5756 0bbc c478 aebc
000003d0: 838e a5bd 867c 20bd 32bf c43d 3ddd f83d
000003e0: 086c 333c 9c31 143e fab3 19bd 1d35 1ebd
000003f0: 96a8 003e aab7 f5bb e46e cb3d 743a 73bd
-0.14617856 -0.11386136 -0.17458329 -0.055650316 -0.029930953 -0.10551129 0.060621772 -0.14611596
0.017328566 0.027783588 -0.09754281 -0.06343531 0.027969876 -0.15969898 -0.08937926 0.20939665
-0.031602435 -0.04204879 0.088615455 0.03754013 0.16869733 -0.14061362 -0.17236207 -0.057131927
0.0076340046 0.036682427 -0.08102083 -0.0020418162 -0.083828814 -0.14306101 0.045952328 0.11178635
0.034346014 -0.021686835 -0.076912045 -0.16596526 -0.03954278 0.023873141 -0.011450906 -0.14163245
-0.14375699 -0.20406988 -0.11739906 0.054934166 -0.12457778 -0.1031797 0.07906892 -0.023727274
0.06799238 -0.01637072 -0.07792489 0.013805286 -0.015978316 -0.14220959 -0.13995232 0.079090744
0.046683446 0.07715159 -0.13689987 -0.18036966 -0.062790975 0.11859587 0.024303807 0.037471447
0.20215705 -0.1271125 -0.1414584 -0.101282656 -0.0110065965 0.0017728745 0.048743337 -0.101540335
0.03952517 0.002527105 -0.031254783 0.10429616 0.0884548 0.07655775 0.08277592 0.12580805
0.07957097 0.085339464 0.13004783 -0.02877691 0.10736738 -0.10267482 0.1634562 0.122616336
0.050202023 -0.14014676 -0.012658597 -0.04946351 0.035439454 0.06882505 -0.051117223 0.02805885
-0.02633847 0.0043532485 0.066641316 -9.08752e-05 0.088643074 0.08351234 0.08208083 0.18028687
0.0064036567 0.053623226 -0.15004043 0.13075338 0.050358612 0.09919706 0.040332682 -0.10094355
0.010873491 0.00042855827 0.09668713 -0.08240218 -0.06604364 -0.038629394 0.021105822 0.07324408
0.031523906 0.11556098 -0.04197713 0.21710129 0.008587787 -0.016239922 -0.017760467 0.05139668
-0.0058195405 -0.01711593 -0.000299511 -0.10533565 0.005151816 -0.14101814 -0.08226011 0.07665836
-0.05262728 0.12321666 -0.07674501 0.0072900997 -0.08209327 -0.021399776 -0.105495006 0.2505576
0.13294396 -0.05681148 0.066290796 0.031435393 0.0614468 0.087543026 0.09063838 -0.013678201
0.07919816 -0.08271348 0.053321637 0.052862596 0.11159771 -0.056795258 0.11399555 0.14680527
0.051130667 0.03492577 0.033282023 0.11102305 -0.018504992 0.17855918 0.046904523 0.036432546
0.08786037 0.13521408 -0.04360979 -0.056444373 0.030659808 0.15264903 0.14456768 0.022365302
-0.027329454 0.09838349 0.03834862 0.025294315 -0.11391144 0.066324994 0.12422829 0.030053262
0.067014225 0.07268281 0.07416409 0.17549095 0.05036766 -0.021897763 0.1392321 0.08313194
-0.0019849 -0.066220686 0.003950495 -0.011563393 0.058194183 -0.09913138 0.1132979 0.08121866
-0.013297915 0.014653999 -0.06738014 0.20491162 0.085641794 0.10778524 0.0071252384 0.005523718
0.024270745 0.022282422 0.02387958 0.048043434 0.043689594 0.116165265 -0.024586452 0.017242856
-0.055328522 -0.00708117 0.038972676 -0.014094023 0.07579778 -0.07085007 0.11102665 0.0038472414
0.10264057 0.07948991 -0.085852824 -0.039788507 0.082879715 0.10540333 -0.027663471 -0.06516285
-0.025501952 -0.0060767476 -0.13222358 -0.07074145 -0.0073628356 0.16933393 0.033642266 -0.03691288
-0.102904685 -0.034322605 -0.008504472 -0.02129782 -0.080838226 -0.039181255 0.0960678 0.12151573
0.01095105 0.1447205 -0.037525155 -0.03862487 0.1256431 -0.007498701 0.0993326 -0.059381917

rnn_layer.rnn_layer.bias_ih_l0_reverse f4 [256]
00000000: 7700 13bd 1c40 113d 58fd 523c 7069 fd3d
00000010: 4463 cb3c 7ac4 5b3d 30b1 183e 866b 73bd
00000020: 1eca 233e 5637 993d 7e98 11bd 813e 1e3e
00000030: b7c1 e73d dd4d 463e f865 a33c 634c 8ebc
00000040: 418d ec3d 0a23 5e3c 45c7 4a3e 0834 863d
00000050: a24b 423c ab99 163e a720 153e 09fa 493e
00000060: 7b43 da3a 7fa1 373e 976c 70bd ac8f fd3d
00000070: 92f4 123e 07dd 8ebb 8a5e 213d c11b 093e
00000080: 5199 1b3d 06db 3d3d 43ce a73c a0d8 2c3d
00000090: 09e7 2f3d 36fd 053e 2632 a63d dee5 eb3d
000000a0: a6e8 0a3e ef92 1a3e e6d7 a13d 9d9f 303e
000000b0: b158 233d e273 113d edd7 2c3e 28cb 833d
000000c0: 4c91 d03c f478 393e 0f59 0bbd 5d8d 413e
000000d0: 0fdc ae3d a9f8 2abc 2a52 d43d d548 023e
000000e0: 7bb6 803d 0b23 343e 9d97 463e ed7c 3b3c
000000f0: 642d d23c 8954 5d3e 89e4 db3c 5c81 f23d
00000100: c2fe 0b3e 1f19 203e 60d3 3dbd 0a24 b63d
00000110: 0fd8 1f3e 2a20 8dbd 701a 363c 017d a0bd
00000120: b5ad 033e 9f87 edbb efc0 de3c 9c47 d0bd
00000130: 4dd4 83bc 0037 313e 927e 3f3d 35f0 513e
00000140: f7b3 e03d a6a0 093e fc9d 843d e17f b6b9
00000150: fe72 36bd 6bf2 8c3b 6722 9d3d 3694 7fbc
00000160: a7c1 e23d 5b38 3c3d 2b4f 483d 8bc5 0a3c
00000170: a4fa e5bc 91d6 0d3e db63 033e 4ed2 0f3e
00000180: 7498 923d fcf7 ab3d c8d8 acbd 2d0a aa3d
00000190: e413 133e bdc0 94bc 0020 9d3d c0fc 88bd
000001a0: f5ee 8d3d 3108 8dbc 38a7 8d3d 0255 b73b
000001b0: 8ca7 bb3d 6cb5 403d fd8a b23a 18df a13d
000001c0: 6a3f 3cbd 09f9 71bd 0f22 5d3e 6478 303e
000001d0: 99d2 083d f173 6c3e 6e7a 003e 5be6 6d3d
000001e0: 4af2 29bd c51c 53bd 6012 ff3d 9df0 ecba
000001f0: eef1 433d c61f b23c ae3b 93bb 32fc 64bd
00000200: fcbe 9e3c efbb 43bd 7bc2 25bd b0e6 d7bd
00000210: c4c2 5a3d 7f6e e4bd fa90 97bd b0c3 003e
00000220: 78fd 8b3b 63cd 04be 3ef7 d63d 2b18 ce3c
00000230: 6c24 d6bd 0571 c73c 7116 3cbd 7f14 2a3e
00000240: ea41 59bd 914b c7bd 1ccf 97bb 7a04 a7bd
00000250: f3c3 03be 4c9b a7bd 3d24 dfbc 453f 273c
00000260: f1dc c63c 29a4 e43c 2f74 b0bd f242 92bd
00000270: 481f bd3d 9cdb fdbc 3183 983d 49c6 833c
00000280: 19ed 013b abb8 ec3d 740b 49bd adc4 863b
00000290: 8053 70bd 1673 893a 2079 db3d fef6 153d
000002a0: d154 e83d 0a01 86ba 701b 163d 9573 e4bb
000002b0: a68c 1f3d f20e 8c3d e31e f93d 2ca5 e73d
000002c0: d3f8 88bd 8a15 65bd 4a6d e4bc 52dd 93bd
000002d0: 478d b43d cc97 093e c9cf 913d e317 95bb
000002e0: ca6a 26bc 9c46 d73c fac6 e63b 827e 953c
000002f0: afec 2ebe 3e58 073d a525 353d cb69 4fbc
00000300: 5a32 223d da9b 143e 2e6f 133e d665 403c
00000310: 5749 2e3e ceaf ee3c 0263 6cbd b2e0 8e3c
00000320: daef fabc 093f 0c3e c1c9 613d acad b4bd
00000330: 7469 a03c 6fb8 60bc 5f00 5b3e bc13 733d
00000340: 63e4 d43d 3906 203e 15c5 063e 9c57 783c
00000350: d8ca 503b e475 1fba 37d1 cfbc d52d a13d
00000360: f780 c73c 848d 23bc 6149 c8bc a8d4 f13d
00000370: d9c1 2a3e a0cc 523e acb6 123e 4590 d63c
00000380: 536c 29bd d67c 1c3e ffa1 33bd 099d 073c
00000390: 4266 c23d 25de f53c 228e 4dba 71ea 683b
000003a0: 632d 043e 0372 273d 0892 223c 8382 173e
000003b0: 50e2 6abd 61d6 253b 28bd a6bb c4b1 123e
000003c0: b971 16bb f8e4 013e c60a e13d d6a6 4a3e
000003d0: 6b13 833d e4c8 673d 473b 743d fdd1 633d
000003e0: e323 05bc c613 823d 529d 243e 307a 513d
000003f0: de15 bd3d 577d 063e c07a 16bd 9349 903d
-0.035889115 0.03546153 0.012877785 0.12373626 0.024827607 0.05365417 0.14911342 -0.059428714
0.1599507 0.074812576 -0.03554582 0.15453531 0.11316245 0.1936564 0.019946083 -0.017370408
0.115503795 0.013558159 0.19802578 0.06552893 0.011858853 0.14707057 0.14563237 0.19724287
0.0016652191 0.179327 -0.05869731 0.12380919 0.14351109 -0.0043598446 0.0393968 0.13389494
0.03798801 0.046351455 0.020484095 0.042198777 0.04294494 0.13084874 0.08115034 0.11518453
0.13565311 0.15095113 0.079025075 0.17248388 0.039879505 0.035510905 0.16879244 0.06435233
0.025459908 0.18112546 -0.03402048 0.18901582 0.085380666 -0.010435262 0.10367234 0.12723096
0.062848054 0.17591493 0.19393773 0.011443359 0.02565641 0.21614279 0.026842372 0.118410796
0.13671401 0.15634583 -0.04634416 0.08893593 0.15609764 -0.068909004 0.011114702 -0.078363426
0.12859233 -0.0072488333 0.027191607 -0.101699084 -0.016092444 0.17306137 0.046751566 0.20501788
0.109718256 0.13440189 0.06475446 -0.00034809022 -0.04454326 0.0043013594 0.07672577 -0.015599301
0.110720925 0.045952182 0.048903625 0.0084699495 -0.028073616 0.13851382 0.1283106 0.14045069
0.071579844 0.08396909 -0.08439785 0.08302722 0.14363056 -0.018158311 0.07672119 -0.06688833
0.06930343 -0.01721582 0.0691666 0.0055948505 0.091628164 0.047048017 0.0013621744 0.0790388
-0.045958914 -0.05907539 0.21595024 0.17233425 0.033403967 0.23091103 0.12546703 0.058081012
-0.04149083 -0.05154111 0.12454677 -0.001807708 0.047838144 0.021743666 -0.0044931984 -0.055904575
0.019378178 -0.04778665 -0.040468674 -0.10542047 0.0534084 -0.11153888 -0.07400699 0.12574649
0.004272159 -0.12968974 0.104963765 0.025158009 -0.10456166 0.024345884 -0.04591984 0.16609381
-0.053041376 -0.0973121 -0.0046328437 -0.08155151 -0.12867717 -0.081839174 -0.02723896 0.010207956
0.024275275 0.027910309 -0.0861591 -0.07141675 0.09234482 -0.030988507 0.07446898 0.01608576
0.001982516 0.1155866 -0.04908319 0.004112801 -0.05867338 0.0010486569 0.10716462 0.036612503
0.113443024 -0.0010223698 0.03664726 -0.0069717863 0.038952492 0.06838788 0.12164094 0.11310801
-0.066880845 -0.055928744 -0.027884144 -0.07219948 0.08816009 0.13436812 0.0711971 -0.0045499667
-0.010157296 0.026278786 0.007042763 0.0182488 -0.17082475 0.03304314 0.044225354 -0.0126595
0.0395988 0.14512578 0.1439788 0.01174303 0.17020164 0.029136565 -0.05771161 0.017441127
-0.030631948 0.13695921 0.05512405 -0.08822188 0.019581534 -0.013715847 0.2138686 0.059344992
0.10395124 0.15627374 0.13161118 0.015157606 0.0031859186 -0.0006082936 -0.025368316 0.0787007
0.024353487 -0.00998247 -0.024449052 0.11808139 0.1667551 0.2058587 0.14327496 0.02619184
-0.04136307 0.15281996 -0.043855663 0.008277186 0.094921604 0.030013153 -0.0007841309 0.0035540129
0.12907939 0.040880214 0.009922512 0.1479588 -0.057344735 0.0025304782 -0.005088467 0.14325625
-0.0022955968 0.12685001 0.10988383 0.19790205 0.06400188 0.05658807 0.059626844 0.055620182
-0.008126232 0.06351428 0.16075638 0.051141918 0.092326865 0.13133751 -0.036738157 0.07045283

rnn_layer.rnn_layer.bias_hh_l0_reverse f4 [256]
00000000: c136 033e 62d6 563e c817 84bc 1209 f4bd
00000010: fd7f 0f3e 0cae a93d 43cd 173e 00a7 c63d
00000020: 3b0a 053e 1d13 ea3d 7a6b 7c3d 889d fd3c
00000030: 59f7 273d c310 373e 9f96 503e d861 de3d
00000040: a95b 343e 5aeb da3d 8201 333e bcf7 64bd
00000050: 6ec2 ad3d e7e4 8c3d 738a a93b 9311 4d3d
00000060: 8cfc d83c df55 343e aa64 163e 3464 2b3c
00000070: e7ba ee3d ea53 84ba 9cb3 143e 4e33 023e
00000080: c506 09bd b290 353c f2cf 1dbd cbb0 8fbd
00000090: f415 423e 8689 443e 1cac 803d 156c af3d
000000a0: 61fc b33d 88b9 383d cf59 cf3d 249d cabc
000000b0: cc5d 30bb 2c2c e73c 7ef5 45bc f663 c33c
000000c0: 6931 263e f938 023e 0177 f0bb b215 ed3d
000000d0: 4ca4 033e 0839 043e f10e 13bc 0de7 013b
000000e0: 4438 5f3d 86c4 a23d ecf3 0c3d 1a19 3ebd
000000f0: d2f8 413e 21f7 583e 9798 eebc c22c c1bb
00000100: c51f 9b3c e862 81bd 4623 693d befd a83d
00000110: e06b 323e e2b6 ff3c b689 0c3d b2f9 11bd
00000120: e123 2f3e ddc4 7a3d 4260 0e3d f02f ad3d
00000130: aabe 083e bf8b bb3d eae0 e53d 2e08 04bb
00000140: 419c 743d 40d0 973d f79d 813d b5a4 1f3d
00000150: cd12 8bbc ae58 6d3c 0341 b53d 6c40 c43d
00000160: 6c6a 09bb d257 ba3d 99db cc3d d6a2 a2bd
00000170: d7de 0f3e 5b63 4c3e 0e53 163a 5852 a13d
00000180: 4712 f2ba 80c3 3fbd c7d3 3abc 5b09 6c3d
00000190: 9be1 323e 144a fa3d 6a50 47bd d7af f63d
000001a0: 2785 0c3e 6aa6 bdbb cc82 6cbc 08b7 903d
000001b0: cb85 203e 576b 46bd 2907 ec3d 5186 363e
000001c0: 80af 9b3c 2714 d9bd 2737 f93d b1fd c9bc
000001d0: 7ec5 1a3e 6b1a 1c3e 9b9b 363e 0cb3 cfbc
000001e0: 0be6 d73d f233 353c 8f78 e3bc a7c4 0d3c
000001f0: d213 d2bd 1a08 763d 56c1 eabd 3870 fdbb
00000200: 713b 5a3d ef09 47bc dac0 8bbc f770 e5bd
00000210: 1f49 0dbd 735f e3bd 462e cfbd a65c b03d
00000220: 9360 95bd 1ca2 ebbb 446d b5bd f9b4 2abd
00000230: 9a4f 97bc 9151 e0bc f474 0abe 321f bb3d
00000240: bcb4 22bd 3df8 223d 4cd8 943d 7f0a 38bd
00000250: c188 e6bd 789a 59bd 4498 56be f21e 8a3d
00000260: c6de 473d 162c 3c3c 95f4 80bd 39de d8bd
00000270: bc8b 77bd 77a9 e73c 74bd 8fbd a809 cfbd
00000280: a9d1 1abd 7c2d 8cbd 1992 ccbd 450c 833a
00000290: 544b dc3d bf3c 89bd 17e2 8c3d 53c6 6e3d
000002a0: 750e 84bd 33e6 14be 7b92 8b3d ae1f 15bc
000002b0: 8681 75bd c1e2 eabd 1bd4 e33b 5416 64bd
000002c0: b842 a93c 1ee1 4bbb 21e2 c93d d703 a13d
000002d0: c243 d6b7 9b1d 22bc 36e4 453d 23ba bfbd
000002e0: 0b15 5dbd 9813 253d 43b7 543c 0502 f9bd
000002f0: 6fdc 583d cc99 43bd 6403 d0bd e26a 9ebd
00000300: 181c 0e3d 7364 293e 7a03 023e 4280 193d
00000310: 1bb9 473e 56dd aabc b717 7bbd ce58 67bd
00000320: 14e6 833d 1481 253e fc57 143e b7a2 a5bd
00000330: 8e54 87bd f7bf bbbc 5f1c 173e 7156 b1bc
00000340: b0bb 343e 6f39 1d3e f62d 053e fd77 d03d
00000350: 3de3 80bd aa4d f73d 1875 aa3d 913c 403d
00000360: 5a6a 263e cea6 383e 6919 913d 21a9 283d
00000370: 10a9 52bd 7e53 483e 28a7 1d3e d694 dbbc
00000380: 71de 093e 48a2 ca3d 5c55 e73d 8a48 453d
00000390: 6290 f13d 6b63 8d3c ef7c 4fbd f226 4bbc
000003a0: c87f ad3d e698 22bd 685a a23d dfdc 703d
000003b0: 232a 7bbd 0180 e63d 970a 003e 88cb 313e
000003c0: 1d86 ca3d 61b4 ba3d f556 35bd 9b46 403e
000003d0: efc6 fb3d a79b 713e 65b3 c6bc 2cbd 233e
000003e0: a8ee 123d 6a37 1b3d f961 003e bce9 ab3c
000003f0: 1152 463d d854 36bd 76ae ad3d bc77 3fbd
0.12813856 0.20980218 -0.016124621 -0.119157925 0.14013667 0.0828515 0.14824395 0.096998215
0.12992184 0.11429427 0.061625935 0.030958906 0.041007373 0.17877488 0.20369957 0.10858506
0.1761309 0.10689421 0.17481044 -0.05590032 0.0848435 0.06879597 0.005173975 0.05006559
0.026487611 0.17610882 0.14686838 0.010460902 0.116567425 -0.0010095809 0.1452164 0.12714884
-0.03345372 0.011081861 -0.03852839 -0.070161425 0.18953687 0.19193086 0.06282827 0.08565537
0.08788372 0.04509881 0.101245515 -0.024733134 -0.0026911376 0.028219305 -0.012082456 0.023851376
0.16229786 0.12717046 -0.007338405 0.11576404 0.12855643 0.1291238 -0.00897573 0.0019821555
0.05449702 0.0794764 0.03441231 -0.046410657 0.18942574 0.21188022 -0.029125495 -0.005895228
0.018936047 -0.06317693 0.056918405 0.082515225 0.17423964 0.031215135 0.03431102 -0.03563852
0.1710353 0.0612229 0.034759767 0.08456409 0.13353983 0.09157514 0.112245396 -0.0020146477
0.059719328 0.074127674 0.063289575 0.038975436 -0.016976738 0.014486475 0.088502906 0.095826
-0.0020967973 0.09098782 0.100028224 -0.07941215 0.1404985 0.19959776 0.0005734422 0.07877034
-0.0018468582 -0.046817303 -0.011403031 0.05762611 0.17468874 0.122211605 -0.048660673 0.120452575
0.13722669 -0.0057876604 -0.014435481 0.070661604 0.15676038 -0.04844221 0.11524803 0.17824675
0.019004583 -0.10599547 0.121687226 -0.024657102 0.151144 0.15244453 0.17832796 -0.02535393
0.10541924 0.011059748 -0.027767448 0.008652843 -0.10257687 0.06006632 -0.11462657 -0.007734325
0.053279344 -0.012148364 -0.017059732 -0.11203187 -0.03449356 -0.1110219 -0.10116248 0.08611421
-0.07293811 -0.007190956 -0.088587314 -0.041676495 -0.018470574 -0.027382644 -0.13521177 0.091368094
-0.039723143 0.03978752 0.07267818 -0.044931885 -0.112565525 -0.05312583 -0.20956522 0.067441836
0.048796438 0.01148512 -0.0629665 -0.105892606 -0.060435995 0.02827905 -0.07018557 -0.10109264
-0.037797604 -0.06844613 -0.099888034 0.0009998163 0.10756555 -0.067010395 0.06879061 0.058294605
-0.0644807 -0.14540939 0.06815048 -0.009101791 -0.059937976 -0.11469031 0.006952775 -0.055685356
0.020661697 -0.0031109522 0.09857584 0.078620605 -2.554234e-05 -0.009894754 0.048313342 -0.09361675
-0.053975146 0.04030189 0.012983146 -0.12158588 0.052944597 -0.047754094 -0.10156897 -0.0773523
0.03469476 0.16542225 0.12696639 0.03747583 0.19504206 -0.020857494 -0.061301913 -0.056481175
0.06440368 0.1616252 0.14486688 -0.08087676 -0.066079244 -0.022918684 0.14756916 -0.021647664
0.17649722 0.1535394 0.13005814 0.10179136 -0.06293342 0.1207536 0.08323115 0.04693276
0.16251507 0.18032381 0.07084925 0.04117692 -0.05143076 0.195631 0.15395796 -0.026804369
0.13463761 0.09894234 0.11295578 0.04816488 0.11795117 0.01725932 -0.050656255 -0.012399422
0.08471638 -0.039696597 0.079274 0.05880439 -0.06131948 0.112548836 0.1250404 0.17362797
0.09888861 0.09116436 -0.04427238 0.18776934 0.12293803 0.23594533 -0.024255464 0.15990132
0.03587213 0.037894644 0.12537374 0.020985477 0.04841811 -0.044514507 0.084805414 -0.046745047
