dl_ouptut/best_model_epoc1.pth (torch, 674223 bytes, 46 tensors)

rnn_layer.rnn_layer.weight_ih_l0 f4 [256, 50]
-0.07214351 -0.031929985 0.032254588 0.062681906 0.12549531 0.03094937 0.01498282 -0.046900567
0.14910804 0.12206868 -0.028198559 -0.00872817 0.048683062 0.07012033 0.054200124 0.110148825
-0.022773476 0.105404496 0.29687303 0.3218939 0.21421653 0.049861766 0.26991647 0.15216243
0.057952482 0.012512183 0.022910345 0.05323394 0.104525656 0.09388203 -0.04559527 0.08708497
-0.034560796 0.04596643 -0.02236965 0.1116975 0.04414361 0.11498321 0.0993128 -0.0043724584
0.11414946 0.10010736 0.07204634 -0.044156995 0.11552325 0.040722568 0.1514622 -0.025972364
0.0027177879 0.043051157 -0.08798372 -0.07286362 0.05028637 -0.11248015 -0.049594678 -0.12933904
-0.09083319 -0.032611497 0.074293986 0.1606206 -0.01905732 0.012419208 0.068182245 0.14080495
-0.008486067 0.08365685 -0.028867207 0.061560184 0.11352189 -0.08283414 -0.012154152 0.1935899
-0.04913383 -0.0232112 0.0046359096 -0.14775093 -0.0715183 -0.036227662 0.07383218 0.0972945
-0.088849284 0.061401147 0.12589142 0.17749386 -0.052214682 0.07157957 -0.009204181 0.07667974
0.032268364 0.15037328 0.017166205 0.16398926 -0.0021678554 0.051967364 0.14454877 0.06763569
0.0750122 0.09891011 0.15273906 0.17276856 -0.11821859 0.040482823 -0.22164036 -0.23860826
-0.072803736 -0.041053068 0.053394135 0.021778783 -0.12451323 -0.21216047 -0.17705378 -0.08699213
-0.029340487 0.10411195 0.12115526 0.09604208 -0.031410046 0.15292445 -0.015928676 -0.016533915
0.039498713 0.016173318 0.11000556 0.0143308155 0.11747923 -0.028154116 0.043333948 0.09771204
-0.02612288 0.046571057 0.10133509 -0.03156297 -0.16921097 -0.11051803 -0.015002717 -0.09823666
0.021535298 -0.06343509 -0.14525717 -0.101202756 0.04957193 -0.11916318 -0.09297849 -0.16858253
-0.06077615 -0.05613438 -0.13588384 0.08933196 0.006455572 0.020401355 -0.076768965 0.06990956
-0.119065724 -0.0876483 0.025151158 -0.08420945 0.034628533 -0.1420145 -0.087540366 -0.016013307
-0.041047078 -0.011951396 -0.1476012 -0.0064483816 -0.052801896 0.015648091 0.022907635 -0.0467953
0.06909221 0.08911295 0.034527663 0.23020822 0.05272355 0.0017948669 -0.07891909 0.029851472
0.055409532 0.043005414 0.07758772 -0.04136692 0.121539086 -0.0803028 0.012795839 -0.11769098
0.00028499862 -0.060512282 -0.12756681 -0.11876032 0.10249828 0.023831498 -0.11988712 -0.084131226
-0.07309475 -0.07097493 -0.074461095 0.020224577 -0.09089655 0.063179664 -0.11008628 -0.0027005305
-0.108638585 -0.112247534 -0.100766055 -0.043416694 -0.018214168 0.040182095 -2.7110422e-05 0.03518319
-0.021980822 0.0068062562 -0.07464134 0.07056228 -0.051116295 -0.1285381 -0.022637066 -0.023397718
0.18841289 -0.08354223 0.11033769 0.03676492 0.10254611 0.19988558 0.065728344 0.04930717
0.08356131 0.08065572 0.07333026 0.030675242 -0.0068447855 0.080686994 0.016843012 0.13524109
0.078501955 0.023679867 0.038808133 0.062075265 0.092309155 0.09058286 0.2148795 0.08703706
0.17567374 0.1901305 0.07812279 0.21933079 0.12743992 0.1220835 0.045155223 0.042561993
0.17242122 0.14911829 0.09701039 -0.054245777 -0.143503 0.018872079 -0.08797492 -0.16819197
00000000: fabf 93bd 04c9 02bd 631d 043d 5f5f 803d
00000010: d881 003e 8889 fd3c 807a 753c cf1a 40bd
00000020: c7af 183e 25ff f93d aa00 e7bc 9900 0fbc
00000030: e467 473d 3f9b 8f3d f300 5e3d b595 e13d
00000040: 718f babc 50de d73d beff 973e 47cf a43e
00000050: 945b 5b3e da3b 4c3d 7e32 8a3e 78d0 1b3e
00000060: 955f 6d3d e6ff 4c3c 7aae bb3c d50b 5a3d
00000070: 8c11 d63d 3945 c03d 1bc2 3abd 9b59 b23d
00000080: 9f8f 0dbd 4c47 3c3d 8e40 b7bc a9c1 e43d
00000090: eecf 343d 517c eb3d 8264 cb3d d746 8fbb
000000a0: 31c7 e93d 1605 cd3d 088d 933d f7dd 34bd
000000b0: 7497 ec3d b5cc 263d e818 1b3e ffc3 d4bc
000000c0: ea1c 323b 6956 303d cf30 b4bd 8639 95bd
000000d0: 15f9 4d3d fe5b e6bd ca23 4bbd 7471 04be
000000e0: c006 babd a293 05bd 7227 983d ba79 243e
000000f0: 191e 9cbc ef79 4b3c 22a3 8b3d 2c2f 103e
00000100: 2509 0bbc 4854 ab3d ec7a ecbc 8826 7c3d
00000110: 2a7e e83d f2a4 a9bd 3522 47bc 6e3c 463e
00000120: 8e40 49bd 6a25 bebc d4e8 973b 054c 17be
00000130: 3078 92bd 7563 14bd 5335 973d 5742 c73d
00000140: 9df6 b5bd c57f 7b3d aee9 003e f3c0 353e
00000150: 10df 55bd 4f98 923d 22cd 16bc 440a 9d3d
00000160: d52b 043d 74fb 193e 24a0 8c3c cdec 273e
00000170: 9412 0ebb bbdb 543d 9804 143e 9584 8a3d
00000180: ff9f 993d 6291 ca3d a167 1c3e 3eea 303e
00000190: 971c f2bd 51d1 253d b1f5 62be b955 74be
000001a0: 201a 95bd 4327 28bd cfb3 5a3d 6b69 b23c
000001b0: cb00 ffbd 9840 59be 964d 35be ee28 b2bd
000001c0: 765b f0bc a538 d53d 4020 f83d b6b1 c43d
000001d0: d2a7 00bd 3a98 1c3e db7c 82bc 2272 87bc
000001e0: 67c9 213d e87d 843c 984a e13d cccb 6a3c
000001f0: f398 f03d 76a3 e6bc f07e 313d 401d c83d
00000200: a6ff d5bc 4bc1 3e3d c688 cf3d 2c48 01bd
00000210: a445 2dbe 4757 e2bd f5cd 75bc 4d30 c9bd
00000220: cb6a b03c 42ea 81bd 4cbe 14be 6443 cfbd
00000230: f00b 4b3d d30b f4bd 826b bebd e6a0 2cbe
00000240: 6af0 78bd 2aed 65bd 2225 0bbe adf3 b63d
00000250: 4389 d33b be20 a73c 0c39 9dbd be2c 8f3d
00000260: bbd8 f3bd f480 b3bd cd09 ce3c 0176 acbd
00000270: a6d6 0d3d 406c 11be 5d48 b3bd 572e 83bc
00000280: fb20 28bd cacf 43bc c524 17be f24c d3bb
00000290: cd46 58bd 6d30 803c cba8 bb3c 6eac 3fbd
000002a0: 3780 8d3d da80 b63d e16c 0d3d b4bb 6b3e
000002b0: a6f4 573d bd41 eb3a 55a0 a1bd 138b f43c
000002c0: 1bf5 623d 7226 303d 4fe6 9e3d 5c70 29bd
000002d0: 7ce9 f83d cb75 a4bd a4a5 513c f807 f1bd
000002e0: de6b 9539 badb 77bd e0a0 02be 9c38 f3bd
000002f0: 9eea d13d 463a c33c 6187 f5bd fe4c acbd
00000300: b3b2 95bd 4e5b 91bd 0f7f 98bd 03ae a53c
00000310: f827 babd 5764 813d ea74 e1bd 62fb 30bb
00000320: e87d debd 09e2 e5bd 6f5e cebd b4d5 31bd
00000330: e135 95bc fb95 243d 306b e3b7 401c 103d
00000340: 2011 b4bc 0407 df3b 8fdd 98bd f582 903d
00000350: 525f 51bd 7e9f 03be 5e71 b9bc 92ac bfbc
00000360: 4fef 403e 3018 abbd baf8 e13d d096 163d
00000370: b203 d23d ceae 4c3e 959c 863d 51f6 493d
00000380: 3122 ab3d d32e a53d 2d2e 963d a54a fb3c
00000390: 394a e0bb 393f a53d 5bfa 893c a47c 0a3e
000003a0: a2c5 a03d 48fc c13c 47f5 1e3d a242 7e3d
000003b0: 950c bd3d 8283 b93d 5f09 5c3e 7c40 b23d
000003c0: d1e3 333e 92b1 423e d7fe 9f3d 4098 603e
000003d0: 9c7f 023e ea06 fa3d aff4 383d 7c55 2e3d
000003e0: 308f 303e 77b2 183e 62ad c63d d230 5ebd
000003f0: 73f2 12be 9e99 9a3c 322c b4bd 843a 2cbe

rnn_layer.rnn_layer.weight_hh_l0 f4 [256, 64]
-0.119814746 0.09936766 -0.10241978 -0.24441077 0.0007903023 -0.051866185 -0.07755278 -0.14154257
0.03758983 0.004306793 -0.064954385 -0.054475598 -0.18257023 -0.18584833 -0.07341252 -0.057808917
-0.048180763 -0.056788787 -0.077992246 -0.025762916 -0.09086425 -0.12288185 0.014260136 -0.124904394
-0.13403809 -0.011261873 -0.064831235 -0.07048122 -0.05554906 0.002004201 -0.071242526 -0.13108052
-0.025060447 -0.18744569 -0.18345268 -0.09176296 -0.14143486 -0.1805261 -0.036549143 -0.05570528
-0.028850721 0.04166573 -0.13335899 -0.14344728 -0.065921456 -0.041454706 -0.033214696 -0.035515152
-0.08894337 0.0035531428 -0.16056864 -0.06908692 -0.18073227 -0.10454332 -0.035813723 -0.18594143
0.086818635 -0.17214918 0.010379793 -0.06375221 -0.0430709 -0.12815095 -0.06552343 -0.08577362
0.1480117 0.05332672 -0.00088630535 -0.06385496 -0.10099191 0.04038951 -0.025952088 -0.10894782
-0.08303119 0.026461747 -0.11572066 -0.024135076 -0.013236508 -0.07026472 -0.046201035 0.17046385
0.10494676 -0.058229573 -0.016543519 -0.07924685 -0.060793903 0.0309107 0.03290724 -0.13468893
-0.049081374 -0.09218065 -0.09679857 -0.031726755 -0.022462668 -0.09889789 0.00995786 0.04850232
-0.013614066 0.087258324 0.06219408 -0.112565205 -0.004631163 -0.031208077 0.10841236 0.051916935
-0.020715903 0.0020917333 -0.05100042 0.018766826 0.009191317 0.05871226 0.033436097 -0.09143435
-0.061756898 0.064263694 -0.043529145 0.057039306 -0.104196995 0.0683239 0.02160877 -0.09991094
-0.014007909 0.040239044 0.0038526002 -0.01955343 0.003447356 0.011057392 -0.062657095 0.057760343
0.043836694 0.01790961 -0.17129733 -0.12370914 -0.10475703 0.063274935 -0.0038447648 0.059777517
-0.07596268 -0.04215577 -0.16068995 -0.16723403 0.015318552 -0.039534587 -0.032728046 -0.17767812
0.030599229 0.014322316 0.006195232 -0.15130885 -0.04097644 -0.14567684 0.15259491 -0.09323807
0.04783231 -0.045146953 0.0054574735 -0.05728612 0.09493683 -0.045070156 0.009886519 -0.10774003
-0.07084006 0.04137693 -0.016256036 -0.10532169 -0.061115924 0.018195558 0.0074452106 -0.09144492
0.0065990435 0.029948747 -0.0150599545 -0.0993224 0.004526271 -0.16927832 -0.13833041 -0.18431646
-0.08081457 -0.0064561777 0.076782316 -0.025572779 -0.18828785 0.061915245 -0.03889503 0.022859415
0.098422155 -0.1507969 -0.13777646 -0.14304139 0.13485874 0.047139324 -0.08778614 -0.043574143
0.008376437 0.07906895 -0.1305856 -0.1415946 -0.021979887 0.08212227 -0.005595786 -0.0031046348
0.09886411 -0.01788616 0.07220912 -0.023264242 0.083848394 0.053719275 0.02148187 0.0034369526
0.031334147 0.030433457 -0.014647439 0.052154448 -0.023786455 -0.22716035 0.22081646 -0.060688343
0.06803097 -0.18927863 -0.006584813 -0.008447775 0.05187668 -0.010679347 0.01941013 0.02168249
0.056854106 0.09163822 -0.1292146 -0.19330667 0.073796846 0.03301205 -0.002855631 -0.009536613
-0.06372516 -0.04402677 0.09324556 0.009846474 -0.034928363 -0.04593862 -0.07437581 0.07784612
-0.10118722 0.10444115 -0.07282281 -0.16208212 0.029645134 -0.055741847 0.07185325 -0.08128401
0.09176964 -0.12581164 0.020576565 0.016235914 -0.051888295 0.039358687 -0.1285446 -0.016824305
00000000: 6f61 f5bd 4681 cb3d 76c1 d1bd d146 7abe
00000010: 4a2c 4f3a a371 54bd fed3 9ebd 89f0 10be
00000020: cbf7 193d 0020 8d3b ce06 85bd ce21 5fbd
00000030: b1f3 3abe 064f 3ebe 4e59 96bd 0bc9 6cbd
00000040: 3159 45bd 5c9b 68bd 66ba 9fbd c00c d3bc
00000050: 0917 babd 7ba9 fbbd 58a3 693c e0cd ffbd
00000060: 4841 09be b883 38bc 3dc6 84bd 7558 90bd
00000070: 6987 63bd ea58 033b 9ae7 91bd f939 06be
00000080: 914b cdbc c3f1 3fbe 05db 3bbe 38ee bbbd
00000090: 4dd4 10be d5db 38be 8eb4 15bd 382b 64bd
000000a0: 5958 ecbc afa9 2a3d 428f 08be d8e3 12be
000000b0: d401 87bd 69cc 29bd 220c 08bd 5678 11bd
000000c0: f127 b6bd d8db 683b 1b6c 24be 717d 8dbd
000000d0: e111 39be cf1a d6bd 69b1 12bd 6e67 3ebe
000000e0: f8cd b13d e047 30be 0210 2a3c 8590 82bd
000000f0: 1d6b 30bd 013a 03be 2631 86bd 14aa afbd
00000100: 6190 173e 1e6d 5a3d f256 68ba 64c6 82bd
00000110: d9d4 cebd 796f 253d 7999 d4bc 0920 dfbd
00000120: 420c aabd 4ec6 d83c f4fe ecbd ecb6 c5bc
00000130: f0dd 58bc f3e6 8fbd 4c3d 3dbd 138e 2e3e
00000140: 54ee d63d 2282 6ebd 4686 87bc 2c4c a2bd
00000150: 0703 79bd 7038 fd3c bec9 063d e5eb 09be
00000160: 8d09 49bd 35c9 bcbd 543e c6bd eaf3 01bd
00000170: a103 b8bc fa8a cabd 4b26 233c 5eaa 463d
00000180: 880d 5fbc 7eb4 b23d 38bf 7e3d 9688 e6bd
00000190: 03c1 97bb 15a8 ffbc 4d07 de3d daa6 543d
000001a0: 66b4 a9bc 7615 093b d1e5 50bd e3bc 993c
000001b0: 2d97 163c 447c 703d 4af4 083d ef41 bbbd
000001c0: cdf4 7cbd af9c 833d 9e4b 32bd 0ca2 693d
000001d0: 3c65 d5bd 67ed 8b3d e004 b13c 1b9e ccbd
000001e0: 6e81 65bc b2d1 243d e87b 7c3b 842e a0bc
000001f0: 09ed 613b 102a 353c 5d52 80bd 1c96 6c3d
00000200: 1b8e 333d 2db7 923c 9168 2fbe 385b fdbd
00000210: db8a d6bd 4a96 813d 73f8 7bbb 45d9 743d
00000220: 5292 9bbd 87ab 2cbd e88b 24be 663f 2bbe
00000230: aafa 7a3c 05ef 21bd d80d 06bd 41f1 35be
00000240: 3cab fa3c 26a8 6a3c 5f01 cb3b b5f0 1abe
00000250: e9d6 27bd 4f2c 15be d741 1c3e 9af3 bebd
00000260: d0eb 433d 03ec 38bd 9bd4 b23b daa4 6abd
00000270: 3e6e c23d 7c9b 38bd 11fb 213c cea6 dcbd
00000280: 9814 91bd db7a 293d 612b 85bc e6b2 d7bd
00000290: b154 7abd da0e 953c f4f6 f33b 7947 bbbd
000002a0: ca3c d83b 1357 f53c 07be 76bc 8b69 cbbd
000002b0: 1d51 943b 4c57 2dbe 7da6 0dbe 74bd 3cbe
000002c0: 1c82 a5bd 588e d3bb 0c40 9d3d 017e d1bc
000002d0: 88ce 40be d79a 7d3d 6550 1fbd ab43 bb3c
000002e0: 8e91 c93d 816a 1abe 4615 0dbe 7179 12be
000002f0: 6918 0a3e 2a15 413d 38c9 b3bd cd7a 32bd
00000300: 533d 093c e7ee a13d 3bb8 05be 2dfe 10be
00000310: 2a0f b4bc b82f a83d db5c b7bb 2177 4bbb
00000320: 4479 ca3d ff85 92bc 60e2 933d a794 bebc
00000330: b5b8 ab3d be08 5c3d bffa af3c 7f3e 613b
00000340: 3c58 003d 964f f93c d0fb 6fbc e79f 553d
00000350: d0db c2bc b99c 68be b61d 623e 5794 78bd
00000360: d253 8b3d 42d2 41be 6ac5 d7bb 8968 0abc
00000370: a47c 543d 6ef8 2ebc fe01 9f3c 7a9f b13c
00000380: dadf 683d d2ac bb3d d550 04be 2ff2 45be
00000390: cd22 973d a537 073d 8a25 3bbb 743f 1cbc
000003a0: 5682 82bd 6a55 34bd 87f7 be3d 1b53 213c
000003b0: 0b11 0fbd 222a 3cbd 5852 98bd c96d 9f3d
000003c0: 3f3b cfbd 3ee5 d53d 2024 95bd dbf8 25be
000003d0: 5ada f23c 9051 64bd cc27 933d 3b78 a6bd
000003e0: b9f1 bb3d c4d4 00be 2f90 a83c 2e01 853c
000003f0: d288 54bd 9336 213d 32a1 03be 20d3 89bc

rnn_layer.rnn_layer.bias_ih_l0 f4 [256]
0.03602054 0.11189004 0.11149275 0.111267164 0.04528272 0.1294126 0.19484901 0.07419922
0.20341213 -0.025841393 0.119198896 0.0105923 -0.008495076 0.032255378 -0.063490406 0.049973216
0.13832219 -0.03388313 0.2312803 0.14882286 -0.03705416 0.009740364 0.19685301 0.22022222
0.0747569 0.082057595 0.042213757 0.06203536 0.040937122 0.15637185 0.10350689 -0.07154059
0.10737477 0.004442118 -0.030153818 0.03374612 0.014106405 0.07214259 0.06909694 0.16680487
-0.03409169 0.11373123 0.07926925 0.16908477 0.060305048 -0.0006255052 0.13407111 0.21972169
0.2652965 0.21696976 0.1823232 -0.045572776 0.0287822 0.08725647 -0.057058048 0.1459441
-0.061077293 0.07418103 0.019753143 0.18610533 0.19069724 0.061588954 0.055287845 0.1336901
-0.09942758 0.16415995 0.13262717 0.123784326 0.20388663 0.0019190906 0.07698016 0.013985106
0.03134314 0.004415406 -0.042408776 -0.05627775 0.012942608 0.12441938 0.17860503 0.14343216
0.16525783 0.21192181 0.04913743 0.11398699 0.025470434 -0.012738177 -0.03758087 0.30282387
-0.049473755 0.17108406 0.12596309 0.049611904 0.0634576 0.13070011 0.010699641 0.04034083
-0.028510202 -0.09203428 0.0012823511 0.14144932 0.056981206 -0.026882842 0.06032809 -0.044526465
0.20586662 -0.02713977 0.1601353 0.05163664 0.01767284 0.0415332 0.013145368 -0.044958744
-0.010154734 -0.0036527347 0.14966655 0.15348609 -0.018043675 -0.013180308 0.040741898 -0.039663944
0.12092661 0.05156962 -0.0030397025 0.16029699 0.16556723 0.025144964 0.081005275 0.12101261
0.042154543 0.08019314 0.02467227 -0.15974677 0.06021988 -0.14104785 0.025879933 0.03287898
0.08485779 0.021665681 -0.12769417 -0.023499493 -0.022995608 -0.132931 -0.04263548 0.09999159
-0.105914034 0.06441816 -0.002214183 -0.10782765 -0.123347 -0.05737065 0.12187586 0.027426854
-0.07696997 0.07699906 0.005829449 -0.05883246 -0.04056164 0.110185444 0.08042902 -0.07074716
0.10291734 -0.054135837 0.1255992 0.120066516 -0.016446099 0.01494052 0.091600426 -0.012525908
0.12832478 0.03950334 0.028327921 -0.090529814 -0.08130476 -0.00260076 0.1074307 0.018978346
-0.008835886 0.049217876 -0.09669931 -0.1216863 -0.0021414012 -0.0010168818 0.041608877 0.093700595
-0.031956263 -0.0842832 0.14109735 0.010263656 -0.16226856 -0.050698888 0.08982136 -0.013576823
0.20730999 0.18072326 0.20571548 0.1172177 0.098334365 0.23915432 0.043714575 0.13848422
0.09129606 0.13494544 0.1836507 0.14952993 0.018821051 0.022879193 -0.022663826 0.05612311
0.213635 0.08738863 0.25189883 0.058988586 0.13097923 -0.027120702 0.03241052 0.26373282
0.07573013 0.040387504 0.13888957 0.106016815 0.025149744 0.16571012 0.17824773 0.114552185
0.18927734 0.24643229 0.1501912 0.1746801 0.097128555 0.12164711 0.21366338 0.14618635
0.07186504 0.020136511 0.14557396 0.12572482 0.14752951 0.20570998 0.11579035 0.014235896
0.08531481 0.051039662 0.059808176 0.029481024 0.034169585 0.12398674 0.07270085 0.20220032
0.21271308 0.13534433 0.033447403 0.20099343 0.26139036 0.18576957 0.09180751 0.2151157
00000000: 468a 133d 9b26 e53d 5056 e43d 0ae0 e33d
00000010: 607a 393d bd84 043e 8086 473e c3f5 973d
00000020: 454b 503e 54b1 d3bc 8d1e f43d 548b 2d3c
00000030: ee2e 0bbc 371e 043d 4207 82bd b7b0 4c3d
00000040: 55a4 0d3e 09c9 0abd bed4 6c3e 0565 183e
00000050: 1ac6 17bd 0c96 1f3c d693 493e ef81 613e
00000060: 251a 993d d00d a83d 55e8 2c3d ca18 7e3d
00000070: afad 273d f11f 203e 6cfb d33d df83 92bd
00000080: 4ee7 db3d 308f 913b 2405 f7bc 5f39 0a3d
00000090: 8d1e 673c 7fbf 933d b282 8d3d e5ce 2a3e
000000a0: baa3 0bbd ebeb e83d eb57 a23d 8f24 2d3e
000000b0: 6d02 773d f2f8 23ba f049 093e b9fe 603e
000000c0: f1d4 873e 522d 5e3e efb2 3a3e 85aa 3abd
000000d0: a6c8 eb3c 85b3 b23d b3b5 69bd 5f72 153e
000000e0: 2f2c 7abd 39ec 973d 58d1 a13c 6592 3e3e
000000f0: 2346 433e b344 7c3d 8275 623d 0fe6 083e
00000100: b0a0 cbbd 8c19 283e 6bcf 073e a382 fd3d
00000110: a8c7 503e ff89 fb3a c6a7 9d3d c921 653c
00000120: aa61 003d 1caf 903b d3b4 2dbd 7f83 66bd
00000130: 3c0d 543c 97cf fe3d 3de4 363e e1df 123e
00000140: 5939 293e 0802 593e 5444 493d 0372 e93d
00000150: 5fa7 d03c c9b3 50bc 66ee 19bd bb0b 9b3e
00000160: fea4 4abd a930 2f3e 78fc 003e da35 4b3d
00000170: 0ff6 813d 40d6 053e 8c4d 2f3c 6d3c 253d
00000180: 3a8e e9bc 787c bcbd 9014 a83a 17d8 103e
00000190: 2065 693d 6839 dcbc 961a 773d 6261 36bd
000001a0: b3ce 523e 3954 debc 82fa 233e f180 533d
000001b0: a2c6 903c b71e 2a3d ab5f 573c a926 38bd
000001c0: 0b60 26bc b862 6fbb 3042 193e 752b 1d3e
000001d0: 54d0 93bc 38f2 57bc fae0 263d a976 22bd
000001e0: 5fa8 f73d aa3a 533d bf35 47bb e524 243e
000001f0: 758a 293e d0fc cd3c 18e6 a53d 76d5 f73d
00000200: 3eaa 2c3d 4d3c a43d 801d ca3c a894 23be
00000210: 1fa9 763d d96e 10be 2702 d43c 1cac 063d
00000220: ecc9 ad3d 3a7c b13c 43c2 02be 0282 c0bc
00000230: 4961 bcbc 101f 08be 8ba2 2ebd 64c8 cc3d
00000240: 75e9 d8bd abed 833d d41b 11bb bed4 dcbd
00000250: 5a9d fcbd 7dfd 6abd 0d9a f93d 48ae e03c
00000260: 6ea2 9dbd afb1 9d3d f604 bf3b 4efa 70bd
00000270: f623 26bd e8a8 e13d f8b7 a43d e3e3 90bd
00000280: 54c6 d23d 8abd 5dbd 149d 003e 6fe5 f53d
00000290: f8b9 86bc 15c9 743c 0199 bb3d 7739 4dbc
000002a0: 9267 033e 41ce 213d f50f e83c b267 b9bd
000002b0: 1c83 a6bd 8371 2abb a004 dc3d 7a78 9b3c
000002c0: 64c4 10bc af98 493d 4a0a c6bd ab36 f9bd
000002d0: c056 0cbb e448 85ba 126e 2a3d 19e6 bf3d
000002e0: 92e4 02bd ac9c acbd d37b 103e e528 283c
000002f0: bb29 26be a3a9 4fbd 43f4 b73d 5371 5ebc
00000300: 1249 543e 850f 393e 14a7 523e d50f f03d
00000310: 8763 c93d dfe4 743e 0e0e 333d cfce 0d3e
00000320: 6ef9 ba3d 232f 0a3e ee0e 3c3e 601e 193e
00000330: 9b2e 9a3c 256d bb3c 7da9 b9bc 59e1 653d
00000340: 22c3 5a3e cff8 b23d e2f8 803e 049e 713d
00000350: 6b1f 063e 3c2c debc e5c0 043d fd07 873e
00000360: 6618 9b3d 5e6d 253d 1139 0e3e 581f d93d
00000370: d606 ce3c eaaf 293e 9386 363e 569a ea3d
00000380: ebd1 413e bf58 7c3e b9cb 193e 57df 323e
00000390: 56eb c63d 1f22 f93d 93ca 5a3e e0b1 153e
000003a0: fa2d 933d 53f5 a43c 5711 153e 02be 003e
000003b0: fa11 173e a3a5 523e 7e23 ed3d ad3d 693c
000003c0: 88b9 ae3d f70e 513d 6bf9 743d 3082 f13c
000003d0: 68f5 0b3d c3ec fd3d 2fe4 943d 9a0d 4f3e
000003e0: 75d1 593e b497 0a3e 2500 093d 39d1 4d3e
000003f0: f5d4 853e 613a 3e3e 9305 bc3d 4a47 5c3e

rnn_layer.rnn_layer.bias_hh_l0 f4 [256]
0.077764094 0.099043876 0.063506804 0.16946058 0.032736484 0.030574037 0.16933988 0.21082367
0.0010601027 0.16065256 0.04646997 -0.017487234 0.005949342 0.16760887 0.15712395 0.24084862
0.05760248 0.009755979 0.26090086 -0.020146456 0.15941195 0.18466114 0.15205726 0.0030780863
0.22803152 0.052233048 0.12880212 0.11636423 0.17652549 0.052760806 0.031384878 0.07167056
0.225006 0.2277719 0.052820556 0.0040186727 0.06793004 0.027631845 0.02708696 -0.019422498
-0.011284111 0.14941815 0.042834476 0.04458461 0.07294157 0.06372722 0.053755507 0.00038099516
0.12449695 0.079281315 -0.049423963 -0.08403189 0.1292156 0.16519463 0.07531614 0.085175864
-0.040009327 0.019772751 0.11975617 0.053949874 -0.010826878 0.10166834 0.009048493 0.14758627
0.077335075 0.013091819 0.062311973 -0.049254198 -0.035356842 -0.04735196 0.02787197 0.07890131
0.061032724 -0.013983388 0.16729839 0.043380883 -0.06907557 0.035368733 0.011447625 0.037189577
0.13400164 0.16361259 -0.018527413 0.09514382 0.041360855 -0.02969229 -0.011907875 0.3000282
0.123552464 0.1607488 0.10653042 0.13508272 0.055924788 0.09133738 0.17217992 0.12339317
0.040558822 0.01858226 -0.014944231 -0.036147624 0.19625963 0.030647969 0.004698941 0.057416093
0.11353915 0.13111633 0.14162594 0.087836735 -0.05582931 0.0478021 -0.015451851 0.13101208
-0.02116466 0.020936858 0.012217835 0.13223653 0.0045372318 0.050649926 0.06472004 0.08759557
0.24428613 0.028690679 0.21079789 0.10994977 0.09772038 0.027513415 0.0070387023 -0.0052413163
-0.044298347 0.012641086 -0.19079767 -0.14358683 -0.13130274 0.081573576 -0.11158717 0.004126563
0.08095283 -0.026672542 0.033241455 -0.11385396 -0.12306979 -0.01852579 -0.0022080897 0.12614794
-0.12504992 0.054601286 -0.17805676 0.043882202 -0.015544782 -0.052805383 -0.06115926 0.046582557
-0.02629599 0.09570349 -0.0614875 0.07578747 0.12215646 0.06625786 -0.06245524 -0.098473206
-0.0351236 -0.0020522012 0.08739815 -0.120921336 -0.08948572 -0.082221396 0.1090202 -0.016549421
-0.01586236 -0.16466178 0.008898119 -0.10174697 -0.09189223 0.08364192 -0.07694582 -0.033305746
-0.13757819 0.14096653 -0.116998814 0.020465929 -0.09663861 -0.04927202 -0.10301488 0.12708373
-0.060707282 -0.050438464 -0.0033154911 0.11465659 -0.044387657 0.02892863 0.058632586 -0.065612435
0.13979076 0.09727629 0.17315152 0.032315157 0.037114386 0.20893435 0.22609678 0.024854986
0.08975808 0.16174416 0.019674556 0.07194054 0.06272132 0.14202362 0.0026472434 0.22441071
0.23006123 0.115930304 0.19468747 0.014696881 0.22455126 0.20354216 0.03133019 0.217134
0.23929748 0.15491593 0.056803208 0.1801114 0.032644175 0.07308476 0.052761745 -0.020181375
0.18902598 0.038647182 0.098795526 0.11045207 0.118866175 0.14957811 0.17974947 0.15417789
0.090903684 0.20785157 0.12324569 -0.009017529 0.089924015 0.07294257 0.19105634 0.023131229
0.19795543 0.21600585 0.13902442 0.1175238 0.14785236 0.044746745 0.1897096 0.0834881
0.0341653 0.027460607 0.013040682 0.13128805 0.13741057 0.027191587 0.21354292 0.04669719
00000000: c842 9f3d 84d7 ca3d db0f 823d 1387 2d3e
00000010: b116 063d 6776 fa3c 6f67 2d3e 29e2 573e
00000020: 25f3 8a3a 1b82 243e 4c57 3e3d 6341 8fbc
00000030: b3f2 c23b a9a1 2b3e 1ae5 203e 05a1 763e
00000040: 94f0 6b3d 8bd7 1f3c cc94 853e 2e0a a5bc
00000050: e33c 233e cf17 3d3e e6b4 1b3e b8b9 493b
00000060: 1881 693e 52f2 553d b4e4 033e 5f50 ee3d
00000070: 19c3 343e b71b 583d 6e8d 003d 04c8 923d
00000080: f967 663e 093d 693e 5e5a 583d 12af 833b
00000090: e81e 8b3d 2e5c e23c 79e5 dd3c ee1b 9fbc
000000a0: fee0 38bc 1201 193e 3473 2f3d 5a9e 363d
000000b0: 6462 953d 6b83 823d bc2e 5c3d 4ec0 c739
000000c0: 42f8 fe3d 3e5e a23d c870 4abd e918 acbd
000000d0: 1851 043e c828 293e 593f 9a3d af70 ae3d
000000e0: d2e0 23bd 77fa a13c b942 f53d 8bfa 5c3d
000000f0: 3863 31bc 7e37 d03d 2140 143c db20 173e
00000100: da61 9e3d 127f 563c d73a 7f3d c5be 49bd
00000110: 56d2 10bd 21f4 41bd c253 e43c 0397 a13d
00000120: 73fd 793d 951a 65bc 4550 2b3e 27b0 313d
00000130: 7e77 8dbd cede 103d d28e 3b3c 1954 183d
00000140: ba37 093e 0f8a 273e cdc6 97bc c3da c23d
00000150: 006a 293d 3f3d f3bc 3f19 43bc 4c9d 993e
00000160: 1309 fd3d 559b 243e 9f2c da3d 2053 0a3e
00000170: 6411 653d 180f bb3d ef4f 303e 8fb5 fc3d
00000180: 0221 263d d339 983c a6d8 74bc 880f 14bd
00000190: 49f8 483e 7311 fb3c 93f9 993b 232d 6b3d
000001a0: 3787 e83d 5c43 063e 6406 113e bfe3 b33d
000001b0: 46ad 64bd 23cc 433d c329 7dbc 0828 063e
000001c0: 8261 adbc c683 ab3c 502d 483c 0369 073e
000001d0: 0fad 943b 4c76 4f3d f18b 843d 4e65 b33d
000001e0: 2526 7a3e b708 eb3c 67db 573e 582d e13d
000001f0: 9f21 c83d d063 e13c eaa4 e63b 59bf abbb
00000200: 2f72 35bd 8f1c 4f3c 7760 43be 6d08 13be
00000210: 3a74 06be 0c10 a73d d087 e4bd 1f38 873b
00000220: 99ca a53d 6080 dabc 3128 083d 442c e9bd
00000230: 040c fcbd 66c3 97bc 99b5 10bb ed2c 013e
00000240: 160d 00be 99a5 5f3d 8354 36be d3bd 333d
00000250: 8baf 7ebc 754a 58bd 2282 7abd 5acd 3e3d
00000260: b06a d7bc 3100 c43d 51da 7bbd 7636 9b3d
00000270: 2b2d fa3d 33b2 873d 11d1 7fbd 52ac c9bd
00000280: c4dd 0fbd 397e 06bb cdfd b23d 9ba5 f7bd
00000290: 4a44 b7bd b163 a8bd fc45 df3d a792 87bc
000002a0: c8f1 81bc 199d 28be 6bc9 113c b760 d0bd
000002b0: fe31 bcbd 744c ab3d c595 9dbd 9b6b 08bd
000002c0: 4ce1 0cbe 8859 103e 139d efbd 2aa8 a73c
000002d0: 77ea c5bd 75d1 49bd 77f9 d2bd 3d22 023e
000002e0: 33a8 78bd 9098 4ebd b648 59bb 13d1 ea3d
000002f0: d5cf 35bd bcfb ec3c b928 703d d05f 86bd
00000300: 4f25 0f3e cb38 c73d a24e 313e e65c 043d
00000310: 4105 183d e3f2 553e ea85 673e af9c cb3c
00000320: 16d3 b73d 43a0 253e 892c a13c 9055 933d
00000330: 0974 803d a46e 113e 607d 2d3b eccb 653e
00000340: 2c95 6b3e de6c ed3d 275c 473e 30cb 703c
00000350: c4f0 653e 5b6d 503e 1654 003d 6058 5e3e
00000360: 660a 753e 48a2 1e3e 7baa 683d 1f6f 383e
00000370: e6b5 053d 76ad 953d b31c 583d 6953 a5bc
00000380: 0790 413e 824c 1e3d 4f55 ca3d b234 e23d
00000390: 1c70 f33d 012b 193e 3f10 383e cfe0 1d3e
000003a0: b62b ba3d 0bd7 543e 3c68 fc3d 42be 13bc
000003b0: 152a b83d ea62 953d 46a4 433e b47d bd3c
000003c0: d4b4 4a3e a330 5d3e 6b5c 0e3e 51b0 f03d
000003d0: 9c66 173e 5d48 373d 3c43 423e cffb aa3d
000003e0: eaf0 0b3d 11f5 e03c 96a8 553c 6070 063e
000003f0: 5bb5 0c3e e4c0 de3c ffaa 5a3e 8d45 3f3d

rnn_layer.rnn_layer.weight_ih_l0_reverse f4 [256, 50]
-0.11658058 0.014923958 -0.13460663 -0.0043719425 -0.07817664 0.060422797 0.12529708 0.049808145
0.15073867 0.07142085 0.17466371 -0.015220115 0.15443759 0.29269606 0.35283658 0.18480626
-0.017851492 0.053781357 -0.0034573036 -0.08079147 0.11388727 -0.04038829 0.09749068 0.15182148
-0.022411032 -0.02297061 -0.06973473 -0.17649043 0.07515965 -0.10348996 0.10779004 0.19412915
-0.03828214 0.119515605 0.049852964 0.0563312 0.1060627 0.1399135 0.20970097 0.046479195
0.18947911 0.12723926 0.17648791 0.2083667 0.21563011 0.16401823 0.114931844 0.1858545
0.023227809 0.030771466 -0.09081766 -0.012913407 0.007925835 -0.051769905 0.009861013 -0.048864078
0.041833237 0.045844443 0.06169569 0.1307885 0.117975034 -0.015546842 -0.07099574 0.1561027
0.16578169 0.052127685 0.18619978 0.1647523 0.103679046 0.090982966 0.17469932 0.081855714
0.05363674 -0.01430983 0.16701142 0.06266439 0.18210536 -0.022302872 0.14256613 0.12056352
0.12209178 0.04847018 0.11307423 0.06814007 0.102752596 -0.027284522 0.033201985 0.006992372
0.08609145 0.035959367 0.068841584 0.11283948 0.13830987 0.16724351 0.082974285 0.1568851
0.089097455 0.13349754 0.015723541 0.18726927 0.021366982 -0.07898991 0.026999645 -0.013307755
-0.13395278 -0.054800928 -0.06720262 -0.003273885 -0.1650378 -0.047417857 -0.25628695 -0.18428035
-0.19304806 -0.02097991 0.15537986 0.3677847 0.15073386 0.122349285 0.12791249 0.070281535
0.09796575 0.14784457 0.2339262 0.06372456 0.18609217 0.19259804 0.1386193 0.1468622
0.051966377 0.15051912 0.29000977 -0.04530261 0.026058909 -0.08096895 -0.038547236 0.13262533
0.09824194 0.05797719 0.035729773 0.07445279 -0.0125304 -0.02694019 0.22654514 0.18194027
0.06313869 0.11476496 0.110970564 0.009180547 0.24093685 0.14863922 -0.10663633 0.0039322334
0.037415437 0.030951245 0.0033881108 -0.06827693 -0.07310848 -0.12364925 -0.11917853 -0.073865734
-0.0540884 0.05920668 0.09542841 -0.107042946 0.068895414 0.06963687 -0.0828766 0.07106534
0.022907905 0.016253019 0.1755168 0.16700323 0.122459516 0.15172274 0.106368035 -0.07696314
0.016680337 0.12326492 -0.011905846 0.07630617 0.019910824 0.07100827 0.055161476 0.03230173
0.059688315 0.0155105535 0.033108886 0.07950296 0.10827377 0.10618629 0.2127888 0.19646242
0.2373275 0.15582956 0.11405899 0.111492194 0.039965 0.035668537 0.17143221 -0.0466479
-0.080241576 -0.06977635 0.07856925 0.014075588 -0.0617782 -0.029725263 -0.06406223 0.10718731
0.022076692 0.1663151 -0.007745454 0.040142376 0.02200876 0.1484541 0.15811202 0.036459956
-0.099652365 -0.029786602 0.0013578656 0.054321148 0.18774073 0.06129742 0.051422 0.036241494
0.08270099 0.011113391 0.09353293 0.042687193 0.15209849 0.05821547 0.072931804 0.097191565
0.08043814 0.17088646 -0.020368857 0.07508185 0.039063696 0.2354918 0.14187478 0.037256323
0.062306885 0.105529666 0.045809697 0.248175 0.24851105 0.0635433 0.07607772 0.07611619
0.1828494 0.19156767 -0.09325886 -0.07277609 0.14710514 0.10959225 -0.05088755 -0.014822464
00000000: cdc1 eebd 9e83 743c 52d6 09be 8342 8fbb
00000010: 131b a0bd e57d 773d e14d 003e a003 4c3d
00000020: 3d5b 1a3e 1845 923d 0bdb 323e ca5d 79bc
00000030: e324 1e3e 42dc 953e ffa6 b43e da3d 3d3e
00000040: 4b3d 92bc d749 5c3d ee93 62bb 0076 a5bd
00000050: bb3d e93d 316e 25bd 32a9 c73d 1777 1b3e
00000060: 5797 b7bc dc2c bcbc 15d1 8ebd e8b9 34be
00000070: 4ded 993d 8bf2 d3bd 06c1 dc3d cbc9 463e
00000080: bccd 1cbd 99c4 f43d 9f32 4c3d 8bbb 663d
00000090: 6737 d93d 7c45 0f3e dabb 563e f860 3e3d
000000a0: d006 423e 024b 023e 3fb9 343e 155e 553e
000000b0: 24ce 5c3e 65f4 273e 6361 eb3d a450 3e3e
000000c0: 3f48 be3c 7114 fc3c 9cfe b9bd c192 53bc
000000d0: 5ddb 013c ae0c 54bd 1690 213c b325 48bd
000000e0: 5459 2b3d 62c7 3b3d 9fb4 7c3d 6ced 053e
000000f0: e59c f13d 2eb8 7ebc 3766 91bd 63d9 1f3e
00000100: adc2 293e d783 553d 28ab 3e3e d4b4 283e
00000110: ae55 d43d 4755 ba3d 61e4 323e f8a3 a73d
00000120: 33b2 5b3d c773 6abc 0b05 2b3e 3056 803d
00000130: d479 3a3e 83b4 b6bc dbfc 113e 02ea f63d
00000140: 410b fa3d ab88 463d 7693 e73d 058d 8b3d
00000150: f46f d23d ca83 dfbc cefe 073d 4520 e53b
00000160: b750 b03d 214a 133d d1fc 8c3d 6318 e73d
00000170: 1aa1 0d3e e241 2b3e 6cee a93d 7da6 203e
00000180: ba78 b63d 94b3 083e a8ce 803c 84c3 3f3e
00000190: cf09 af3c 76c5 a1bd 5c2e dd3c c508 5abc
000001a0: eb2a 09be f076 60bd 87a1 89bd ad8e 56bb
000001b0: abff 28be 3a39 42bd 0b38 83be fdb3 3cbe
000001c0: 64ae 45be 0fde abbc e61b 1f3e 474e bc3e
000001d0: fa59 1a3e 4392 fa3d 7efb 023e c4ef 8f3d
000001e0: 44a2 c83d 9164 173e 5a8a 6f3e 0682 823d
000001f0: f28e 3e3e 6c38 453e 38f2 0d3e 0b63 163e
00000200: b2da 543d af21 1a3e 297c 943e 3b8f 39bd
00000210: 7e79 d53c 0dd3 a5bd b5e3 1dbd efce 073e
00000220: 1233 c93d 7d79 6d3d 6259 123d b47a 983d
00000230: 4f4c 4dbc acb1 dcbc 73fb 673e 8d4e 3a3e
00000240: dc4e 813d e409 eb3d 8944 e33d 016a 163c
00000250: 26b8 763e e134 183e 2664 dabd f7d9 803b
00000260: ee40 193d 778d fd3c 110b 5e3b c6d4 8bbd
00000270: e6b9 95bd d13b fdbd e013 f4bd eb46 97bd
00000280: cc8b 5dbd b482 723d f86f c33d 5539 dbbd
00000290: 0a19 8d3d c69d 8e3d 35bb a9bd b48a 913d
000002a0: 5ca9 bb3c 0d25 853c adba 333e e502 2b3e
000002b0: 0ecc fa3d 355d 1b3e 7cd7 d93d da9e 9dbd
000002c0: 34a5 883c 5272 fc3d bd10 43bc 6946 9c3d
000002d0: 061c a33c c96c 913d 00f1 613d d24e 043d
000002e0: bc7b 743d fa1f 7e3c 2f9d 073d 73d2 a23d
000002f0: a3be dd3d 3378 d93d 4fe5 593e 722d 493e
00000300: fb05 733e c991 1f3e c297 e93d 0556 e43d
00000310: 57b2 233d 2c19 123d ed8b 2f3e de11 3fbd
00000320: b255 a4bd e7e6 8ebd eae8 a03d 4c9d 663c
00000330: 230b 7dbd 6582 f3bc 0f33 83bd 0585 db3d
00000340: 2eda b43c 814e 2a3e 94cd fdbb 556c 243d
00000350: b74b b43c 5a04 183e 1ee8 213e 0957 153d
00000360: 8a16 ccbd 0803 f4bc 69fa b13a da7f 5e3d
00000370: 1b3f 403e 0113 7b3d e09f 523d f671 143d
00000380: 235f a93d f114 363c 318e bf3d c4d8 2e3d
00000390: b5bf 1b3e 5873 6e3d 455d 953d 5f0c c73d
000003a0: c0bc a43d dcfc 2e3e 97dc a6bc 83c4 993d
000003b0: 4101 203d c324 713e 9f47 113e 169a 183d
000003c0: 8135 7f3d f01f d83d f3a2 3b3d 9621 7e3e
000003d0: ae79 7e3e fd22 823d a3ce 9b3d cee2 9b3d
000003e0: e03c 3b3e 512a 443e 80fe bebd a10b 95bd
000003f0: bba2 163e e771 e03d 776f 50bd ecd9 72bc

rnn_layer.rnn_layer.weight_hh_l0_reverse f4 [256, 64]
-0.14078718 -0.13328838 -0.19943276 -0.038514286 0.007468589 -0.08647252 0.08317315 -0.12499534
0.039366454 0.0042676437 -0.10779336 -0.051984 0.06567491 -0.152798 -0.083880536 0.22232775
-0.0186032 -0.04844816 0.08782171 0.044372316 0.14003491 -0.14700751 -0.15053445 -0.031516224
0.03053105 0.07774355 -0.056595456 -0.023574468 -0.049370605 -0.13464382 0.014663868 0.13539676
0.034286946 -0.031013498 -0.07496378 -0.12676764 -0.0031084775 0.044274136 0.017203672 -0.15625006
-0.17639369 -0.1867935 -0.06125172 0.070484675 -0.051175747 -0.0995702 0.075030275 -0.011358774
0.08076554 -0.01746274 -0.056595016 0.035703044 0.022371573 -0.15394433 -0.1427517 0.1147411
0.036029167 0.08541425 -0.118862525 -0.21277553 -0.032672934 0.12388854 0.0089216 0.0713168
0.17445678 -0.10228674 -0.107444815 -0.115498215 -0.044825923 -0.048476633 0.0078721745 -0.1303115
-0.00063493854 0.018276192 -0.06499063 0.078220956 0.035880797 0.05170716 0.05892322 0.114291616
0.06470774 0.0532057 0.262863 -0.006810786 0.21142505 -0.06373011 0.14677554 0.08262294
0.023015555 -0.21094762 -0.040677853 -0.065612294 -0.018220244 0.038474075 -0.036647514 -0.0048521888
-0.061084196 -0.009339217 0.042846892 -0.045149922 0.042916413 0.042706717 0.07557415 0.16714293
-0.024302933 0.030714376 -0.20537563 0.10096981 -0.018908018 0.07136687 0.052354366 -0.13398153
-0.017541058 -0.008161951 0.056658637 -0.10993862 -0.1255344 -0.03229135 0.034552414 0.033007387
0.028603135 0.13567697 -0.10725159 0.32648483 -0.01349752 -0.003376156 0.014478468 0.005256807
-0.018931981 -0.021814147 -0.055585116 -0.08585753 -0.013678404 -0.13006309 -0.08392405 0.0875913
-0.05135618 0.067081295 -0.06903911 0.0014054776 -0.07476624 -0.009146875 -0.12298621 0.2222911
0.13297588 -0.07218253 0.04141552 0.030148918 0.061808392 0.11113477 0.06770097 -0.0021753914
0.09976597 -0.07080406 0.061752684 0.059895393 0.12095466 -0.043713175 0.08098157 0.1540544
0.06298779 0.011072169 0.038784377 0.12086821 -0.0104952445 0.19386835 -0.0063356315 0.004161417
0.05074989 0.11248606 -0.038284022 -0.058767095 0.02829982 0.15291058 0.11364615 0.050210997
0.006793227 0.071136355 0.03297825 0.034566097 -0.0926926 0.08449157 0.107522674 0.043853626
0.0989116 0.065725945 0.08953593 0.13028856 0.013948825 -0.039315533 0.13893302 0.0685047
0.0067781564 -0.12805173 -0.050615534 -0.044732366 0.043170728 -0.16319111 0.06841509 0.05110137
-0.054328702 -0.015650824 -0.09693812 0.1878267 0.023687143 0.0653323 0.0048031695 0.0029002617
-0.000995289 -0.0137783745 0.08069842 0.012371416 0.09070701 0.06307306 -0.007990848 -0.030081877
-0.08880684 -0.05202307 -0.0004756105 -0.0645107 0.028639508 -0.09044797 0.058349688 -0.03206558
0.054609206 0.04526858 -0.13186526 -0.08440702 0.05125455 0.06917465 -0.018524505 -0.08893584
-0.06432274 -0.0007671443 -0.21599409 -0.10175109 -0.07202264 0.15294088 0.03388189 -0.07917356
-0.14304046 0.0070919595 -0.039521925 -0.04751355 -0.1168565 -0.072890446 0.07083419 0.040723387
-0.024741344 0.121069394 -0.08018062 -0.025548015 0.12152316 -0.05850295 0.046891052 -0.09299772
00000000: 842a 10be c07c 08be 1a38 4cbe 28c1 1dbd
00000010: 11bb f43b 8118 b1bd af56 aa3d 8ffd ffbd
00000020: b83e 213d 97d7 8b3b c4c2 dcbd 2ded 54bd
00000030: 9180 863d 1477 1cbe 8fc9 abbd e3a9 633e
00000040: bd65 98bc 9471 46bd dedb b33d bfbf 353d
00000050: 5065 0f3e 2389 16be b425 1abe 2817 01bd
00000060: 411c fa3c 0338 9f3d a3d0 67bd 3e1f c1bc
00000070: d538 4abd 12e0 09be b840 703c 73a5 0a3e
00000080: 7870 0c3d 0510 febc 9c86 99bd 60cf 01be
00000090: 99b7 4bbb cc58 353d b7ee 8c3c 0400 20be
000000a0: 8ca0 34be cc46 3fbe 15e3 7abd 455a 903d
000000b0: a99d 51bd 76eb cbbd 79a9 993d 271a 3abc
000000c0: 6768 a53d 050e 8fbc 2dd0 67bd 5b3d 123d
000000d0: 9744 b73c 95a3 1dbe 802d 12be 62fd ea3d
000000e0: 5293 133d abed ae3d 326e f3bd d4e1 59be
000000f0: 0ed4 05bd 46b9 fd3d e72b 123c 8b0e 923d
00000100: cca4 323e b67b d1bd 070c dcbd 548a ecbd
00000110: 639b 37bd 6f8f 46bd 4bfa 003c 6170 05be
00000120: 0172 26ba f4b7 953c cf19 85bd 4f32 a03d
00000130: bef7 123d e3ca 533d 7959 713d b911 ea3d
00000140: 7e85 843d 38ee 593d fb95 863e 042d dfbb
00000150: cf7f 583e ef84 82bd 544c 163e 3736 a93d
00000160: 1e8b bc3c a702 58be d29d 26bd bd5f 86bd
00000170: 9f42 95bc fe96 1d3d b41b 16bd 1cff 9ebb
00000180: 6c33 7abd 8403 19bc 3980 2f3d 20ef 38bd
00000190: 1fc9 2f3d 3ded 2e3d 9fc6 9a3d 8427 2b3e
000001a0: f216 c7bc b79c fb3c fd4d 52be 42c9 ce3d
000001b0: fde4 9abc cb28 923d 8871 563d 7432 09be
000001c0: 44b2 8fbc b4b9 05bc e312 683d 8027 e1bd
000001d0: 178c 00be ef43 04bd d586 0d3d c132 073d
000001e0: 1f51 ea3c e7ee 0a3e b9a6 dbbd 0529 a73e
000001f0: b424 5dbc 8042 5dbb 1937 6d3c 4b41 ac3b
00000200: 3e17 9bbc 95b3 b2bc 38ad 63bd 13d6 afbd
00000210: 621b 60bc 422f 05be 5fe0 abbd 1163 b33d
00000220: dc5a 52bd eb61 893d 6064 8dbd 0138 b83a
00000230: 0b1f 99bd c6dc 15bc 32e0 fbbd 47a0 633e
00000240: d42a 083e 6fd4 93bd 52a3 293d ddfa f63c
00000250: cc2a 7d3d a09a e33d cea6 8a3d 0391 0ebb
00000260: 1a52 cc3d b801 91bd 62f0 7c3d df54 753d
00000270: 14b7 f73d 960c 33bd aad9 a53d 70c0 1d3e
00000280: beff 803d 0b68 353c 5edc 1e3d c189 f73d
00000290: 3ff4 2bbc 6d85 463e 219b cfbb 7f5c 883b
000002a0: 1edf 4f3d 175f e63d b5cf 1cbd c4b5 70bd
000002b0: 06d5 e73c 9794 1c3e 50bf e83d 0caa 4d3d
000002c0: b899 de3b f0af 913d 3414 073d 2e95 0d3d
000002d0: 9ed5 bdbd eb09 ad3d d934 dc3d dc9f 333d
000002e0: 2a92 ca3d 539b 863d 9d5e b73d 5d6a 053e
000002f0: 9d89 643c 5309 21bd 7544 0e3e 314c 8c3d
00000300: 4c1b de3b fe1f 03be 3c52 4fbd 4939 37bd
00000310: cad3 303d 921b 27be 361d 8c3d ac4f 513d
00000320: c687 5ebd 2836 80bc 7e87 c6bd a455 403e
00000330: 8a0b c23c f1cc 853d e863 9d3b 5112 3e3b
00000340: 5b74 82ba b1be 61bc 3745 a53d 7bb1 4a3c
00000350: 99c4 b93d 732c 813d 0cec 02bc 456e f6bc
00000360: 5ce0 b5bd 2516 55bd 5c5b f9b9 301e 84bd
00000370: 679d ea3c c93c b9bd 1500 6f3d 3357 03bd
00000380: e7ad 5f3d 8c6b 393d b007 07be 96dd acbd
00000390: 4bf0 513d 70ab 8d3d b4c0 97bc fe23 b6bd
000003a0: a4bb 83bd 2f1a 49ba 8e2d 5dbe e062 d0bd
000003b0: 9b80 93bd 899c 1c3e bdc7 0a3d bf25 a2bd
000003c0: 3379 12be ab63 e83b bee1 21bd 919d 42bd
000003d0: 7652 efbd 9647 95bd 8411 913d 91cd 263d
000003e0: 5cae cabc 3bf3 f73d bd35 a4bd 124a d1bc
000003f0: 22e1 f83d caa0 6fbd d510 403d 9775 bebd

rnn_layer.rnn_layer.bias_ih_l0_reverse f4 [256]
-0.0139634535 0.08198543 0.0061717173 0.14234717 0.026388627 0.05093832 0.16304468 -0.051480435
0.15915461 0.088041596 -0.038133845 0.18856865 0.12664917 0.19135503 0.04106198 -0.019783933
0.1339897 -0.036426596 0.23245744 0.0757086 0.02233753 0.16228311 0.21105862 0.20416167
-0.008995535 0.18682356 -0.040284563 0.14515904 0.15605822 -0.022621935 0.06257998 0.14079751
0.043029502 0.025220213 0.06026149 0.047444835 0.063753136 0.12028599 0.1003769 0.14218542
0.14987333 0.2549395 0.11146773 0.20567377 0.06263915 0.030783316 0.1594678 0.05287858
0.005524543 0.1900348 -0.033128604 0.16968188 0.11192315 -0.032898564 0.09270546 0.1414517
0.05190271 0.22182702 0.18235579 0.023066187 0.049419638 0.25796422 0.027510094 0.13429177
0.11465667 0.15621538 -0.05503034 0.07805978 0.14272025 -0.07074192 0.009455699 -0.08701855
0.109343626 0.010253823 -0.003510693 -0.10278717 -0.008898551 0.16100511 0.034706514 0.20028484
0.1064575 0.121692844 0.06748469 -0.016608132 -0.046003986 -0.011345589 0.09870807 -0.013274009
0.090836324 0.044808634 0.026759194 0.009290538 -0.033976153 0.12419748 0.13738675 0.10235365
0.071976215 0.0711736 -0.054979544 0.08394066 0.14042135 -0.040567197 0.074105576 -0.06550218
0.07310916 -0.010863984 0.08050475 -0.0007259648 0.122245744 0.008895132 0.007658957 0.06989215
-0.068525545 -0.025194103 0.21776254 0.14550076 0.031880006 0.21345507 0.11498357 0.062147208
-0.05003437 -0.03374358 0.107450224 0.020862473 0.06573786 0.035672363 0.020977097 -0.04272636
0.016913706 -0.05744646 -0.062190764 -0.11696301 0.048827715 -0.08545479 -0.07969576 0.12152716
-0.0042019878 -0.13992205 0.09925037 0.02646017 -0.074375205 0.023995195 -0.050716985 0.17340438
-0.055262454 -0.09792712 3.4824894e-05 -0.091984466 -0.14105204 -0.09806214 -0.03532774 0.007024157
0.017608715 0.032784346 -0.08010775 -0.0829782 0.086934924 -0.031542577 0.07071237 0.008937447
0.0031958628 0.11688895 -0.07032696 0.0007725068 -0.058392074 -0.003489531 0.106063366 0.032534815
0.12227891 -0.011020329 0.05811147 -0.010486019 0.06134845 0.06857431 0.12127237 0.10861041
-0.06370203 -0.07325734 -0.027803056 -0.07060182 0.094158106 0.13506031 0.07608287 0.019277047
-0.0035338176 0.0041698245 0.011859166 0.008209861 -0.18293042 0.001817426 0.017376479 -0.0011588401
0.07409917 0.18402198 0.16398883 0.025075821 0.15831043 0.035210688 -0.038282745 0.019050319
-0.02786274 0.17216846 0.044449065 -0.057942722 0.02181246 -0.019714646 0.23780753 0.056715354
0.11601568 0.13524038 0.13349698 0.028408438 0.024288999 -0.011839166 0.034875486 0.08752582
-0.00055319094 -0.008857624 -0.017579498 0.12265847 0.1793466 0.18684782 0.17497416 0.025368854
-0.043051284 0.13639686 -0.011744619 0.0009305561 0.09040014 0.026227146 0.027344806 0.018480612
0.13523644 0.10490446 0.04193737 0.16486941 -0.044251736 0.011862417 -0.0038234403 0.13460185
-0.03011545 0.1554974 0.11241093 0.18247867 0.06782271 0.048573565 0.039812937 0.057845335
-0.015805377 0.08610946 0.15659785 0.08451814 0.11076814 0.14355113 -0.011940026 0.0844249
00000000: f8c6 64bc fae7 a73d 1e3c ca3b 75c3 113e
00000010: f62c d83c b3a4 503d 2ff5 263e 26dd 52bd
00000020: 6df9 223e 274f b43d 3c32 1cbd 2418 413e
00000030: 52b0 013e 93f2 433e 9b30 283d ea11 a2bc
00000040: 9934 093e 0e34 15bd 5309 6e3e 1c0d 9b3d
00000050: 32fd b63c 8b2d 263e c01f 583e c20f 513e
00000060: 0262 13bc ad4e 3f3e 6d01 25bd 92a4 143e
00000070: bacd 1f3e a351 b9bc ef29 803d 392d 103e
00000080: b43f 303d 9f9a ce3c c1d4 763d 8455 423d
00000090: 0191 823d 8058 f63d 6792 cd3d 0e99 113e
000000a0: 6578 193e 6e87 823e 3149 e43d 259c 523e
000000b0: f448 803d 4b2d fc3c 874b 233e 3697 583d
000000c0: 3a07 b53b 7c98 423e dcb1 07bd 16c1 2d3e
000000d0: f737 e53d a5c0 06bd 5cdc bd3d b7d8 103e
000000e0: f097 543d 9f26 633e 7abb 3a3e 4df5 bc3c
000000f0: 3f6c 4a3d e313 843e d95c e13c c883 093e
00000100: 1ed1 ea3d edf6 1f3e 7e67 61bd cedd 9f3d
00000110: 4225 123e 24e1 90bd 13ec 1a3c c836 b2bd
00000120: 8def df3d a7ff 273c a813 66bb 1482 d2bd
00000130: 3acb 11bc 86de 243e 6b28 0e3d 7817 4d3e
00000140: 6406 da3d 193a f93d 6a35 8a3d c70d 88bc
00000150: ad6e 3cbd d9e2 39bc 7527 ca3d 3b7b 59bc
00000160: 6508 ba3d 4289 373d 1936 db3c 5737 183c
00000170: 942a 0bbd 405b fe3d 1daf 0c3e ca9e d13d
00000180: 4468 933d 77c3 913d 3b32 61bd 15e9 ab3d
00000190: 9dca 0f3e ca29 26bd aac4 973d 0226 86bd
000001a0: 41ba 953d dafe 31bc addf a43d ac4e 3eba
000001b0: fa5b fa3d e3bc 113c fdf7 fa3b 9e23 8f3d
000001c0: 1f57 8cbd dd63 cebc 25fd 5e3e 27fe 143e
000001d0: 9c94 023d f793 5a3e 827c eb3d 128e 7e3d
000001e0: d7f0 4cbd b536 0abd dd0e dc3d c7e7 aa3c
000001f0: 92a1 863d 2f1d 123d 29d8 ab3c d601 2fbd
00000200: 9d8e 8a3c fb4c 6bbd bebb 7ebd 4d8a efbd
00000210: 92ff 473d ec02 afbd 8837 a3bd 3be3 f83d
00000220: d4b0 89bb ba47 0fbe c743 cb3d 00c3 d83c
00000230: 0752 98bd 9291 c43c 9dbc 4fbd eb90 313e
00000240: e25a 62bd 048e c8bd f210 1238 5a62 bcbd
00000250: f26f 10be ced4 c8bd d2b3 10bd e62a e63b
00000260: 2740 903c e148 063d 880f a4bd 79f0 a9bd
00000270: f00a b23d ca32 01bd a6d1 903d 5f6e 123c
00000280: ae71 513b 7963 ef3d 9507 90bd 0e82 4a3a
00000290: 872c 6fbd 9eb0 64bb c037 d93d 3a43 053d
000002a0: 5d6d fa3d 9c8e 34bc 4b06 6e3d 8dcd 2bbc
000002b0: 8348 7b3d b070 8c3d a65d f83d 226f de3d
000002c0: 3676 82bd f207 96bd 3cc3 e3bc b097 90bd
000002d0: f7d5 c03d 404d 0a3e 56d1 9b3d e6ea 9d3c
000002e0: 9f97 67bb 06a3 883b f34c 423c a782 063c
000002f0: 1d52 3bbe b236 ee3a 1e59 8e3c 39e4 97ba
00000300: 4ec1 973d 4270 3c3e b0ec 273e cf6b cd3c
00000310: 211c 223e 1539 103d 5ece 1cbd 6a0f 9c3c
00000320: 6740 e4bc ee4c 303e 3910 363d 5955 6dbd
00000330: 0bb0 b23c 9c80 a1bc d183 733e 5c4e 683d
00000340: a199 ed3d 747c 0a3e 6fb3 083e d0b8 e83c
00000350: b9f9 c63c 10f9 41bc 99d9 0e3d bd40 b33d
00000360: 0404 11ba 911f 11bc e102 90bc 5d34 fb3d
00000370: a3a6 373e 0955 3f3e 6d2c 333e 58d2 cf3c
00000380: 8b56 30bd 9eab 0b3e 816c 40bc 90f0 733a
00000390: b523 b93d 50da d63c 3702 e03c a764 973c
000003a0: 6c7b 0a3e 26d8 d63d 85c6 2b3d 87d3 283e
000003b0: 4f41 35bd 955a 423c af92 7abb 11d5 093e
000003c0: adb4 f6bc b63a 1f3e b437 e63d b0db 3a3e
000003d0: a2e6 8a3d 13f5 463d e412 233d 3bef 6c3d
000003e0: 477a 81bc 285a b03d 305b 203e d917 ad3d
000003f0: 68da e23d 11ff 123e 19a0 43bc f6e6 ac3d

rnn_layer.rnn_layer.bias_hh_l0_reverse f4 [256]
0.14909141 0.25529218 -0.022658661 -0.09910614 0.14101368 0.07996236 0.16218062 0.10401848
0.12930386 0.12728927 0.058461536 0.06572525 0.05492229 0.17656119 0.22372557 0.10542433
0.19425732 0.056355618 0.20938008 -0.045000266 0.09488925 0.08447246 0.07143331 0.057857182
0.015679607 0.18362482 0.16406177 0.032483064 0.12927459 -0.019291537 0.16777204 0.13409156
-0.027988367 -0.009840178 0.0015991313 -0.064249046 0.20947511 0.18100594 0.08216375 0.11283139
0.10238721 0.14971532 0.13355619 0.009627013 0.020321079 0.023534989 -0.020334767 0.012617858
0.14155063 0.13640006 -0.0066048843 0.09686501 0.1548425 0.105832726 -0.019274278 0.0169457
0.043601092 0.12596051 0.023776336 -0.034444578 0.21221729 0.25372735 -0.028125742 0.010723009
-0.0024223188 -0.062005278 0.047619633 0.07167706 0.16075395 0.028788438 0.032514445 -0.04454706
0.15153505 0.07831929 0.004012576 0.082370974 0.13984597 0.08000242 0.099811785 -0.005519599
0.05675531 0.061776333 0.06602857 0.022482112 -0.018601006 -0.0012208926 0.11041535 0.09749018
-0.021312257 0.08957712 0.0775806 -0.078070365 0.1335962 0.18491907 0.010407496 0.041039392
-0.0010150205 -0.05883691 0.017582254 0.058690272 0.17129529 0.098970175 -0.050532307 0.12072766
0.14062935 0.0004963989 -0.002601448 0.06395466 0.18699123 -0.0860286 0.12086922 0.16851184
-0.003947446 -0.07183602 0.12405914 -0.0503215 0.14892194 0.13545424 0.1675314 -0.020792767
0.096004 0.028485848 -0.043960378 0.031260937 -0.08378487 0.07376779 -0.08850296 0.005158109
0.05061383 -0.022019593 -0.038920686 -0.123535305 -0.03855272 -0.084940806 -0.10669024 0.08213026
-0.0809544 -0.018150013 -0.09315257 -0.0399778 0.011205247 -0.027426522 -0.1394791 0.099122114
-0.04202316 0.03835941 0.07688705 -0.055581953 -0.12503618 -0.06951907 -0.21657227 0.063918434
0.04198442 0.016456615 -0.057052646 -0.11724934 -0.06493947 0.027373375 -0.07308404 -0.10754563
-0.03634835 -0.066052236 -0.1208304 -0.0023220116 0.10686087 -0.071145006 0.06791707 0.054088313
-0.05458938 -0.154551 0.0894279 -0.012603368 -0.036955398 -0.11341795 0.0072644157 -0.059181575
0.023321114 -0.02075286 0.09790684 0.07932363 0.006495635 -0.008346773 0.053334773 -0.06926147
-0.04709179 0.018109785 0.017764296 -0.13079496 0.039511573 -0.078500584 -0.12755272 -0.06546782
0.06922419 0.20419788 0.14707704 0.050656043 0.18300353 -0.014486781 -0.041851882 -0.05443344
0.066608995 0.19668801 0.1336596 -0.050641254 -0.06334014 -0.028862897 0.17190161 -0.02379675
0.18813166 0.13252181 0.13195318 0.11452833 -0.041438136 0.10880308 0.14283074 0.05594641
0.13678895 0.18031973 0.07715357 0.04621039 -0.037544515 0.17668037 0.185594 -0.027312934
0.13190539 0.08283852 0.14413653 0.040581632 0.11329298 0.013548973 -0.022231527 0.0026218174
0.09113598 0.02480565 0.110877514 0.076243415 -0.048202798 0.12122817 0.12553315 0.1647935
0.07046851 0.12002363 -0.040831216 0.17240617 0.1264092 0.226867 -0.043571796 0.16150728
0.027931985 0.060641874 0.12142473 0.054540493 0.06712 -0.03125729 0.108882666 -0.03207764
00000000: 6bab 183e a8b5 823e a89e b9bc 29f8 cabd
00000010: e465 103e 4ec3 a33d ad12 263e a407 d53d
00000020: 3b68 043e 1e58 023e 5d75 6f3d f69a 863d
00000030: 32f6 603d 75cc 343e 5118 653e b6e8 d73d
00000040: 64eb 463e 26d5 663d bb67 563e 3352 38bd
00000050: 4c55 c23d e6ff ac3d a14b 923d a7fb 6c3d
00000060: 8572 803c 2508 3c3e cfff 273e f60c 053d
00000070: 8f60 043e 4909 9ebc 6fcc 2b3e 4c4f 093e
00000080: dc47 e5bc b338 21bc f199 d13a 0195 83bd
00000090: a580 563e 9f59 393e 7845 a83d 2514 e73d
000000a0: 63b0 d13d f94e 193e f4c2 083e 9eba 1d3c
000000b0: 6478 a63c 73cc c03c 1995 a6bc 22bb 4e3c
000000c0: a6f2 103e 75ac 0b3e c96d d8bb 2a61 c63d
000000d0: 088f 1e3e d4be d83d 17e5 9dbc b5d1 8a3c
000000e0: 0f97 323d cbfb 003e 97c6 c23c c215 0dbd
000000f0: 7d4f 593e 8de8 813e f567 e6bc 8faf 2f3c
00000100: c4bf 1ebb 3ff9 7dbd ce0c 433d 6ccb 923d
00000110: af9c 243e bbd5 eb3c de2d 053d fa76 36bd
00000120: 012c 1b3e dd65 a03d ed7b 833b 1db2 a83d
00000130: c833 0f3e 4fd8 a33d 1f6a cc3d c1dd b4bb
00000140: 4278 683d 2e09 7d3d fd39 873d 682c b83c
00000150: 2361 98bc 5c06 a0ba 7121 e23d eea8 c73d
00000160: 0b97 aebc 3674 b73d 94e2 9e3d 5be3 9fbd
00000170: 71cd 083e 6d5b 3d3e 3484 2a3c ec18 283d
00000180: 700a 85ba f9fe 70bd a908 903c 3665 703d
00000190: 0868 2f3e e0b0 ca3d f7fa 4ebd 1040 f73d
000001a0: 2401 103e c420 023a 0e7d 2abb a9fa 823d
000001b0: a17a 3f3e c32f b0bd 488a f73d 5e8e 2c3e
000001c0: 9459 81bb c31e 93bd b812 fe3d eb1d 4ebd
000001d0: fe7e 183e 84b4 0a3e 5a8d 2b3e 9855 aabc
000001e0: bf9d c43d 275b e93c cc0f 34bd 780b 003d
000001f0: 6797 abbd 9113 973d 0a41 b5bd 5b05 a93b
00000200: 7350 4f3d 6f62 b4bc 4c6b 1fbd 1400 fdbd
00000210: 75e9 1dbd 72f5 adbd 6a80 dabd e933 a83d
00000220: 6ccb a5bd 56af 94bc c6c6 bebd c3bf 23bd
00000230: 3696 373c 96ad e0bc 9cd3 0ebe 8900 cb3d
00000240: 7a20 2cbd c21e 1d3d f576 9d3d e7a9 63bd
00000250: 7c09 00be 0460 8ebd 1fc5 5dbe abe7 823d
00000260: dbf7 2b3d 06d0 863c 09b0 69bd 6c20 f0bd
00000270: fcfe 84bd 213e e03c 16ad 95bd e240 dcbd
00000280: 02e2 14bd 6546 87bd ee75 f7bd e42c 18bb
00000290: dfd9 da3d 79b4 91bd 1b18 8b3d b58b 5d3d
000002a0: 1d99 5fbd 9e42 1ebe fa25 b73d 5b7e 4ebc
000002b0: 8b5e 17bd ac47 e8bd 560a ee3b 6168 72bd
000002c0: ec0b bf3c e701 aabc 6283 c83d 6d74 a23d
000002d0: 56d9 d43b e7c0 08bc 9075 5a3d f5d8 8dbd
000002e0: 52e3 40bd f95a 943c 6e86 913c 1def 05be
000002f0: e3d6 213d eac4 a0bd 2e9d 02be fe13 86bd
00000300: 6ac5 8d3d 4019 513e 5d9b 163e b67c 4f3d
00000310: 4765 3b3e f759 6dbc e16c 2bbd 99f5 5ebd
00000320: 4c6a 883d 9568 493e 10de 083e 346d 4fbd
00000330: 7ab8 81bd e271 ecbc fa06 303e 67f1 c2bc
00000340: 96a5 403e ccb3 073e bc1e 073e d48d ea3d
00000350: 09bb 29bd 26d4 de3d 3942 123e 1028 653d
00000360: 6712 0c3e bca5 383e b102 9e3d 1b47 3d3d
00000370: 47c8 19bd b3eb 343e 5b0c 3e3e 60bf dfbc
00000380: 3512 073e 3ea7 a93d 8798 133e ed38 263d
00000390: 2606 e83d 83fc 5d3c e41e b6bc ccd2 2b3b
000003a0: 80a5 ba3d 3835 cb3c c013 e33d 8225 9c3d
000003b0: 4c70 45bd 7a46 f83d c38b 003e a1bf 283e
000003c0: cb51 903d f3ce f53d a23e 27bd 3e8b 303e
000003d0: 6a71 013e d34f 683e 5778 32bd 2a62 253e
000003e0: 9ed1 e43c 9d63 783d 87ad f83d da65 5f3d
000003f0: 3676 893d a507 00bd e0fd de3d d863 03bd
