dl_ouptut/best_model_epoc2.pth (torch, 674223 bytes, 46 tensors)

rnn_layer.rnn_layer.weight_ih_l0 f4 [256, 50]
00000000: 34f9 92bd 3818 02bd 639c 673d 9ebe b63d
00000010: d4a9 113e d0d9 253d 6bc3 a73c f5f7 24bd
00000020: 0e78 1e3e 7553 023e 4cac 95bc 8dea 1d3b
00000030: d3e1 803d 708f b93d 7f69 943d 7cf8 e63d
00000040: b1c0 01bd 0146 ef3d 4fee a03e 858b a83e
00000050: caea 4f3e 8065 833d e431 a83e b24b 223e
00000060: e71e 5f3d b62f fa3a 9f2b 9a3c c9de c43d
00000070: 6412 1e3e c0c0 ef3d 7696 55bd 6705 8a3d
00000080: e3e6 51bd 563f 2f3d 218d 81bc 4c78 ea3d
00000090: e960 173d 7c3a d23d b219 b03d 124f 93bc
000000a0: 6628 c93d f695 ac3d 3788 783d 2a86 50bd
000000b0: 7ee3 e03d dd92 1e3d 66f6 1d3e 718d 9ebc
000000c0: 2ba4 ba3b a8c4 213d ec3d b3bd 8270 94bd
000000d0: 12dd 5c3d 0e7c d0bd ec49 ebbc c22c ddbd
000000e0: 73ea 8fbd 0f58 55bc 16df be3d 3f07 363e
000000f0: 12c6 42bc 8fb5 503c 022d a63d 2950 183e
00000100: a222 c0bc 20a1 b53d e9a3 a83b dc1f a93d
00000110: 4bc7 e93d 129a 89bd 4dd5 5e3b aba3 3d3e
00000120: ef44 a6bd 4872 01bd 5d66 ba3b 2665 2bbe
00000130: dd3c c5bd f848 9bbd 0155 4d3d 3c33 cc3d
00000140: 6bed 67bd f00a cb3d c21a 1a3e 3a8e 303e
00000150: 2526 72bd 62a0 943d 9e75 e5bb e8d3 9f3d
00000160: 5a9b 293d 3a01 2a3e d603 0d3d 1cfc 323e
00000170: 8b8a 553c e058 943d 2a88 283e 968e b43d
00000180: 7b58 c63d 3cbb ee3d 6fb6 333e 8636 4f3e
00000190: a3d5 f0bd e3f1 243d 44b6 6bbe 79ef 73be
000001a0: 2608 99bd 15b4 c1bc 5daa a83d 510e 413d
000001b0: af24 d9bd 68c3 57be c9b0 48be 2782 e5bd
000001c0: 5c7e 90bd cfc8 813d 5604 ca3d 167b aa3d
000001d0: 2fce 6fbd 9f4c ec3d a705 b4bc ac4c a4bc
000001e0: 9fcd a73c 5b61 8c3c a341 143e 60e4 d53c
000001f0: c307 e33d 5828 d5bc ac60 953d e180 f93d
00000200: 004a a6bc 1eaa 7b3d b5c7 093e 408c 34bd
00000210: 5ead 32be 3428 a7bd 96e0 0f3d 2c90 7abd
00000220: 5a21 3f3d 9406 40bd c28c 03be cd60 b6bd
00000230: ad15 503d 0e0c 06be 3cf7 f2bd d091 4bbe
00000240: c235 c0bd 5661 a3bd c45c 12be 12a1 b43d
00000250: 5058 00bb c2f2 f53b a864 9cbd fe6a 8e3d
00000260: 28de 0fbe b3b5 dcbd ea87 103c 2b13 c5bd
00000270: 937f 893c e6da 23be 1703 cbbd 7529 70bc
00000280: 5726 d9bc 7c14 cb3b 2819 fbbd 6981 0e3d
00000290: ae1e 0cbd b359 d63b 0eae f7ba 296a 88bd
000002a0: c327 813d f703 953d e1ea 603c 5726 553e
000002b0: 9dd8 573d 6f53 5f3c 88c3 80bd dcf9 b13c
000002c0: 1921 b63c e31f 3d3c 4cd7 813d ea6e 2ebd
000002d0: 3b10 c83d 1d9c 15be 5d62 58bd 462e 1abe
000002e0: 26f4 9abc 1a79 86bd 2bf3 05be db09 f1bd
000002f0: 52eb ce3d 9d82 bb3c 97e0 d9bd f491 81bd
00000300: 1f8f 56bd 17ba 1cbd 5d57 bebc 6c4a ad3d
00000310: 53e5 a0bc 0d6b 083e 5909 3fbd 2b19 593d
00000320: 9851 ddbd 09ac e4bd 1054 b6bd 81a8 15bd
00000330: 83cb 82bb 5ebc 413d 72fb 1f3c 36c6 4a3d
00000340: d69e d9ba bb89 063d 964e 50bd 3b21 a83d
00000350: b6f1 25bd 2771 07be 0d50 adbc 3ac2 2cbc
00000360: e6f1 593e 1556 27bd 2e0b 093e 6aa3 903d
00000370: 391f 033e 2c22 403e 8afd 3c3d 2ce6 283d
00000380: 7e25 9c3d cf43 843d 0ac6 2d3d 25df a1bc
00000390: b33b 0bbd 42f0 893d f73a 973c 51ed 273e
000003a0: a3ed d03d 5f87 3d3c 9d22 973c 6bcc 4f3d
000003b0: 330e b93d add1 c63d 54e1 643e 0c0e d43d
000003c0: 2d37 473e 905a 4a3e 3123 ad3d f3fb 653e
000003d0: 9529 013e 89f5 f03d e39d 303d 6a4f 363d
000003e0: 2e4b 3e3e edb3 293e fea0 c53d a804 5dbd
000003f0: 1720 08be 9c7d c33c b19d b1bd b4c6 31be
-0.07176438 -0.031761378 0.056545626 0.08923076 0.1422494 0.040490925 0.020478925 -0.040275533
0.15475485 0.12727149 -0.018270634 0.0024096102 0.062930726 0.09060562 0.07246684 0.112778634
-0.031677905 0.11683274 0.31431815 0.32918945 0.20304409 0.06415844 0.32850564 0.15849188
0.05447283 0.0019087705 0.018819628 0.096128054 0.15436703 0.11706686 -0.052145444 0.06739312
-0.05124558 0.04278501 -0.015814366 0.11448726 0.036957655 0.10265061 0.08598651 -0.01798204
0.098221585 0.0842704 0.06067678 -0.0509092 0.10980891 0.03871428 0.15426025 -0.019354554
0.00569584 0.039494187 -0.08752045 -0.07248022 0.053921767 -0.101799116 -0.028721772 -0.107995525
-0.070271395 -0.013021483 0.09319894 0.17776202 -0.011888044 0.012738599 0.08114053 0.14874329
-0.023454014 0.08868623 0.0051464927 0.0825803 0.11414965 -0.0671884 0.003400165 0.18519466
-0.08118617 -0.031603128 0.005688472 -0.16737804 -0.096307494 -0.07582277 0.050129894 0.0997071
-0.056622904 0.099141955 0.1504927 0.17241755 -0.05911841 0.07257153 -0.0070025465 0.0780409
0.04140792 0.1660203 0.034427486 0.17478985 0.0130335195 0.07243514 0.16458192 0.088162586
0.09684845 0.11656806 0.17550062 0.20235643 -0.11759498 0.040269744 -0.23018748 -0.2382182
-0.07472257 -0.02364544 0.08235619 0.047132794 -0.106027 -0.21070635 -0.19598688 -0.11206465
-0.07055351 0.06337129 0.09864108 0.08324258 -0.05854624 0.11538052 -0.021975351 -0.020056091
0.02048379 0.017136266 0.14478163 0.026109874 0.11085465 -0.026020214 0.07293829 0.12182785
-0.020298958 0.061441533 0.13455088 -0.044079065 -0.17448947 -0.08161965 0.03512629 -0.06117265
0.046662666 -0.046881273 -0.12846664 -0.08905182 0.05080192 -0.13090536 -0.118635625 -0.19879842
-0.093852535 -0.0797755 -0.142932 0.08819784 -0.0019583888 0.0075057456 -0.07636386 0.06954001
-0.1404959 -0.10776844 0.008821467 -0.096227966 0.016784465 -0.16001472 -0.09912699 -0.014658322
-0.02650754 0.0061975103 -0.122606575 0.034791384 -0.034208946 0.0065414547 -0.0018896477 -0.066608734
0.06306412 0.07276147 0.0137278745 0.20815407 0.052696813 0.013630732 -0.062872946 0.021725588
0.022232579 0.011543247 0.06339893 -0.042586245 0.09768721 -0.14610334 -0.05282818 -0.15056714
-0.018915247 -0.06566067 -0.13081042 -0.11769458 0.101034775 0.02288943 -0.1063854 -0.063266665
-0.052382585 -0.038263407 -0.023235017 0.084614605 -0.0196406 0.13322087 -0.046639774 0.053002518
-0.108065784 -0.111656256 -0.089027524 -0.03653765 -0.0039915456 0.04729878 0.009764539 0.049505435
-0.0016603123 0.032846194 -0.050856195 0.08209463 -0.040513717 -0.13226758 -0.021156335 -0.010544354
0.21283683 -0.04085358 0.13383171 0.07062419 0.12804879 0.18763036 0.04614023 0.041235134
0.076243386 0.06458246 0.042425193 -0.019759724 -0.03399248 0.06735279 0.018460734 0.16399123
0.102015756 0.0115679195 0.018449122 0.050732058 0.090359114 0.09707961 0.22351581 0.10354242
0.19454642 0.1976111 0.08453978 0.22459392 0.12613519 0.11765582 0.043119323 0.04450933
0.18583366 0.16572542 0.096498474 -0.05395952 -0.13293491 0.023863606 -0.086726554 -0.17360955

rnn_layer.rnn_layer.weight_hh_l0 f4 [256, 64]
00000000: 9419 efbd b864 ba3d 9aaa f2bd 7c04 82be
00000010: 7238 16bc ccd7 88bd cba1 b8bd 587b 08be
00000020: 3244 b93c f314 1cbb 3744 8cbd 43a9 70bd
00000030: ff0c 47be f7cb 4cbe cd19 33bd a71b 88bd
00000040: cd42 34bd 8cfe f8bc 60a1 aebd b9c9 fabc
00000050: 47e0 cbbd fa8d 02be f650 94b9 6d35 04be
00000060: d68f 15be d2ef 913b 22c1 b2bd dce2 95bd
00000070: 0fb3 8dbd 2f84 393c 16e3 b6bd 9ca2 d5bd
00000080: 4a88 0abd dce1 46be 8ea4 37be 0925 abbd
00000090: ad41 11be 8e73 4abe 459f 35bd 8563 73bd
000000a0: 1c37 26bd 7ab8 ee3c 9e7b 0fbe f468 1abe
000000b0: 6dd9 8abd c252 69bd f1ce bdbc b364 39bd
000000c0: 3a9c b3bd 9142 f5bb 062e 11be cc1b 59bd
000000d0: 503b 4dbe 6ea2 f1bd 3868 3dbd e84c 47be
000000e0: 74b6 843d d854 27be f01b 0a3b d5d7 9bbd
000000f0: 1408 4dbd a298 0dbe 195e b5bd e38f abbd
00000100: d03f 1b3e 6fe2 883d 7c30 1cbc e80a 99bd
00000110: 856b b4bd 0aac 443d 6498 b0bc c77b c9bd
00000120: 2f27 78bd 2710 a13c dc54 e1bd 71e2 47bc
00000130: b3eb 94bb c7cc 51bd 597d 53bd 90eb 413e
00000140: f555 d83d a09b 9abd d9cd bbbc 6eaa 9dbd
00000150: 1c3f 52bd d418 b93c 0c26 813d 4cb6 09be
00000160: 6870 22bd b6b2 aabd e512 b6bd 1580 c1bc
00000170: d800 483a 298f a7bd 4a7a 93bb 7e7e 0e3d
00000180: f8d1 14bb cdc6 c13d 4586 853d fd6d edbd
00000190: b03c 27bb 3f0a 6cbc d1e6 f73d 4190 263d
000001a0: fb55 12bc b12a 253d 9f4c 28bd 88ac af3c
000001b0: 5de3 c73c 04ed 8a3d 93b5 3d3d ac8e c5bd
000001c0: 355e 6abd 15f7 ac3d 1463 4fbd 2b97 423d
000001d0: 5bbb bfbd 92e3 a73d d60f 8e3c c701 b2bd
000001e0: e0e2 ddbb ebff d33c e386 8e3c fe55 73bc
000001f0: b708 7fbc e38b c53c 7171 96bd 57cc 863d
00000200: b549 b93c 3487 783c a399 07be a97d a1bd
00000210: ebb3 b3bd 61c7 a13d 3fa6 c73b d703 bb3d
00000220: df7d 02be 4199 eebc 8029 4bbe 9be7 15be
00000230: 87db 413c b421 5fbd 89b9 c33c 4401 78be
00000240: 0530 e33c 2aec 5e3d f80e b53c 62b3 fabd
00000250: ff05 1f3b b4bb ebbd aa2c 113e a6f4 76bd
00000260: b0bf 7d3d d44a 09bd a3fe ec3c 8666 6abd
00000270: 7020 b33d db20 c4bd bb62 5c3d 7b81 75bd
00000280: 4e50 26bd f6f8 963d 2292 22bb 493b a3bd
00000290: f3e7 6cbd c902 f13c 7700 f4bb 383b ddbd
000002a0: f7cd 353c 2033 1d3d fdd8 12bd f22d 89bd
000002b0: 9eea e8bc dc44 31be f97d 1cbe faa3 6cbe
000002c0: f756 61bd 559e a2bc 2fea f53d 43e5 9f3b
000002d0: 5812 47be 6a2e a03d 1291 e2bc 8f52 b23c
000002e0: 51c0 993d 09a3 eabd ce5a 0bbe dfa6 0bbe
000002f0: fa50 283e 98dd 303d 1a14 b6bd 3de7 22bd
00000300: acec 45bc 5892 a23d 86bd 0fbe 223c 12be
00000310: 0994 bcbc 440e 923d 2aa4 5bbc 33a9 903a
00000320: 2be0 ba3d b007 05bd 8134 953d 222a 3fbd
00000330: d80b 8f3d 15e0 0a3d 8335 133d 3051 d53a
00000340: a345 223d 2c54 e43c f023 7dbc a6ee 153d
00000350: 202c 16bd 4f89 88be 4940 5c3e d9f9 6fbd
00000360: 40de 5e3d d2e3 2dbe 5d7a 4a3c b9e1 a9bb
00000370: 4d83 143d d8c2 843b ba87 b93c bda9 913b
00000380: fc99 713d f4c7 b13d 7ab4 1fbe 68b4 6cbe
00000390: 0caa 7e3d 7548 693c 2ba4 2b3a 1450 d5bc
000003a0: 43d4 9ebd 5c35 20bd cf80 b13d ba25 e8bb
000003b0: 63b3 15bd 3780 52bd 6e66 8abd 20aa 6e3d
000003c0: ee9a e0bd 5aa4 d23d 5b43 84bd 779a 39be
000003d0: 9f1c aa3c f643 98bd 5774 733d a59d b9bd
000003e0: 580c b43d de6e 02be 0aa7 ab3c fcaa 3c3b
000003f0: d945 72bd c393 f63c 2db8 0dbe b87a acbc
-0.116748005 0.09101242 -0.11848946 -0.25394046 -0.009168731 -0.06681785 -0.090152346 -0.13328302
0.022615526 -0.0023816198 -0.068489484 -0.05875517 -0.19438551 -0.19999681 -0.043725777 -0.06645899
-0.04400902 -0.030394815 -0.085268736 -0.030613767 -0.09954887 -0.12749472 -0.0002828908 -0.12911005
-0.1460565 0.0044536376 -0.087282434 -0.073186606 -0.06918918 0.011323019 -0.08930032 -0.10431406
-0.03382138 -0.19422096 -0.17933866 -0.08356673 -0.1418521 -0.19770643 -0.044341344 -0.05942108
-0.0405799 0.0291407 -0.14012 -0.15079099 -0.06779752 -0.05696369 -0.023169966 -0.04526205
-0.08770032 -0.007484742 -0.14177713 -0.053005025 -0.20042157 -0.11798559 -0.04624197 -0.19462931
0.06480113 -0.16340959 0.002107378 -0.07609526 -0.050056532 -0.13827756 -0.08855838 -0.083770536
0.15161061 0.06683814 -0.009533044 -0.07472783 -0.0880957 0.04801563 -0.02155704 -0.09838062
-0.060584243 0.019661022 -0.11002514 -0.012199984 -0.004544699 -0.05122068 -0.051633213 0.18937516
0.1056327 -0.07549214 -0.022925304 -0.076985225 -0.051329717 0.022594847 0.06306085 -0.13448447
-0.03965798 -0.08334868 -0.088903226 -0.023620645 0.000762952 -0.081816025 -0.004500662 0.0347886
-0.002270816 0.09461746 0.065197505 -0.11593244 -0.002551835 -0.01440674 0.121045716 0.040664915
-0.008931632 0.040323917 -0.041088697 0.021444574 0.024400407 0.067834884 0.04631574 -0.09646353
-0.05721875 0.08445565 -0.050631598 0.047507446 -0.09361907 0.081977025 0.017341536 -0.08691745
-0.0067714304 0.025878867 0.017398303 -0.014852045 -0.015566043 0.024114555 -0.07345856 0.065819435
0.022618154 0.015168954 -0.13242202 -0.07885296 -0.08774551 0.07899357 0.006092816 0.09131592
-0.12743329 -0.029125812 -0.1984005 -0.14639132 0.011832125 -0.0544755 0.023892181 -0.24219233
0.027732858 0.054424442 0.022101864 -0.12241246 0.0024265049 -0.11510411 0.14177194 -0.06029191
0.061950386 -0.033518627 0.028930014 -0.05722668 0.08746421 -0.09576579 0.053805094 -0.059937935
-0.04060393 0.07371704 -0.002480634 -0.07970292 -0.05783839 0.029420273 -0.0074463445 -0.10802311
0.011096469 0.038378835 -0.035851467 -0.066982165 -0.028432187 -0.17311424 -0.1528243 -0.23109427
-0.055014577 -0.01985089 0.120075576 0.004879625 -0.19440591 0.07821353 -0.027657066 0.021767883
0.075073846 -0.11456878 -0.13608858 -0.13637875 0.1643714 0.04318008 -0.08890553 -0.039771307
-0.012080353 0.07938069 -0.14037141 -0.14280751 -0.023019807 0.07131627 -0.013405839 0.0011036753
0.09124788 -0.032478034 0.07285405 -0.04667104 0.06984681 0.033905108 0.035939705 0.0016274806
0.039617192 0.027872168 -0.015450463 0.036604546 -0.036663175 -0.26667258 0.21508898 -0.058587883
0.054411173 -0.16981438 0.012358275 -0.005184379 0.03625803 0.0040515475 0.022647727 0.004445283
0.05898474 0.08680716 -0.1559619 -0.23115695 0.062173888 0.0142384665 0.0006547595 -0.02603916
-0.077553295 -0.039113387 0.086671464 -0.0070845755 -0.03654803 -0.051391806 -0.06757818 0.058267713
-0.109670505 0.10285254 -0.064581595 -0.1812533 0.0207656 -0.074348375 0.059437122 -0.090632714
0.08791417 -0.12737605 0.020953674 0.0028788438 -0.059148643 0.030099755 -0.13839789 -0.02105461

rnn_layer.rnn_layer.bias_ih_l0 f4 [256]
00000000: ce76 bf3c 6be4 0c3e db9b ae3d d75b d73d
00000010: 2ee2 3f3d 7c5b 1b3e e183 553e ff47 983d
00000020: 5b19 6b3e 5ecf d2bc 2ac0 e33d 16af b2ba
00000030: 10c1 84bc de32 823d 1c1f 50bd 1b5b b43d
00000040: 2f57 bf3d 4c0e b4ba 0faf 863e 481c 103e
00000050: 609a 52bd f6c1 d1bc 03b2 4d3e 1eb1 773e
00000060: 1a94 b63d 0173 aa3d b1cc 303d cfae aa3d
00000070: 0ef5 183d a876 2f3e aef7 d23d 7823 82bd
00000080: a7eb 2b3e 96f1 883c 289b 00bd 5d37 da3c
00000090: bf9c 213c a038 b03d efb6 b63d 5021 263e
000000a0: 3376 44bd 2c5e d83d 8cf6 943d 3927 263e
000000b0: 94ff 6e3d 58bc e43c c326 103e bcd2 803e
000000c0: c414 963e 487a 633e 587b 393e 088a 3ebd
000000d0: 588e 993c 2724 dd3d f7d1 55bd b0b0 ee3d
000000e0: c4cb c1bd 8861 893d 0787 3b3d 51df 443e
000000f0: d592 313e 9583 4a3d f224 d93c 5f21 3a3e
00000100: cb19 bfbd 89ad 393e 1bfd e63d 4fe0 bb3d
00000110: 059d 753e 3c87 da3c 6d76 533d 8eb1 a03c
00000120: ed27 1f3d 6da3 c7bc 6a19 76bc 29d1 94bd
00000130: dca6 383b 1cdb 0d3e e675 3b3e ab11 2b3e
00000140: f185 6c3e f314 5d3e 2914 1d3d 357f e63d
00000150: 8dae bd3c 55a4 a4bc 7c0a 09bd 7fdd 983e
00000160: d171 72bd 55c2 293e b099 133e 31f5 8a3d
00000170: 1729 393d 43d5 da3d c7f6 953c 37da 543d
00000180: c673 09bc dd98 d1bd 82f1 3ebc 0db3 0d3e
00000190: 2783 613d 455a f4bc a085 c43d cd11 8fbd
000001a0: a8ef 513e b0a7 08bc 712d 143e 3dc9 493d
000001b0: bdaa 863a d0bf 593d 4363 5f3c 6706 7bbd
000001c0: 96a0 05bc 56b7 ebbc c93c 123e e4a3 153e
000001d0: f22f ddbc 8890 41bc c09f 1d3d 9e21 59bd
000001e0: 36a4 dc3d 740c 813d 62e2 573c 1b98 203e
000001f0: 7dc6 183e ac64 ac3c 9fe1 8d3d 8faa 1f3e
00000200: e138 fa3c ca95 a53d cc8b 303d ef74 f0bd
00000210: 175d 593d 8234 02be c140 253d 6847 333d
00000220: 7df1 c63d 5a8f 1e3d 2dc5 c3bd 2525 a9bc
00000230: fd12 30bc 9671 e6bd 8b6b 32bd c79b d73d
00000240: 744a d6bd 141c 883d 8e56 77bc 8a15 e0bd
00000250: 5932 cebd 744a 6abd 8275 f53d e851 f43c
00000260: 82f8 bebd d7d8 a53d eed3 8f3c 1665 76bd
00000270: 5613 84bd 0933 e63d 9a46 bf3d 7e96 5cbd
00000280: a117 913d 7ea9 60bd 0fc1 093e 8876 003e
00000290: 7c3b 55bc ee83 a03c 543e 873d 18dc c6bc
000002a0: de74 013e 749c 063d 3ade 123d 6ae4 a1bd
000002b0: b621 a9bd 1955 34bc ebfc ea3d 7fd9 903c
000002c0: be2d 89bc b0ec 293d cbf3 acbd efe1 e3bd
000002d0: 1907 c73b a8e8 7fbc 0fb1 683d e9ed d23d
000002e0: 0bb1 0fbd d42e 8dbd 29a9 0b3e 333e 1b3c
000002f0: 796c 20be f24f 13bd 38d6 c43d f728 bfbc
00000300: 0205 613e fb5a 463e 920c 4c3e f93e e83d
00000310: 6ba4 df3d 53c8 843e d679 653d 0d61 143e
00000320: 132c b13d 92db 123e 4797 643e 5b84 ff3d
00000330: 387b 1f3c f2c2 303d a69e 08bd 7f24 7f3d
00000340: 534d 853e 918a cd3d 0aa0 963e 5fd2 463d
00000350: 160d 0e3e 1f09 50bd cc70 043d c79d 903e
00000360: 91a1 9c3d 71dc 843d b7d4 083e 1f07 0f3e
00000370: 9445 b13c d827 283e 0abc 213e 990a e93d
00000380: a8c3 5c3e 3804 873e 4e4b 193e 6988 2f3e
00000390: af8f b83d 98b2 ea3d 2f5a 7b3e ffdf 043e
000003a0: bd00 8c3d 7e01 3b3d 308a 143e 4c75 f33d
000003b0: 5717 193e 6973 643e 2543 fa3d 809d da3c
000003c0: 4274 e43d 51dc 273d b54d 2f3d d843 aa3c
000003d0: b684 c23c b35c 173e 39b3 873d 4ace 473e
000003e0: 92de 6a3e ad0d 113e 9a42 253d 0151 373e
000003f0: 2cb5 8f3e 1ed7 473e e31d b83d eb65 883e
0.02337208 0.1375901 0.08525821 0.10515564 0.04684656 0.15171617 0.20851089 0.07435607
0.22958891 -0.025733646 0.11120637 -0.0013632502 -0.01620534 0.063573584 -0.05081092 0.088064395
0.09342801 -0.0013737171 0.26305434 0.14073288 -0.051416755 -0.025605183 0.20087437 0.24188659
0.08914967 0.083227165 0.04316396 0.08334123 0.037343077 0.17135108 0.103011474 -0.063544214
0.16789113 0.01671676 -0.03139797 0.026637727 0.009864031 0.0860455 0.089216106 0.16223645
-0.047964286 0.10564837 0.072735876 0.162259 0.058349207 0.02792184 0.14077286 0.25160778
0.29312718 0.22214615 0.18113458 -0.046518356 0.018744633 0.10797911 -0.05220219 0.11654794
-0.09462693 0.06708056 0.04578307 0.19225813 0.17341168 0.049441893 0.026506875 0.18176793
-0.093310915 0.18132605 0.11278745 0.09173643 0.2398568 0.026675813 0.05162661 0.019615915
0.038856436 -0.02436992 -0.015020708 -0.07266457 0.0028175628 0.13853115 0.18306693 0.16705959
0.2309797 0.21590023 0.038349304 0.112547316 0.023154521 -0.02009789 -0.033457264 0.29856488
-0.059190575 0.16578038 0.14414096 0.06785048 0.045205202 0.10685208 0.01830615 0.05196592
-0.008389419 -0.102342345 -0.01165426 0.13837834 0.055056717 -0.0298282 0.095957994 -0.06985817
0.20501578 -0.008340761 0.1447046 0.04926418 0.0010274273 0.053161442 0.013634506 -0.061285403
-0.008155962 -0.028773945 0.14281 0.146133 -0.027000401 -0.011814244 0.038482428 -0.053010575
0.10773508 0.06301203 0.013176532 0.15683024 0.14919467 0.021044098 0.069277994 0.15592407
0.0305447 0.080852106 0.04310207 -0.11741053 0.053067293 -0.12715343 0.040344957 0.04376927
0.09714029 0.03871093 -0.09559093 -0.020647595 -0.010746715 -0.112521335 -0.043559592 0.10527759
-0.104634196 0.066459805 -0.01509632 -0.10941608 -0.10068197 -0.05719991 0.119853035 0.029824212
-0.09324743 0.080979995 0.01755711 -0.060154997 -0.064490005 0.11240203 0.09339638 -0.053854458
0.07084585 -0.05484914 0.13452552 0.12545216 -0.01301467 0.019594159 0.06603685 -0.02427487
0.12642238 0.03286405 0.035856463 -0.07904895 -0.08258383 -0.011006617 0.114740215 0.017681835
-0.016745444 0.04148549 -0.08444937 -0.11127078 0.006073844 -0.015619434 0.05680948 0.10299284
-0.03508095 -0.068936974 0.13638748 0.009475279 -0.15666379 -0.035964914 0.096111715 -0.023334963
0.21974567 0.19370644 0.1992667 0.11340136 0.10920032 0.25934085 0.056024395 0.14490147
0.086509846 0.14341572 0.22323333 0.12476417 0.0097339675 0.043154664 -0.033354424 0.062290665
0.26035556 0.10036195 0.29418975 0.04854047 0.1387218 -0.05078995 0.032334134 0.28245375
0.07648004 0.06487358 0.13362394 0.1396756 0.021639623 0.16421449 0.15794387 0.113789745
0.21559012 0.26370406 0.14970133 0.1714188 0.090117805 0.11459845 0.24546121 0.12976073
0.06836078 0.04565572 0.1450584 0.11887607 0.1495031 0.2230965 0.12219838 0.02668643
0.11154987 0.040981594 0.042798717 0.020784304 0.023744922 0.14781456 0.06625981 0.19512287
0.22936466 0.14165373 0.04034672 0.17901994 0.2806791 0.19515654 0.089900754 0.26640257

rnn_layer.rnn_layer.bias_hh_l0 f4 [256]
00000000: eee7 843d 529d ff3d f7b3 193d 8ef4 263e
00000010: ecc3 0c3d 58b8 5a3d 2288 3b3e 6b4e 573e
00000020: 05dd e73c a19c 233e 7e2c 1f3d 96fb efbc
00000030: 9fc9 f0ba 70f8 4a3e 26b0 2c3e 504d 8e3e
00000040: 032e 573c 4a2d 2c3d 15c5 953e c404 e0bc
00000050: 7178 133e 9ff4 173e 0f11 203e 8c10 d43c
00000060: 446a 773e 7f61 5b3d 3366 043e 4fae 0c3e
00000070: 8859 303e b0d9 8b3d 9514 003d d39c a13d
00000080: b2de 913e 1f9a 743e 2977 513d 8d37 40bb
00000090: 02da 813d 5316 2b3d 7343 423d b87d bcbc
000000a0: 8811 cfbc 0889 103e df79 153d 3859 1d3d
000000b0: f33d 913d 9f48 bc3d 965e 793d 24e7 083d
000000c0: 89be 1c3e 5574 ae3d 204e 4abd 649e adbd
000000d0: 0dfe f23d 72f5 3d3e 61c3 a23d 06c9 653d
000000e0: 49e0 96bd 2852 543c debe 143e 7a08 793d
000000f0: 2e98 ddbc 27e8 b63d efa6 9fbc f048 483e
00000100: 4600 a93d 3165 fe3c 397c 2f3d 88a3 a4bd
00000110: 84a7 f53a 07f9 b6bc 6f02 363b d06b ac3d
00000120: d20f 8c3d 89c8 2ebd 1f3a 463e 2ed5 d83c
00000130: 3b51 a1bd 3c98 4c3d 9a8c 893c 6766 7b3d
00000140: 88af 4c3e c6df 2b3e 4e3b edbc 0c1c c03d
00000150: c395 1f3d 2066 17bd 1cc1 01bc 0371 973e
00000160: 7344 e73d 4c3b 1f3e a79c ff3d 328a 1c3e
00000170: 0378 1a3d 97a4 8a3d d43a 373e 85cf 093e
00000180: 6d0d 773d cd06 fc3b f6b2 e3bc aace 1cbd
00000190: 4d3f 463e c674 e03c 3f63 263d 7837 013d
000001a0: 26c8 e73d b2a8 183e de52 013e d8a3 ae3d
000001b0: 84a2 93bd 6e4a 733d ebad 72bc f7f9 e83d
000001c0: 1b88 9cbc 1e5c 8dbb 4b6c c73b 87fd ff3d
000001d0: e7b7 94bb f8ad 533d 0b52 7f3d 3db0 963d
000001e0: 85f9 6b3e 2ce1 243d de4e 673e f19e da3d
000001f0: 0a55 a73d 83b1 bf3c e2db 8cbb 2b82 f83c
00000200: 3a22 63bd 07be 5f3c 9657 2fbe 1e89 cfbd
00000210: a1be 0cbe 6d1d c13d 126c c5bd 0085 783c
00000220: defc be3d 5f8f 19bc aa16 843d 645b e2bd
00000230: 72e1 e1bd 34e5 a73a 333c 5bbb 8672 063e
00000240: 5546 fdbd ad38 683d 8092 42be b8f5 293d
00000250: 34b3 d63b c0b0 57bd 3bd7 7ebd 4d35 483d
00000260: a279 2fbd a2f3 cb3d d55c 4abd 170d 973d
00000270: 2f6a c73d adb5 8c3d 2f9e 47bd 18c7 a6bd
00000280: 3020 88bd 653b 47bb 57af c53d 0504 eabd
00000290: 5673 afbd 53cf 9dbd 22bb aa3d 80a5 e7bc
000002a0: 654d 8bbc 644f 2ebe c867 873c 76be b8bd
000002b0: 4bb3 bebd 0d27 993d 12a0 8cbd 2d9a 0cbd
000002c0: ce48 14be c9ef 073e 774e d6bd d0d7 f63c
000002d0: 2312 b4bd 444b 82bd 5648 b2bd fa77 0b3e
000002e0: ec6a 82bd fb77 10bd 5109 eebb 4713 e83d
000002f0: 8f66 21bd 711f 313d 7a4c 853d 24cc 99bd
00000300: 8e3e 1c3e 45b6 e23d 1fe1 2a3e e120 ed3c
00000310: 4cd9 453d 61c8 6a3e b424 733e 378b 023d
00000320: f209 ae3d ac27 2e3e d041 763d 10e7 423d
00000330: f7bc 5a3d 0f8d 253e e1f7 05bc 1934 6b3e
00000340: f7aa 8d3e c8d7 033e bbf9 723e eedf 923b
00000350: fd5c 6d3e def1 363e f909 003d 86c4 713e
00000360: 04ed 743e fe16 373e a7de 543d 3080 5a3e
00000370: 9c57 ee3c 3d9d 933d 44a8 073d 7fc1 a5bc
00000380: 3082 5c3e 8488 693d 55e2 c93d 2938 dc3d
00000390: 5ad8 e43d 94cc 113e a7ce 583e ca03 0d3e
000003a0: dbc9 b23d 51f5 6d3e 8397 fb3d 1b50 78bc
000003b0: 3ed4 bc3d 426d ba3d 36cc 493e 048d 113d
000003c0: 8bf6 643e 1600 523e ff07 f93d 60ed dd3d
000003d0: c31c 0c3e ae4b 8d3d 2009 3b3e efc4 9d3d
000003e0: 1b00 543d b0a6 0c3d d43a a43c f6a0 e03d
000003f0: ef20 213e 8840 193d ec0e 583e 917d ca3d
0.064895496 0.12481178 0.037525143 0.16304228 0.034366533 0.05339846 0.1831365 0.21026008
0.028303633 0.15977718 0.03886079 -0.02929477 -0.0018370635 0.19821334 0.1686407 0.2779336
0.013133529 0.04203538 0.29251924 -0.027346022 0.14401414 0.1483941 0.15631507 0.025886796
0.24161631 0.053559776 0.12929611 0.13738368 0.17221653 0.0682863 0.03126963 0.0789124
0.28490216 0.23886918 0.05113903 -0.0029329986 0.0634041 0.041769337 0.047427606 -0.023009166
-0.025276914 0.14114773 0.03649318 0.038415164 0.07091894 0.09193539 0.06088122 0.033423558
0.15307058 0.08518282 -0.049390912 -0.08477476 0.118648626 0.18550661 0.07947422 0.056099914
-0.07366998 0.012959041 0.14525935 0.0607991 -0.027050104 0.08930998 -0.01948878 0.19559073
0.08252005 0.031054111 0.042843077 -0.080390036 0.001874194 -0.022335542 0.0027772447 0.08419001
0.06838955 -0.042671714 0.19358109 0.02646884 -0.078768216 0.04994987 0.016790677 0.061376955
0.19988835 0.16784582 -0.028958943 0.093803495 0.038961183 -0.03696263 -0.007919576 0.2957841
0.112923525 0.15549964 0.12481051 0.15287092 0.03771211 0.06769674 0.17893535 0.13458069
0.06031554 0.0076912404 -0.027795296 -0.038283028 0.19360085 0.027399432 0.040621992 0.03154704
0.11317472 0.14908102 0.12629268 0.085273445 -0.07208732 0.059397154 -0.014811973 0.11375802
-0.019107869 -0.0043139597 0.0060859076 0.124995284 -0.0045385244 0.05167958 0.0623341 0.073578335
0.23044403 0.040253803 0.22588679 0.10674847 0.08170517 0.023400074 -0.004298673 0.030335506
-0.055452563 0.013656146 -0.17123255 -0.10133575 -0.13744594 0.09429441 -0.096397534 0.015168428
0.09325574 -0.009372561 0.06449635 -0.11052588 -0.110293284 0.0012809397 -0.003345263 0.13129625
-0.123669304 0.056694675 -0.19001198 0.0414941 0.0065521244 -0.052658796 -0.06221698 0.048878957
-0.042840607 0.09958579 -0.049404938 0.073755436 0.0973705 0.068705894 -0.04873484 -0.08143443
-0.06646764 -0.0030400392 0.09652584 -0.11426548 -0.085669205 -0.077055596 0.08336474 -0.028277159
-0.017004678 -0.17022473 0.016528979 -0.090207025 -0.09311541 0.074781515 -0.068664685 -0.03432672
-0.14480898 0.13275065 -0.10464185 0.030132204 -0.08792522 -0.06362012 -0.08705203 0.13619986
-0.0636805 -0.035270672 -0.007264294 0.11331802 -0.039404448 0.043242875 0.06508727 -0.0750964
0.15258238 0.110699214 0.1668744 0.028946342 0.048302934 0.22928001 0.2374447 0.031871047
0.08497991 0.17007321 0.060121357 0.04758364 0.053402867 0.16167091 -0.008176775 0.22969092
0.27669498 0.12875283 0.23728077 0.004482261 0.23180003 0.17865703 0.03125951 0.23610124
0.2391854 0.17879865 0.05197015 0.21337962 0.02909451 0.07207725 0.033119455 -0.020233868
0.21534038 0.057014957 0.098576225 0.10752899 0.11174078 0.14238197 0.21172582 0.13770977
0.08729907 0.23238112 0.12284758 -0.015155817 0.092201695 0.091028705 0.19706807 0.035534874
0.22359674 0.20507845 0.12159728 0.10836291 0.13682847 0.068992004 0.182652 0.07703578
0.051757913 0.034338653 0.020047583 0.10968201 0.1573522 0.037415057 0.21099442 0.09887231

rnn_layer.rnn_layer.weight_ih_l0_reverse f4 [256, 50]
00000000: b17f edbd f639 733c 18ca 21be 06c4 2b3b
00000010: 9ce0 55bd 023a b23d b7af 253e 53f6 ac3d
00000020: 22e8 2d3e 687e 9a3d 8239 323e f076 77ba
00000030: 6189 513e 534b a73e f9e7 b53e bc7a 253e
00000040: db25 53bd 721b d03c 82b3 2cbd 16a1 21be
00000050: b9db 083d eae7 b2bc 5a8c 333e b740 363e
00000060: a314 79bc 0446 47bd d404 acbd f966 ffbd
00000070: 9e78 b83d 4859 06be 6e84 a93d bfff 3d3e
00000080: 85bb 8dbd b25c ad3d 2a11 043d bb5c 263d
00000090: 34a2 b73d fefa 043e 797d 5f3e e855 803d
000000a0: a359 503e 5118 1c3e f366 613e 88d2 873e
000000b0: c738 8e3e 434d 6d3e 24fe 3f3e 91eb 853e
000000c0: c073 c73d d340 c13d 6903 b9bd f974 52bc
000000d0: 178c d73c d73f 26bd 82fb 35bb 1fa3 8bbd
000000e0: 3fe8 d43c 0ed6 0a3d 2ac5 813d 758b 1a3e
000000f0: 0857 0f3e 4e8d 7e3b bb1b 73bd 24ec 3a3e
00000100: ba9a 583e ca30 973d 097a 3d3e 42a8 1e3e
00000110: a971 b93d 4fae 923d 651b 313e a77f 8b3d
00000120: 42be 453d 4ff1 323c 1767 4f3e e6b5 b93d
00000130: 1302 473e dfb7 b9bc 190a 083e c70a ec3d
00000140: 948c 073e 68bb 953d 6a0a 113e 4e8e da3d
00000150: 722b 133e 048a 223c 9c64 8c3d 72ad 103d
00000160: 6dd7 d43d e51a 523d c047 9a3d abaf dc3d
00000170: 4b6e fd3d 42c3 153e 5080 6e3d b8f8 023e
00000180: eb25 703d 6b14 e53d fdf5 303c 470d 453e
00000190: 991d ae3c 7eeb a0bd 3a42 8f3c 3d14 efbc
000001a0: 91f7 26be d906 c2bd ed66 d8bd 8272 18bd
000001b0: 91b5 47be d767 99bd 114d 8fbe 044a 49be
000001c0: 4086 42be e728 98bc 73fd 073e 3b1c a53e
000001d0: eb80 e93d 79a4 c93d ee19 e43d f1d3 883d
000001e0: 8949 1f3e 8566 513e 164a 883e 6fd0 9e3d
000001f0: 901b 463e 6bb3 733e f10d 1d3e 3c19 213e
00000200: d8b4 983d 0e48 433e eb16 a53e 20a9 67bd
00000210: 8cf4 483a ff0e d1bd 0b8c 4ebd ab08 013e
00000220: 71d5 b23d 02cb 2b3d 416c b03c 35fb 823d
00000230: 4467 e9bc bca9 48bd f333 513e 0308 253e
00000240: 89ca 413d 89c9 bc3d 1059 9c3d db9f acbc
00000250: f3ee 653e 310e 143e 403d d9bd 972b 803b
00000260: 2989 153d 2b2e fa3c 8511 c33c 9b7f 89bd
00000270: e50b c0bd b9ce 16be 99d0 09be c1d7 9ebd
00000280: c0f8 20bd d353 b63d 8a83 e43d f344 b7bd
00000290: 518a b23d 2fa1 673d 39de e2bd 4906 4d3d
000002a0: 6701 173d dbe2 4a3c 9279 253e c856 323e
000002b0: 3bf2 ff3d 938c 2c3e 1795 003e e5e8 86bd
000002c0: f401 853c 6611 fe3d 014c 7cbb d1fd 953d
000002d0: 8d38 933c 07c6 9e3d ac54 583d bf53 f13c
000002e0: 81b1 693d fb56 143c 27ce cc3c 83e9 973d
000002f0: aca5 db3d 39ce e13d 2c24 613e a5ec 4f3e
00000300: b467 783e bc68 253e 4073 f43d 9eff e53d
00000310: c3d3 1b3d 50d2 003d 80b9 2c3e ce46 33bd
00000320: d477 a3bd b725 8ebd 05f9 d13d 8484 353c
00000330: ba10 96bd cf42 ffbc fb6a 6bbd 8c81 f13d
00000340: 8191 e33c 043a 293e 69e3 64bc b3a5 163d
00000350: c050 b73c 709f 203e 061a 283e adcb 2d3d
00000360: c1bc a5bd 4988 adbb a44e 703c d464 b03d
00000370: d15b 6a3e a85a 8a3d c252 4b3d 394a 503d
00000380: 0695 b83d f4c1 f43b ab03 b23d d89b e23c
00000390: ffd1 063e b061 183d a355 453d 4c9b 9b3d
000003a0: e80f 9a3d c9ed 2d3e 615d 9fbc 3101 a33d
000003b0: 0da2 733d 5741 873e b30f 2f3e 6f59 803d
000003c0: 38d0 a03d 2825 ef3d b76c 623d 2720 823e
000003d0: 79db 7e3e 38f5 7d3d b1c4 963d 437b 9a3d
000003e0: 0070 423e 56d6 583e f9fc bdbd 9d42 94bd
000003f0: b8da 4a3e e9a8 2d3e a117 d7bb 08b9 053c
-0.11596621 0.014845362 -0.15799749 0.0026209368 -0.052216157 0.0870247 0.16180311 0.0844542
0.16983083 0.07543641 0.1740475 -0.00094400253 0.20462562 0.32674655 0.35528544 0.161601
-0.051549774 0.025403712 -0.04216338 -0.15784106 0.03341267 -0.0218391 0.17534009 0.17798124
-0.015202674 -0.048650756 -0.083993584 -0.12470812 0.09007381 -0.13119996 0.08277212 0.1855459
-0.06920532 0.08464946 0.03224293 0.04061578 0.08966485 0.12986371 0.21825208 0.06266385
0.20346694 0.15243651 0.22011928 0.2652781 0.27777693 0.23174004 0.1874929 0.26156285
0.097388744 0.09436192 -0.090338536 -0.012845271 0.026311917 -0.040588226 -0.0027768319 -0.06818222
0.02598965 0.033895545 0.06336434 0.15092261 0.13998044 0.0038841548 -0.059352618 0.18254143
0.21152773 0.07382353 0.18503584 0.15493873 0.09054882 0.07162153 0.17295606 0.06811457
0.048277147 0.01092179 0.2025417 0.090678975 0.19434385 -0.022670684 0.13285102 0.11525493
0.1323722 0.073111355 0.14164129 0.10671674 0.14372042 0.009920601 0.06855127 0.03532166
0.10392652 0.05129518 0.075332165 0.107756935 0.12374552 0.14625266 0.058227837 0.12790191
0.05862991 0.11185535 0.010800836 0.19243346 0.021254348 -0.078574166 0.017487634 -0.029184455
-0.16305377 -0.09473962 -0.105665065 -0.03721858 -0.19502856 -0.07490509 -0.27988485 -0.19657141
-0.18996525 -0.018574191 0.13280277 0.322481 0.11401542 0.09845824 0.11137758 0.066810496
0.15555395 0.20449264 0.26619023 0.07754599 0.19346452 0.23798911 0.1533735 0.15732282
0.07456368 0.19070455 0.32244048 -0.056557775 0.0007665835 -0.102079384 -0.050426524 0.12600963
0.08732117 0.04194165 0.021535994 0.0639557 -0.028491624 -0.048989996 0.20429973 0.16116337
0.047312293 0.09218127 0.07634175 -0.021072319 0.22454433 0.14458539 -0.10607386 0.0039114463
0.03650776 0.030539593 0.023812065 -0.06713792 -0.09377269 -0.14727296 -0.1345848 -0.077559955
-0.039299726 0.08902707 0.111579016 -0.08948698 0.08717788 0.0565502 -0.11077542 0.050054822
0.03686657 0.012383188 0.16159657 0.17415917 0.12497374 0.168505 0.12556873 -0.0658739
0.016236283 0.12405662 -0.003849745 0.07323802 0.017971301 0.077526145 0.052815124 0.029458879
0.057054047 0.009053941 0.025000645 0.07417586 0.10724959 0.11025662 0.21986455 0.20305116
0.2425831 0.16153234 0.11936045 0.11230396 0.03804375 0.03145057 0.16867638 -0.043768696
-0.0798184 -0.06940787 0.10252575 0.0110789575 -0.07327409 -0.031159787 -0.05747507 0.11792287
0.027779343 0.16526037 -0.013970234 0.036779117 0.022377372 0.1568582 0.16416177 0.04243057
-0.080926426 -0.0052957875 0.014667187 0.086129814 0.22886588 0.067555726 0.04963947 0.050852034
0.09012799 0.00746941 0.08692106 0.027662203 0.13166045 0.037202537 0.048177373 0.0759798
0.07522565 0.16985239 -0.019453706 0.079592116 0.059480716 0.26417038 0.17095833 0.06267058
0.078522146 0.11677009 0.05527946 0.25415155 0.2488841 0.062001437 0.07361735 0.075430416
0.18988037 0.21175513 -0.09276766 -0.07239268 0.19809997 0.16958965 -0.006564096 0.008161791

rnn_layer.rnn_layer.weight_hh_l0_reverse f4 [256, 64]
00000000: 18be 17be 63bf c2bd 9d96 40be b59f b2bc
00000010: 5735 5cbc f476 7abd 570a db3d fd22 d5bd
00000020: 8337 843d 15d9 a63c 401c c2bd 10b1 ebbc
00000030: bb64 e03d 83bb 0bbe 1e4a 9dbd 656c 4f3e
00000040: 4f66 4dbc 12ac 46bd bf89 b03d 9ed8 433d
00000050: 1f88 0b3e b674 1bbe ced8 11be 602f 5bbc
00000060: 57ee af3c 8606 c43d 58ec eebc d9cb 8bbc
00000070: e7e0 f9bc d93c 02be d7e3 f73c 70cd 0f3e
00000080: 9edc 073d b205 13bd 98a1 9abd 9360 09be
00000090: 6b20 9c3b 6c8b 2e3d 3252 613b 80b3 0dbe
000000a0: aff1 2dbe 3b47 35be bafb c3bc 5776 ac3d
000000b0: f8d7 14bc c967 c5bd 4b88 c13d 77c3 9e3c
000000c0: cb8c fb3d f7e1 89bc 1362 83bd c16b 713d
000000d0: f378 ef3c 3481 17be 75ea 1ebe 0f45 133e
000000e0: 66a5 783d 125d aa3d 9bb5 1abe 160c 5dbe
000000f0: 197c 35bd 5300 ed3d 5923 ff3a 95d8 d13d
00000100: 52de 2f3e 5ff7 fdbd c975 d8bd 4ac0 ddbd
00000110: e0c4 3abd 0f04 69bd 3be3 123c 2aa3 1cbe
00000120: d55e a4ba 1c0f f73c bf3e 86bd 9606 a33d
00000130: e560 1b3d 1935 733d 0cb9 743d eb68 c03d
00000140: 6e95 f23c 03fa 603d 5aff 993e cc09 243b
00000150: 80a6 8b3e d727 80bd 3a58 1c3e 386e be3d
00000160: ea57 cf3c c066 74be 7537 14bd cf87 9dbd
00000170: 9c25 fcbc 74a6 293d b40d 72bd fc68 99bb
00000180: cf28 77bd 87ed 36bc 3f84 203d e184 33bd
00000190: b0d3 2e3d afda 033d 4f8e 613d 7c44 2d3e
000001a0: 7eda 9dbc 15c3 de3c 02b8 40be dbd7 bd3d
000001b0: 3f62 28bd 6288 8e3d b2af 693d e618 0abe
000001c0: 81b7 b1bc e2cd 253c 7f38 683d 445c ddbd
000001d0: 5dc8 fcbd 863c aebc ccf9 443d 9199 323d
000001e0: d2b6 333c 6377 ff3d c67b bfbd ea72 bc3e
000001f0: c93b 8abc a598 9dbc e37b 1c3c b835 b03b
00000200: 54b7 47bd 77b9 da3b f8ee e4bd 7b1b a1bd
00000210: fa81 22bd cb06 0cbe b15e d2bd bb0f 653d
00000220: e3df 98bd 33d7 143d b817 8abd ba29 99bc
00000230: e71c a5bd 0b2c 763a 62f3 31be 9cda 553e
00000240: 5a88 f43d d1c4 7fbd a6aa 683c 8f61 abbc
00000250: deed 973d 335f 093e 1478 bb3c 24fb 803c
00000260: dbb0 c33d a3bb 8dbd eea5 463d e658 593d
00000270: 17aa b73d 8b52 4fbd e43b a73d f4d1 1a3e
00000280: b812 733d 60b1 1b3d bef8 823c 618e ee3d
00000290: d3d7 12bd 3e25 403e 96b1 1abd 9e6f babc
000002a0: 73a2 823d ea88 8d3d 717e 32bd abb7 38bd
000002b0: 7b7e 3c3c f06b 173e 2e48 c73d dd89 953d
000002c0: fa02 0e3d 238f 5b3c 8953 f23c f4f3 aa3c
000002d0: fffb d9bd 5475 ff3d 0194 f63d 8f2e 3c3d
000002e0: 39da fb3d 8fe1 c73c 89f2 113e 418c d53d
000002f0: d6e7 31bd d263 2abd 84ae cc3d 0bcb f33c
00000300: 71a7 0f3c 3a03 26be b44c 8fbd 10b4 49bc
00000310: 4ef1 713d 7c95 1bbe 21fa b33d a488 6c3d
00000320: a428 f0bc 7dfd 0cbd 0f36 b2bd 4548 3d3e
00000330: d360 403d 4784 903d 0237 8bbb 3fe8 443c
00000340: 9cad 553c 17d0 b53b 564f a33d 747c 503c
00000350: aae6 cb3d cee5 363d cfac d7bc 85bb b5bc
00000360: 632e c6bd 8c4c f8bc 8b47 d33c 5ceb 8ebd
00000370: 15c5 293d a8b4 98bd 89d9 2f3d 59aa 6b3b
00000380: 9914 af3d 8ffe 673d a515 edbd da8e 8fbd
00000390: cc6a 8b3d 0d61 b83d 9c47 3cbc 2f92 bdbd
000003a0: 57b2 5bbd ce03 41bc f043 42be 4a13 e1bd
000003b0: 0e55 a4bd 136c 253e 547a 433d c1b0 b9bd
000003c0: 7b8d 22be 6032 78bb 8ae3 09bd 497a 39bd
000003d0: 7cba acbd 1ea7 a8bd 4339 b13d dd1b 5a3d
000003e0: 6045 50bd 7942 083e d2fa 69bd 5446 86bc
000003f0: 8384 043e d2cc 88bd 873f 223d 3288 6fbd
-0.14818609 -0.0950916 -0.18807454 -0.02180467 -0.013440452 -0.0611486 0.106953315 -0.10407064
0.064559005 0.020367185 -0.094780445 -0.028770953 0.10956713 -0.13645749 -0.07680152 0.20256193
-0.012536599 -0.048503943 0.08620023 0.047814004 0.13626145 -0.1518124 -0.1424286 -0.013377994
0.021475954 0.09571557 -0.029165432 -0.017064976 -0.03050275 -0.12718524 0.03026001 0.14043212
0.03316938 -0.035894103 -0.07550353 -0.13415746 0.0047646067 0.04261343 0.0034381268 -0.13838005
-0.16986726 -0.17702954 -0.023923744 0.08421009 -0.009084694 -0.09638936 0.09449824 0.019380314
0.122827135 -0.016831381 -0.064151905 0.058940653 0.029232478 -0.14795381 -0.15519126 0.14381813
0.06070461 0.08318533 -0.1510834 -0.21586642 -0.044307802 0.115723275 0.001946549 0.10246388
0.17174652 -0.12400698 -0.10569341 -0.10827692 -0.04559791 -0.056888636 0.008965309 -0.15296617
-0.0012540469 0.030158572 -0.065549366 0.079602405 0.037934203 0.05937681 0.059746787 0.093950115
0.02961227 0.05492593 0.3007763 0.0025030253 0.27275467 -0.06257599 0.15268031 0.09298366
0.025310475 -0.23867321 -0.0361857 -0.07691919 -0.030779652 0.041418508 -0.0590951 -0.0046817046
-0.060341652 -0.011165029 0.03918862 -0.043827895 0.04268235 0.032190975 0.055067357 0.16920656
-0.019269224 0.027192632 -0.18820193 0.09269687 -0.04110932 0.06959607 0.05705232 -0.1348606
-0.021693947 0.010119887 0.056694504 -0.10808614 -0.12342904 -0.021269094 0.048089787 0.043603484
0.010968881 0.12473943 -0.0934978 0.36806422 -0.01687421 -0.019237826 0.009551021 0.0053774975
-0.04875882 0.006674941 -0.11178392 -0.078665696 -0.039674737 -0.13674466 -0.10271967 0.055923205
-0.07464578 0.036338042 -0.06742805 -0.018696655 -0.08062153 0.0009390718 -0.17378 0.20884174
0.119400695 -0.062443558 0.014200842 -0.020920543 0.074184164 0.13415222 0.022884406 0.015744753
0.09555217 -0.069205545 0.048498087 0.053063296 0.08967989 -0.05061583 0.0816572 0.15119153
0.059344023 0.038010955 0.01598775 0.1164825 -0.035850357 0.18764207 -0.037767015 -0.022758301
0.06378641 0.0691088 -0.043577615 -0.045097034 0.011504765 0.14787269 0.09730564 0.07301686
0.034670807 0.013400826 0.029580848 0.020868279 -0.106437676 0.124735504 0.12039948 0.04594284
0.12297482 0.024399547 0.14252676 0.10427142 -0.043433987 -0.041599102 0.09994224 0.029759904
0.0087679485 -0.16212168 -0.06997052 -0.012310997 0.059068017 -0.15193743 0.08787943 0.0577475
-0.029316254 -0.034421433 -0.08701717 0.184846 0.04696734 0.0705648 -0.004248501 0.012018262
0.01304188 0.005548488 0.079741165 0.012724984 0.09956105 0.044652753 -0.026327519 -0.022184143
-0.09676816 -0.030309938 0.02579095 -0.06978485 0.041447718 -0.074563324 0.042932067 0.003595969
0.085488506 0.05663925 -0.11576394 -0.07009669 0.06807479 0.09002886 -0.011491682 -0.09256398
-0.053636875 -0.011780692 -0.18971229 -0.10990007 -0.080240354 0.16154508 0.047724083 -0.09066916
-0.15874283 -0.0037871823 -0.033664264 -0.045282636 -0.084340066 -0.08235 0.086535 0.05324923
-0.05084741 0.13306607 -0.057123967 -0.016390957 0.12941174 -0.066796914 0.039611366 -0.058479495

rnn_layer.rnn_layer.bias_ih_l0_reverse f4 [256]
00000000: aac8 75bd 3598 f13d 9668 873a d943 143e
00000010: c4c4 343d 0b32 3e3d 9c7a 103e 3e05 5ebd
00000020: afcd 213e 8b75 8e3d 674e 62bc 707b 113e
00000030: b653 053e d565 533e a6a7 6c3d 7b41 51bc
00000040: 770a 253e ce08 65bd b9bb 753e 7a88 6e3d
00000050: 4acb fe3b 03fa 2c3e de31 3c3e a296 5a3e
00000060: 9787 ab3c 6075 3e3e 693e 9dbc d444 463e
00000070: c580 373e dd70 d9bb cb87 a93d 531e 143e
00000080: 4420 813d 5a18 7d3c 97ab b43d 0e2d 463d
00000090: 76be ae3d 18ef cc3d fee5 c03d cf46 0e3e
000000a0: 15f6 063e 0e4f 783e 3662 ec3d e2d4 643e
000000b0: 7ff6 883d 05a7 903c b039 3d3e 36fb 383d
000000c0: 3176 fa3c 274a 1d3e b364 09bd aaeb 363e
000000d0: ede6 e83d febf 05bd e0de 003e c36a 193e
000000e0: b1b2 e93c ac74 493e 9a01 323e 0329 91bc
000000f0: 56a5 1c3d cc0f 893e 0498 213d 0417 123e
00000100: 752f d13d 1fe0 0d3e 8a5d 57bd 0900 863d
00000110: 6c10 173e eb14 85bd 46b2 1f3c b6b1 c7bd
00000120: 8b95 c83d 67c4 5e3c 732a 5b3c 6acc debd
00000130: e591 a938 1042 2c3e a191 8d3c 4b09 4b3e
00000140: 61f1 f43d c855 083e 7466 8c3d e779 f6bb
00000150: 5db0 e2bc 579c a1bc 0ec0 bd3d 97a7 cabb
00000160: ef84 893d 959b 453d d1cb e23c 02ed 083d
00000170: f7d0 6dbc 6cc0 003e 2cae 0d3e ba1b c13d
00000180: 9fab 823d ab6b 6b3d 4ef7 97bd 2d45 853d
00000190: 891c 0a3e bd8c 8abd b275 963d df8d 64bd
000001a0: 7af9 883d 73af ddbc affc b33d 9a67 ca3c
000001b0: 27d3 153e cb26 4a3b 2840 143c 6dfb 893d
000001c0: 4211 9bbd ae55 05bd 1ac2 5d3e f4b9 103e
000001d0: 89f9 103d b20e 4c3e b49b df3d 5607 9c3d
000001e0: 6c99 33bd f4fa 2dbd 4e88 a13d 164d 583d
000001f0: 6107 463d 8b23 e63c 9cd1 353b 931f 63bd
00000200: b7a4 383b 6406 80bd 60fc 85bd 6632 f3bd
00000210: 12f6 2d3d 232f b2bd 2992 acbd 65e2 f73d
00000220: 3f7d 52bc 8778 14be ee6b bc3d e907 e43b
00000230: 4e98 7dbd a3b5 b03c 44d5 71bd 99ea 2c3e
00000240: 1093 87bd e4df ddbd c4be e43b 226b a7bd
00000250: ca4b 14be a41f babd a09d 3abd f2a7 033b
00000260: 4f0f 663b 1a5e e13c 7f0b c3bd 989d b7bd
00000270: a235 b23d c47c 17bd 820e 723d adc7 a23c
00000280: 1838 8f39 232b f83d 8ae1 96bd 5804 c23b
00000290: a472 51bd 1c49 08bc b3f4 d73d 9ba0 253d
000002a0: 33ee fd3d 54bb d1bc aa48 5b3d 1b00 71bc
000002b0: f9f7 913d 7485 8e3d 991c 103e 38fe c83d
000002c0: 711b 82bd e466 b3bd 980e c8bc b696 8cbd
000002d0: d33f c63d c154 0f3e 415d 9d3d 38ba a93c
000002e0: ef24 5d3b 6c7f 0cbc 22e3 a83c 44d5 56bb
000002f0: 4700 3cbe 017a bbbc 594f 853c a16a d3bc
00000300: 41f1 c73d f412 5e3e 1ca3 2b3e 8dee 4c3c
00000310: 0401 1d3e e371 263d c095 32bc cc57 583c
00000320: 9e93 bbbc 9489 303e c6f2 573d 1e7d 2ebd
00000330: 8e23 b03c 8893 11bc a50f 763e c5d0 6f3d
00000340: 6b61 093e 20a0 063e 3c80 023e 703b fa3c
00000350: 11f6 063d 1864 2dbc 30c5 5d3d 01b6 cb3d
00000360: b609 4dbc 44a1 a9bb 64ee b43b 8d96 1a3e
00000370: a741 403e a1f6 333e 3f06 4a3e 899b b53c
00000380: 433f 50bd b461 ed3d ac77 3d3b e94b 88bc
00000390: 8547 ce3d 15e2 0ebb d859 0a3d 0524 cc3c
000003a0: 3831 003e b18a f43d 138a 063d 6246 2b3e
000003b0: 5aec 08bd 1c62 533c 0d6a 28bc dced 053e
000003c0: a78a 93bc 629a 143e ef7f d93d 1c11 463e
000003d0: be81 963d c9f6 443d 2b5b 383d eec2 7e3d
000003e0: 9507 53bc 4044 ca3d 2a44 103e f399 8e3d
000003f0: 86cb ed3d 70c0 093e 9169 edbb 38cd ba3d
-0.06000582 0.11796609 0.0010330852 0.14479007 0.044132963 0.046434443 0.14109272 -0.054204218
0.15801118 0.06956013 -0.013812638 0.14207244 0.13020214 0.20644315 0.05777707 -0.012771959
0.16117273 -0.0559166 0.23997392 0.058235623 0.007775699 0.16892247 0.18378398 0.21346524
0.020938678 0.18599463 -0.019194799 0.19362193 0.17920215 -0.006635769 0.082778536 0.14464693
0.06304982 0.0154477 0.08821791 0.04838281 0.08532421 0.10006541 0.094188675 0.13894199
0.1317981 0.24248907 0.1154217 0.22346833 0.066876404 0.017657766 0.18479037 0.04516145
0.030573936 0.15360318 -0.0335433 0.17863336 0.113721706 -0.0326538 0.1258502 0.14982133
0.02852759 0.19673413 0.17383423 -0.017719751 0.038243614 0.26769865 0.039451614 0.14266592
0.1021413 0.13855027 -0.05257944 0.065429755 0.14752358 -0.064981304 0.009747094 -0.097506925
0.09794148 0.013596631 0.01337682 -0.10878833 8.085723e-05 0.16822076 0.017281355 0.19827764
0.11960102 0.13313973 0.06855479 -0.007521856 -0.027671987 -0.019727869 0.09265147 -0.006184529
0.06714808 0.048244078 0.027685078 0.033429153 -0.014515153 0.12573403 0.13835973 0.094291165
0.063803904 0.057475727 -0.074202165 0.06507335 0.13487448 -0.06765125 0.07346667 -0.05579936
0.06688209 -0.0270612 0.0878843 0.024707604 0.1463133 0.0030845876 0.009048499 0.06737409
-0.07571651 -0.032552414 0.21656075 0.14133435 0.035394225 0.19927481 0.1091837 0.07618587
-0.043847486 -0.042475656 0.07887326 0.05280789 0.04834688 0.02809312 0.0027743345 -0.055450033
0.002817435 -0.06251219 -0.06542277 -0.11874847 0.042471 -0.08700397 -0.08426315 0.12103728
-0.012847244 -0.14499103 0.092002735 0.006958951 -0.061912827 0.021570986 -0.059041277 0.16886367
-0.06619847 -0.108337194 0.006980749 -0.08174731 -0.14482036 -0.09088066 -0.04556048 0.0020089117
0.003510434 0.027510691 -0.09523677 -0.089656055 0.08701636 -0.03698422 0.059095867 0.019870603
0.0002731688 0.12117603 -0.07367237 0.005920928 -0.05113472 -0.008318212 0.105447195 0.04043637
0.123989485 -0.02560202 0.053536095 -0.014709498 0.07127375 0.06959048 0.14073409 0.098141134
-0.0635289 -0.08759859 -0.024421021 -0.06864683 0.09680142 0.13997175 0.076838024 0.020718679
0.0033743938 -0.008575302 0.020616118 -0.0032780925 -0.18359481 -0.022885324 0.016273187 -0.02580768
0.097628124 0.21686918 0.1676144 0.012508047 0.15332419 0.040635955 -0.010899961 0.013204526
-0.022897538 0.17239982 0.05272176 -0.04259979 0.021501329 -0.008885272 0.24029405 0.058548708
0.13416068 0.1314702 0.1274423 0.03054592 0.03294951 -0.010582946 0.05414313 0.09946824
-0.012514522 -0.005176695 0.0055215824 0.15096493 0.18775044 0.1757455 0.19728945 0.022168892
-0.05084158 0.11590901 0.0028910441 -0.01663776 0.10072235 -0.0021802236 0.033777088 0.02491952
0.12518775 0.11940516 0.03284652 0.16726068 -0.033428527 0.012901809 -0.010279191 0.13079017
-0.01801045 0.14512017 0.106201045 0.19342464 0.07348965 0.048086915 0.04500882 0.06219762
-0.012880226 0.09876299 0.14088503 0.06962957 0.11611085 0.13452315 -0.0072452505 0.091211736

rnn_layer.rnn_layer.bias_hh_l0_reverse f4 [256]
00000000: e848 d13d 20aa 943e 7778 e2bc 155c c3bd
00000010: 09f3 213e d139 9a3d 2899 0f3e fec5 cd3d
00000020: ad65 033e 1c6a de3d 137f a83d 71d4 a23c
00000030: 2310 713d 2454 443e c639 753e f5ea e43d
00000040: 086e 623e 9dff 143d 173a 5e3e d548 7dbd
00000050: 3aba a33d f56f bb3d 7ce3 373d c11f 8b3d
00000060: 394d 3a3d 3d33 3b3e 157e 3c3e 73fe a63d
00000070: 8138 1c3e fec4 59bb 05ea 3f3e b149 0d3e
00000080: 9cd4 f8bb 4927 9fbc bca6 f43c 9174 80bd
00000090: f6cd 6b3e 1051 243e 60cb 9b3d c8c0 e03d
000000a0: f02e ad3d a520 0d3e e4b0 0c3e 071a e93c
000000b0: c302 cb3c b52c 2b3c e37b c23b b08a a73b
000000c0: 31dd 293e 5c50 cd3d 169a eabb 8f7f d93d
000000d0: 362b 203e e8bf d73d 0fec 6c3c 8bc2 d43c
000000e0: ac0c a63c a49c cf3d 41d0 833c 8973 99bd
000000f0: a8fc 4c3e 74e7 863e e32d 82bc 05c7 a13c
00000100: d7a0 6abc 43cf a0bd 76df 4a3d 76fe 713d
00000110: ed6e 293e 7b5d 0b3d f4df 053d d157 62bd
00000120: b944 0f3e 5982 a63d 82e3 aa3c 2868 9a3d
00000130: 1e98 173e 567f b33d 7106 a83d 4c1b d3bb
00000140: 6cb0 8f3d b39b 963d c86e 893d d375 003d
00000150: f1c3 d8b9 7c36 1ebc 9e99 d53d c3fb d43d
00000160: 8ce6 35bd a601 be3d a03b a03d e404 5bbd
00000170: 85d3 1b3e 839a 3e3e 5b6b 453c 9565 083d
00000180: f238 10bc f025 93bd fe90 04bb e1a8 233d
00000190: 378f 293e 68b7 913d 14e8 4ebd 3c8e 043e
000001a0: 6c43 093e 921c 81bc 43eb aa3b 665e b63d
000001b0: 5ec6 573e dd0f bbbd 272a f93d 0672 293e
000001c0: 7d11 3cbc c1af a1bd 8b9f fc3d f1f3 5abd
000001d0: 9676 1b3e d135 f93d 5754 253e d9fd cebb
000001e0: e1b5 cf3d ee22 9f3c 0aec 92bd 9655 813d
000001f0: 1b98 cdbd a224 873d f359 d9bd b216 00bc
00000200: 35d9 143d dc69 dfbc fe28 2dbd e64a 00be
00000210: f90f 36bd 0023 b1bd 7490 e3bd e89f a73d
00000220: e6ab b6bd a677 c3bc 108b cbbd 1131 72bd
00000230: 8130 be3c 0051 f2bc 0bdf 16be d080 c23d
00000240: f734 59bd aa13 df3c 45dc aa3d 8a84 3abd
00000250: 57fb 03be 59f3 7fbd 2445 67be 0a0a 703d
00000260: 2f64 e33c bfa1 383c af13 94bd c86e fdbd
00000270: 9730 83bd 0d1f b13c 14ea abbd dc9a c4bd
00000280: 1c00 20bd 760a 79bd 33c4 fdbd f04c 3a3b
00000290: 1fee e73d 1edd 9abd 763e 8a3d ff71 7d3d
000002a0: dac5 54bd e96a 2cbe b970 ad3d 0fc1 89bc
000002b0: c52f d9bc e13b e4bd 89dd df3c 91d5 8cbd
000002c0: abb4 bc3c eee0 10bd 2715 ce3d 29d7 a43d
000002d0: ad4c 1d3c b19a 2fbb 3d0b 5e3d 68f0 89bd
000002e0: cca6 23bd a961 ad3b cc01 d93c b0f2 10be
000002f0: e950 1a3d 627e d2bd 26f6 02be 61dd b7bd
00000300: b102 be3d 5da0 723e f968 1a3e 1d75 1b3d
00000310: 0328 363e 392c 10bc c3c0 6cbc 2251 75bd
00000320: 7790 913d 5483 493e 7bdb 103e 52bd 10bd
00000330: 5470 81bd 0256 93bc eded 323e c472 b0bc
00000340: 86d6 523e 43db 033e 98ed 003e 8000 ee3d
00000350: 9bd6 04bd 5719 e03d 0168 253e 7e60 8b3d
00000360: ee29 fe3d 3365 3b3e 814c cc3d a06f 993d
00000370: 595a e5bc 6e9b 293e 86d7 543e e2af f7bc
00000380: 5e4c fc3d ad45 803d ddbd 213e 17d0 ba3c
00000390: 9fea fc3d 5758 72bc d792 7ebc 40d2 153c
000003a0: 168b a63d 7dba 223d 0cb7 cf3d 2700 a23d
000003b0: 7b05 19bd 4c39 f93d 6479 f23d caae 243e
000003c0: 5e06 a83d aff0 e03d 605f 3dbd b2ce 3b3e
000003d0: f7ed 063e e0d9 663e 4063 1bbd d147 293e
000003e0: 99e4 fa3c 4f62 963d 96e0 d83d ca0f 233d
000003f0: 0ce0 943d 073c 21bd 634d e73d ee26 cabc
0.10218984 0.29036045 -0.027645333 -0.09539048 0.15815367 0.07530559 0.14023268 0.1004753
0.12831755 0.108600825 0.082273625 0.01987669 0.05885328 0.19172722 0.2394782 0.11177627
0.22112286 0.036376584 0.21701847 -0.061837036 0.07994504 0.091522135 0.04489468 0.06793166
0.0454838 0.18281265 0.18407471 0.08154001 0.1525593 -0.0033228989 0.18741615 0.13797642
-0.0075937044 -0.019427912 0.029864661 -0.06272233 0.23027787 0.16046548 0.0760715 0.1097427
0.08456218 0.13781984 0.13739353 0.028454794 0.02478159 0.010447671 0.0059351786 0.0051129684
0.16588284 0.10025093 -0.0071594818 0.10620033 0.15641484 0.1053465 0.014460578 0.025971672
0.020269714 0.10137299 0.016090514 -0.0749274 0.20018256 0.2634846 -0.015891021 0.01974822
-0.014320574 -0.07852032 0.049529515 0.059080563 0.16546221 0.034024697 0.03268428 -0.05525953
0.1399106 0.081303306 0.020860437 0.075393975 0.14804122 0.08764522 0.082043536 -0.006442463
0.07016072 0.07353916 0.06710583 0.031362366 -0.00041344718 -0.009656545 0.10429691 0.10399582
-0.04440932 0.09277658 0.078238726 -0.05347146 0.15217407 0.18613629 0.012049521 0.0333
-0.008802639 -0.071849704 -0.0020228024 0.039955977 0.16558538 0.0711506 -0.050514296 0.12944883
0.13404626 -0.015760694 0.0052160337 0.08904724 0.21071765 -0.09133885 0.12166243 0.16547403
-0.011478779 -0.078948505 0.12335118 -0.053455297 0.15181956 0.12168468 0.16145454 -0.006316882
0.101421125 0.019425835 -0.07173927 0.06315152 -0.100387774 0.06598784 -0.106128596 -0.007817911
0.036339957 -0.027272157 -0.04227542 -0.12528571 -0.044448826 -0.08649254 -0.111115366 0.081847966
-0.08919506 -0.023860764 -0.099386334 -0.059128825 0.023216488 -0.02957964 -0.14733522 0.09497225
-0.053029027 0.027231056 0.08342794 -0.045536555 -0.12888847 -0.062487934 -0.22584969 0.058603324
0.027757732 0.011269032 -0.07230317 -0.123746455 -0.06405752 0.021621251 -0.08394256 -0.095998496
-0.039062604 -0.060800992 -0.12390938 0.0028427206 0.11324715 -0.07561706 0.06750195 0.061876293
-0.0519465 -0.16837658 0.08468766 -0.01681569 -0.026512036 -0.111442335 0.027327316 -0.06876672
0.023035368 -0.03537076 0.10062628 0.08048851 0.0096008 -0.0026795084 0.054209936 -0.06735307
-0.03995399 0.005291183 0.026490115 -0.14155078 0.03767482 -0.10278012 -0.1278921 -0.089777716
0.09277857 0.23693986 0.15079106 0.037953485 0.17788701 -0.008799606 -0.014450255 -0.059891827
0.071076326 0.19679004 0.14146225 -0.0353368 -0.06320253 -0.017985348 0.17473574 -0.0215391
0.20589647 0.1287661 0.12590635 0.11621189 -0.032431226 0.10942333 0.16152956 0.06805514
0.12410341 0.18300323 0.099755295 0.07491994 -0.027997183 0.16563198 0.2078534 -0.030235235
0.123192534 0.062632896 0.15795083 0.022804303 0.12349438 -0.01479157 -0.015537939 0.009144366
0.08131997 0.03972863 0.10142335 0.07910185 -0.037358742 0.12169132 0.1183956 0.16082302
0.082043394 0.10983407 -0.046233535 0.18340567 0.13176714 0.2254405 -0.03793645 0.16531302
0.030626582 0.073429696 0.10589711 0.03980998 0.07269296 -0.039363887 0.11294057 -0.024676766
