dl_ouptut/lstm.pth (torch, 670695 bytes, 46 tensors)

rnn_layer.rnn_layer.weight_ih_l0 f4 [256, 50]
000000 a3 82 90 bd 22 d8 ff bc 5c ae 9a 3d 0c df 03 3e
       -0.07056167 -0.03123099 0.07552788 0.12878054
000010 fe c0 88 3e dd 7a 07 3e c2 9a aa 3d ff 3b 1e 3d
       0.2670974 0.13230462 0.08330299 0.038631435
000020 ad 44 70 3e 8b e9 45 3e 90 16 92 3c 1f b8 a5 bb
       0.23463698 0.19327371 0.017833024 -0.0050573493
000030 a7 72 10 3d ab ee 2d 3e 68 89 83 3e 3a 7e ac 3e
       0.03526559 0.16985576 0.2569077 0.33690053
000040 fa 39 3f 3e de c4 b9 3d 48 d2 05 3e 26 b8 20 3e
       0.1867446 0.090707526 0.13068497 0.15695247
000050 b9 c2 17 3e 53 63 b4 bc fc 83 37 3e 04 73 ae 3d
       0.14820375 -0.022020018 0.17921442 0.08518031
000060 fa 78 31 3e c7 57 3a 3e f9 97 37 3e aa 7f ba 3d
       0.17331305 0.18197547 0.17929067 0.09106381
000070 c4 a1 01 bd 8a 73 7b bd 05 f9 00 be 67 c1 81 3d
       -0.031648412 -0.061389484 -0.12594993 0.06335717
000080 e7 d5 3b bd a1 a4 7d 3d 2b f7 fa 3c 1d 2f 35 3e
       -0.04585829 0.06192458 0.030635437 0.17693754
000090 e9 c8 df 3d ef 35 2a 3e 37 41 01 3e ba b6 74 bb
       0.109269924 0.16622137 0.12622534 -0.0037340359
0000a0 3e 24 b1 3d d9 65 73 3d 79 f2 6f 3c 96 06 dd bd
       0.08649491 0.0594233 0.014645212 -0.10792272
0000b0 ba c1 33 3d 9a b5 d2 bc 11 8f f5 3d ea 22 a0 bc
       0.043885924 -0.02572136 0.119901784 -0.019547898
0000c0 b0 5b 23 3d 96 49 f2 3d a1 40 b0 bd 89 f5 91 bd
       0.039882362 0.11830442 -0.08606077 -0.0712691
0000d0 0a 50 bc 3d 13 5c a4 bd 81 7e 20 bd 6c 31 dc bd
       0.09194954 -0.08025374 -0.039183144 -0.10751614
0000e0 45 f2 8c bd ab c7 bf bc 9b e9 88 3d df 7e 06 3e
       -0.06882147 -0.023410639 0.06685182 0.13134335
0000f0 1c 2a 14 bd 8c f6 2f 3d 92 db 04 3e d4 74 8f 3e
       -0.03617297 0.042959735 0.12974384 0.2801882
000100 3c 0b 3d 3e db a6 39 3e 15 24 10 3c 76 72 17 3e
       0.18461317 0.18130057 0.008797665 0.14789757
000110 22 92 15 3e ee eb 66 bd 54 8d 3b ba 56 27 33 3e
       0.14606526 -0.056377344 -0.00071545434 0.17495474
000120 1d d0 87 bc 08 d2 5a bc 7a e6 64 bd 7c 98 58 be
       -0.016578728 -0.013355739 -0.055883862 -0.21151918
000130 29 a8 0b be 5d 2e b1 bd 80 da 86 3c 1c a7 0c 3d
       -0.13638367 -0.08651421 0.01646161 0.034339055
000140 10 67 b0 bd 59 cc c2 3d 04 4f 3d 3e 6f 31 74 3e
       -0.086134076 0.095116325 0.18487173 0.23846982
000150 cb c5 52 bc ea 84 a2 3d dd 22 d3 bc 31 b4 2f 3d
       -0.01286454 0.079355076 -0.02577346 0.042896453
000160 23 58 86 3b 36 8e 03 3e dd d4 20 3b 07 e3 16 3e
       0.004099862 0.12847218 0.002454094 0.14735042
000170 14 7b cb bc a6 a3 89 3c a9 8a b9 3d 21 98 b2 bb
       -0.024838962 0.016801666 0.090596505 -0.005450264
000180 49 19 09 bb 6a 88 f2 3c 3f 66 ab 3d 46 51 06 3e
       -0.0020919612 0.029606063 0.08369111 0.13116941
000190 41 d0 ec bd fe 32 22 3d 29 cf af bd 33 0d 54 be
       -0.11563159 0.03959941 -0.085844345 -0.2070816
0001a0 3e 90 cb bd b0 34 7d bd 03 72 5d 3d 08 63 7a 3d
       -0.099396214 -0.061817825 0.05406381 0.0611296
0001b0 98 85 2e bd 82 a9 c8 bd fd c7 91 bc 6e e8 0a 3e
       -0.042607874 -0.09797956 -0.017795557 0.13565227
0001c0 d1 84 3e 3e ad fe 3b 3e 61 04 c3 3d 07 21 0a 3d
       0.18605353 0.1835887 0.095223196 0.033722904
0001d0 83 59 a4 bd aa 6d 88 3d a4 e6 0b be 9e a3 1e be
       -0.080248855 0.06661542 -0.13662201 -0.15492103
0001e0 bf 49 8f bd 75 e6 8a bd 2d ea 81 3d 58 99 a5 3c
       -0.06996488 -0.067822374 0.063434936 0.020214722
0001f0 5f e4 d5 3d e8 62 b0 bd 5e f4 59 3a 9c 0b 0d 3e
       0.10443949 -0.08612615 0.00083143066 0.1377396
000200 48 5b c4 3d 55 05 51 3e 43 75 81 3e 22 0f 21 3e
       0.09587723 0.2041219 0.25284776 0.15728429
000210 51 ae 3f 3d fd ed a6 3d 39 49 12 3e f2 32 8e 3d
       0.0467971 0.081508614 0.14285745 0.06943311
000220 37 3c 41 3e 44 9f a7 3d fe b7 26 bd 8d 48 10 bd
       0.18870626 0.081846744 -0.040702812 -0.03522544
000230 82 51 ce 3d 50 e9 9e bd fd d2 a0 bd 80 2e 39 be
       0.1007414 -0.077593446 -0.07852743 -0.18084145
000240 db 62 d0 bd c6 84 c8 bd ff a8 1a be b7 7d c2 3d
       -0.10175105 -0.097909495 -0.1510353 0.094966345
000250 05 6d 3d 3d 22 cd e7 3d 7c c7 99 bd 76 0b 8c 3d
       0.046246547 0.11318423 -0.07508752 0.068381235
000260 a6 d2 97 3c 9e 4d 03 bd 55 d5 02 3d 5d f1 b1 bd
       0.018533062 -0.032056443 0.03194173 -0.086886145
000270 78 35 4d 3d d6 cd ad bd 19 b4 4b bc a6 e1 8e 3d
       0.05009982 -0.08486526 -0.012433075 0.06976633
000280 ba 31 a6 3d 58 36 f7 3d a8 2c b1 bd 9b 53 1a 3e
       0.08114953 0.12070912 -0.08651096 0.15070955
000290 ed b4 2d 3e 2e d5 1f 3e 5b ed 56 3d 4e e0 99 bd
       0.16963549 0.15608665 0.052472454 -0.07513486
0002a0 f2 23 b9 3c 41 d7 7c 3d ab 32 87 3d d2 0c 94 3e
       0.022600148 0.06172872 0.06601461 0.2891603
0002b0 57 d1 eb 3d ec e4 5c 3d e1 d8 e9 bd 29 2b 6a bd
       0.11514538 0.053929254 -0.114183195 -0.057170067
0002c0 28 a6 93 bd bb f4 c1 bd 62 51 b7 3b 10 57 bf bd
       -0.07209426 -0.09470507 0.0055944184 -0.09342778
0002d0 8f 48 b2 3d 70 27 cc bc 8f fb cb 3d 1b 78 a1 bd
       0.08705246 -0.024921149 0.0996009 -0.078842364
0002e0 bc a3 37 bd 4d c8 14 be 28 bd 54 be c7 44 3e be
       -0.044833884 -0.14529534 -0.20775282 -0.18580924
0002f0 ed 75 36 3d 49 21 4e bc 9b cb 17 be d3 96 01 be
       0.044546057 -0.012581178 -0.14823763 -0.12655191
000300 50 93 0c be 46 c6 18 be 67 45 26 be 63 23 6c bd
       -0.1372807 -0.14919385 -0.16237412 -0.057650935
000310 d4 b7 04 be de fe 73 3d a3 f2 b6 bd 16 7c 22 3d
       -0.1296075 0.059569232 -0.08932998 0.03966912
000320 55 a2 d9 bd aa dc e0 bd b1 10 2f be 07 cf fd bd
       -0.106266655 -0.10979588 -0.17096211 -0.12393003
000330 88 85 fb bd 03 da 15 bd 6b 17 66 bd 2d 98 c7 bc
       -0.122813284 -0.036584865 -0.056174677 -0.024364555
000340 fd 38 a1 bd 5e 2d 19 bd 3c ed a2 bd 87 66 a3 3d
       -0.07872198 -0.03739678 -0.07955405 0.0797854
000350 34 2d 61 bd 0a 73 b3 bb 09 33 51 3e e7 47 d4 3d
       -0.05497475 -0.00547636 0.20429625 0.10365277
000360 2d c9 8f 3e 8e de ff 3d 5b 5d 4d 3e 61 fc 15 3d
       0.28083172 0.12493621 0.20055144 0.03661764
000370 c7 2f 71 3d b1 26 0f 3e fc 62 0d 3d 4c aa df 3c
       0.058883455 0.13979603 0.034518227 0.027302884
000380 21 73 e1 3c 11 4c 02 3b 8a 66 95 3c 09 7a ca 3c
       0.027520718 0.0019881765 0.018237371 0.024716394
000390 9f 96 c7 3d 3d c3 c5 3d 03 2e 94 bd 97 b7 24 3d
       0.097455256 0.09656379 -0.072353385 0.040214147
0003a0 36 11 7a 3d c0 42 85 3d be 8c ab 3d ad 4c a8 3d
       0.06105157 0.06506872 0.08376454 0.0821775
0003b0 ee 7d 8f 3d 47 28 03 3d 69 b9 22 3e ae 85 6a 3d
       0.07006441 0.032020833 0.15891041 0.057256393
0003c0 7a bc 1e 3e 21 60 23 3e fd 56 10 3d c2 e3 23 3e
       0.15501586 0.15954639 0.03523921 0.16004851
0003d0 78 45 71 3d 68 98 55 3d 8c 86 24 bc 99 78 15 bb
       0.05890414 0.0521473 -0.010041844 -0.0022807478
0003e0 5a 1c ef 3d 07 2b af 3d d9 54 c2 3d ff 56 59 bd
       0.116753295 0.08553129 0.0948884 -0.05306148
0003f0 fd 14 8a be 59 83 f2 bd 32 69 47 be d9 2d 44 be
       -0.26969138 -0.11841459 -0.19473723 -0.19158114

rnn_layer.rnn_layer.weight_hh_l0 f4 [256, 64]
000000 c7 7b 12 be 99 9c 24 3e 53 63 9e 3b 26 9e c2 bd
       -0.1430503 0.16075362 0.0048336177 -0.09502821
000010 18 db 9d 3d f4 bc 49 ba 50 d8 36 3c 74 76 55 bd
       0.077078044 -0.0007695698 0.011159971 -0.05211492
000020 a3 3e 1a 3d 2f 39 07 3e 64 a4 0d 3d b4 23 51 3d
       0.03765739 0.13205408 0.034580603 0.05105944
000030 fb be 92 bd b8 da 5c be d8 b6 27 bd 47 69 f4 bc
       -0.07165333 -0.2156781 -0.040945858 -0.029835356
000040 be 75 57 bd 73 2a 32 3c b3 37 4d bd 34 01 75 3d
       -0.052602522 0.0108743785 -0.050101947 0.0598156
000050 e3 d6 83 bd 58 87 aa bc 0f 85 90 3c bc e2 08 be
       -0.06437471 -0.02081649 0.017641572 -0.13367742
000060 df 53 c0 bd 1c 3a d6 3d 09 3d be bc 4b 72 8f bb
       -0.09390997 0.10460302 -0.023222463 -0.0043776385
000070 19 93 d5 bd 76 d7 c9 3d 24 76 08 3e fb 58 9e bd
       -0.10428447 0.09855549 0.13326317 -0.077318154
000080 93 3b 4a 3c 3f bd e5 bd a5 c8 ab bd 3e ff de bb
       0.012343305 -0.112177365 -0.08387879 -0.0068053296
000090 ac a7 88 bc 63 fe 3f bd a4 85 0c bc be e5 46 3d
       -0.016681515 -0.04687346 -0.008576784 0.048558943
0000a0 ed a8 20 3d 21 a9 b6 3d d8 28 99 bc 0f ef ff ba
       0.0392236 0.089189775 -0.018696234 -0.0019526201
0000b0 45 55 cb bd f9 89 91 3d 45 2d 21 3d cc cb 7e 3d
       -0.09928373 0.07106394 0.039349813 0.062206075
0000c0 af 58 4a 3b 97 15 d0 3c 65 ac 96 bd 2b 0d 0b bc
       0.0030875613 0.02540092 -0.073571004 -0.008487026
0000d0 64 c0 a5 bd 28 ec 7f bd e1 7e f5 3d db 0d a3 bd
       -0.08093336 -0.062481076 0.11987091 -0.07961627
0000e0 f0 e1 d2 3b 59 80 98 bd 18 99 35 3d 75 d5 85 3d
       0.0064356253 -0.074463554 0.044335455 0.06534854
0000f0 e5 4a 16 be db 28 dc bd 6c c3 99 3d 8d eb a5 bc
       -0.14677007 -0.1074998 0.07507977 -0.02025392
000100 18 f9 47 3e 92 7e 80 3d 51 4a f7 bb 32 94 02 bd
       0.19528615 0.06274141 -0.007546701 -0.03187961
000110 ed 3c 12 be 05 5a ec 3c 90 12 0a 3c d2 46 f0 bd
       -0.14281054 0.028851518 0.008427277 -0.11732258
000120 2e 7c 54 bd c8 18 0f 3d 2e 3b 36 be 06 2d 77 bd
       -0.05187624 0.034935743 -0.17796013 -0.060345672
000130 32 38 45 bd dc a4 9b bd 5e ed 5a bd 6c b0 10 3e
       -0.048149295 -0.07599804 -0.053449027 0.141298
000140 bb a3 1b 3e 2e 8c 96 bd b8 ce 65 bd 8f 04 6e bd
       0.15199177 -0.07350956 -0.056105345 -0.058109816
000150 85 8d 22 bc ac 92 cc 3c 3e dd 25 3d ab 1c 3e be
       -0.009921436 0.024972282 0.040494196 -0.18565623
000160 fe 8f 4f bd e9 83 4d bd da ef 0d be 66 1f 54 bd
       -0.05067443 -0.050174627 -0.13861027 -0.051787756
000170 5a 00 b4 3c fd 6c 81 bd 62 44 a7 bb 81 2f a2 3d
       0.021972824 -0.06319616 -0.0051045874 0.07919217
000180 79 d5 79 3c 58 d4 04 3e e3 45 f6 3c 2d 05 1c be
       0.01524865 0.12971628 0.030062621 -0.1523635
000190 f3 f4 2d 3a 1d 04 3f bd b7 a9 a7 3d a8 df d1 3c
       0.00066359265 -0.046634782 0.081866674 0.025619343
0001a0 d2 1b cb bd 58 77 e2 bd e8 3c 07 bd 86 b8 e9 bc
       -0.09917416 -0.11057919 -0.03301707 -0.02853037
0001b0 c1 54 72 3d bc f0 32 3d c3 0c db bc d4 2a 94 bd
       0.05916286 0.043686613 -0.026739484 -0.07234731
0001c0 8f ce eb bc 56 9e b7 3c 63 08 52 bd 7c ea 06 3d
       -0.028785018 0.022414368 -0.05127753 0.032938465
0001d0 47 d1 da bd 70 4d cb 3d 46 d3 c9 3c e4 53 d5 bd
       -0.10684448 0.099268794 0.024636876 -0.104163915
0001e0 64 36 ba 3d 7c ce c7 3b fc 2e b5 3c 84 0f 2c bc
       0.090924054 0.006097613 0.02211713 -0.010501746
0001f0 53 63 0c 3d 40 e8 d0 3c d1 48 6e bd 87 a4 e3 3d
       0.03427441 0.02550137 -0.058174912 0.111153655
000200 86 9e b7 3c c7 0c 57 3d a5 da 00 be 2b 58 f4 bd
       0.022414457 0.05250242 -0.12583406 -0.11930879
000210 22 71 8f bd 55 cd 5b 3d f4 71 e5 3a 3b 37 1a 3c
       -0.07004 0.053662617 0.0017505274 0.009412582
000220 00 98 2c bd 42 8e 10 bd 99 19 1b be 8d 40 3b be
       -0.042137146 -0.035291918 -0.15146483 -0.18286343
000230 ed cf 06 3d 11 c7 6d bd f1 a0 d4 bd f7 f1 2d be
       0.032913137 -0.058051173 -0.1038226 -0.16986834
000240 64 a0 52 3d 61 52 06 bc a1 87 80 bd 9d 94 04 be
       0.05142249 -0.008198352 -0.06275869 -0.12947316
000250 86 d8 74 bd 0e 49 7d be 91 2a 56 3e 23 2c d9 bd
       -0.059776805 -0.247349 0.20914675 -0.106041215
000260 5a 8e c0 bb b2 da 35 3d 8c ac bc 3d 31 67 5d bc
       -0.0058763446 0.044398017 0.09212598 -0.013513372
000270 f4 5e 00 3e 4f 18 17 ba 2f b5 94 3d f4 de da bd
       0.12536222 -0.0005763815 0.072611205 -0.10687056
000280 8d 07 a1 bd c6 50 13 3d c8 93 72 bd d0 f8 d3 bd
       -0.07862768 0.035965703 -0.059222966 -0.103501916
000290 09 80 e3 bd be 27 9a bc b8 7a 90 3a 7a 86 3d be
       -0.11108405 -0.018817779 0.0011022901 -0.1850833
0002a0 c8 f8 a4 bd 3d 46 97 bd be b5 8f bb 76 be 3b be
       -0.08055264 -0.07386444 -0.004385679 -0.18334374
0002b0 1c 82 9b bb a0 7e 2e be 75 2d 30 be 81 3c 08 be
       -0.004745735 -0.17040491 -0.1720484 -0.1330433
0002c0 7d db 11 be 6b 7c eb bc e9 f7 33 bc 34 91 e5 3b
       -0.14243884 -0.02874585 -0.010984399 0.007005835
0002d0 49 ed 47 be f6 8b bd 3d c8 b7 59 bd 57 44 0b bc
       -0.19524111 0.09255211 -0.053153783 -0.00850018
0002e0 42 df ac 3d 40 bc eb bd dd 33 59 bd 3e f3 c2 bd
       0.084410205 -0.11510515 -0.053027976 -0.09519051
0002f0 fd 57 2f 3d e6 8c 8e 3d 28 ff e9 bc ef 02 f2 bc
       0.04280852 0.06960468 -0.02856405 -0.029542414
000300 3a 21 c9 3d 8a 29 b4 3d 4a 69 00 bd 43 f8 dc bd
       0.098207906 0.087969854 -0.03135041 -0.1078954
000310 7c 17 96 bd c2 cf 05 3d 21 b3 21 3c ad 9b af 3b
       -0.07328698 0.032668836 0.009869368 0.005359134
000320 a3 da 16 3e fd ac 14 bc ad a8 04 3c 6c d5 af bd
       0.14731841 -0.009074447 0.008096856 -0.08585629
000330 4e 60 ad 3c a3 68 45 3d 5e db 84 3b ad 11 f7 3c
       0.021164086 0.048195492 0.004054471 0.030159796
000340 0c 9a 8a 3c 16 0b a7 3d cb aa 24 bd 16 59 91 3d
       0.016919158 0.08156411 -0.040201943 0.0709707
000350 27 79 d0 3d 4d 01 7e be 06 3f b5 3e 0e 3f 6c bd
       0.10179358 -0.24805184 0.35399646 -0.05767732
000360 16 89 8d 3d 60 11 00 be 5c d0 c0 bd 9a a8 cc 3b
       0.06910913 -0.12506628 -0.094147414 0.006245685
000370 cd 62 bc 3d ed fb a9 3c 95 69 0f 3d 9f 96 10 3d
       0.09198532 0.02075001 0.0350128 0.035299893
000380 5f 3e ce 3d c8 34 36 3e fc d6 32 be ae 42 58 be
       0.1007049 0.17793572 -0.17464823 -0.21119186
000390 e6 cf 94 3d 8e 97 e6 bc ed fb b0 3d 8d 04 36 be
       0.07266216 -0.028148439 0.08641801 -0.17775173
0003a0 70 a8 1c be 8d 49 a3 bd 50 6e 6d 3d ac 0c b2 bc
       -0.15298629 -0.07973013 0.05796653 -0.021734558
0003b0 34 2d 33 bd b5 37 d0 bd 56 d4 fb bd d7 0f a1 3d
       -0.04374428 -0.10166875 -0.12296359 0.07864349
0003c0 a2 10 f4 bd 5a 21 07 3e 5e 76 cd bd 1b aa 0f be
       -0.11917235 0.13196316 -0.100323424 -0.14029734
0003d0 c0 63 95 bc 67 60 2e bd 5c b6 d7 3c 83 d8 04 be
       -0.018236041 -0.042572405 0.026332073 -0.12973218
0003e0 75 63 27 3e 47 bd 11 be 1b 4d 62 3c c4 fb 02 3b
       0.16346534 -0.1423236 0.013812329 0.001998649
0003f0 2a bc a9 bd ba 35 a9 3d 00 af d9 bd 9d a6 e4 3c
       -0.082878426 0.08262201 -0.10629082 0.027911479

rnn_layer.rnn_layer.bias_ih_l0 f4 [256]
000000 96 44 44 3d 01 d7 08 3e 52 03 52 3e 00 45 29 3e
       0.04791697 0.13363267 0.20509079 0.16530228
000010 77 ed 86 3d 54 17 03 3e 00 20 14 bd 2e 02 51 3d
       0.065882616 0.12801868 -0.03616333 0.05102747
000020 bf 86 67 3e 14 12 06 bc 76 73 c1 3d db 3f 59 bc
       0.22609995 -0.008183021 0.094458506 -0.013259853
000030 8a 9d 1f 3c 10 8b de 3c 2e 52 1a bd bd b1 04 3d
       0.00974215 0.02716592 -0.03767603 0.032396067
000040 b4 72 a8 3d 4a be 8e bc ca 5b 0e 3e b2 3b 2c 3e
       0.08225003 -0.017424721 0.13902202 0.16819647
000050 a4 63 79 bc c5 03 a5 3c 4f e3 3c 3d b0 1c 2b 3e
       -0.01522151 0.020143399 0.046115216 0.16710162
000060 60 93 aa 3d bb 8c a1 3d 2d b0 56 3d 33 8b b7 bc
       0.08328891 0.0788817 0.052414108 -0.022405243
000070 94 bf 70 3d e9 5c 49 3e 3a 24 33 3d d9 26 83 bc
       0.058776453 0.19664349 0.04373572 -0.016009735
000080 f1 ab 33 3e cf a5 10 3d 8f fa 4d bc 63 63 b3 3d
       0.17546059 0.035314377 -0.012571945 0.08759191
000090 80 1b 44 3d a9 ca a1 3d f7 41 5a 3c 36 e5 b6 3d
       0.04787779 0.078999825 0.013321391 0.08930437
0000a0 5f b2 78 bd 57 e7 ef 3d 1b 61 39 3e fc cd 4c 3e
       -0.060716983 0.117140464 0.18103449 0.20000452
0000b0 60 c3 e0 3d b1 c9 b4 3b 44 00 a3 3d 06 01 6d 3e
       0.10974765 0.0055172076 0.07959035 0.23144922
0000c0 ca 20 bd 3e fc 58 99 3e 45 d1 5b 3e 55 7a 4c bc
       0.3693908 0.29950702 0.21466549 -0.012480338
0000d0 46 d7 7a 3c 13 0a a6 3d a4 a3 2b bd 38 86 30 3e
       0.015310114 0.0810739 -0.041904107 0.172387
0000e0 47 ad b7 bd 33 e8 46 3e 33 f3 d8 3d af f3 77 3e
       -0.08968597 0.19424514 0.105932616 0.24214052
0000f0 ad a2 c2 3d 35 f7 79 bb 50 67 45 3d f2 af a5 3d
       0.09503684 -0.0038141732 0.04819423 0.080901995
000100 36 62 87 3c dd 29 1b 3e 46 e4 10 3d 90 34 29 3e
       0.016526323 0.15152688 0.03537395 0.16523957
000110 35 a9 13 3e c8 5c 2f 3c 0a 21 b8 3d ce 5c 22 bd
       0.14420016 0.010703273 0.08990677 -0.039639287
000120 61 18 e7 3d 32 57 28 bd 1e 5b 8e bd 47 f2 63 bd
       0.11283947 -0.04109878 -0.06950973 -0.055650976
000130 c8 2a 16 3d c8 92 39 3e e6 c0 78 3d e5 5f 17 3e
       0.036661893 0.18122399 0.060730837 0.14782675
000140 03 7b 42 3d 79 7c 21 3e c7 32 e8 3b 0b 0c f4 3d
       0.047480594 0.15770139 0.0070861313 0.119163595
000150 62 9d cc bc e0 c7 e2 3c d3 94 55 bc 18 f7 fa 3d
       -0.02497739 0.027683198 -0.013035971 0.12254161
000160 39 6c 94 bc c5 5f 0d 3e 0c 51 dc 3d 0b 2d a8 3d
       -0.01811801 0.13806064 0.10757646 0.08211716
000170 e4 7f 07 3e f7 1d 92 3d 19 e2 13 3c 4d a4 63 3d
       0.1323238 0.071346216 0.009026074 0.05557661
000180 1c 35 4f bc c0 98 df bc 53 98 d6 3c 8b b9 32 3e
       -0.01264694 -0.027294517 0.02619568 0.17453592
000190 87 9c 83 ba 5e 2d 06 bb 8a 8b ab 3c d3 b3 36 3c
       -0.0010041156 -0.0020473818 0.02094056 0.011151272
0001a0 d9 78 01 3e d0 85 54 bd 3a 1b 21 3e 21 cc 5e bc
       0.12643756 -0.051885426 0.15733042 -0.013598473
0001b0 50 52 04 3e 41 66 0e 3d e3 14 02 bc 85 12 f9 bc
       0.12922025 0.034765486 -0.00793955 -0.030404339
0001c0 46 e9 04 3d 33 3b 33 bd 71 5b ca 3d 7a 1e 27 3e
       0.03244903 -0.04375763 0.09880722 0.1632022
0001d0 bb 62 3e bc 11 1f b2 3c 4b a8 18 3e c7 17 a6 bc
       -0.011620219 0.02174333 0.14907949 -0.02027501
0001e0 91 6d b7 3d 2c ce 73 3d 92 a0 0b 3d 7b 2f e7 3d
       0.08956445 0.059522793 0.03408868 0.11288353
0001f0 5d 14 10 3e 4b a0 19 3e 1e 26 47 3d cb 33 74 3e
       0.14070268 0.15002553 0.048620336 0.23847882
000200 ec 09 d8 3d d5 3d 8c 3d a0 b2 cb 3d 60 c6 f2 bd
       0.105487674 0.06847731 0.099461794 -0.11854243
000210 d9 e1 3b 3d 84 bb 26 be 8f 07 28 3c d2 cd c8 bc
       0.045869682 -0.16282469 0.010255708 -0.024512205
000220 3a 5b a8 3d 58 ad a4 3c 4f 76 03 be 19 5b 48 bd
       0.08220525 0.020102188 -0.128381 -0.048915002
000230 6f 4c a7 bc da 03 13 be 42 59 90 bd 93 6b 53 3d
       -0.020422189 -0.14356938 -0.070482746 0.051616263
000240 eb 39 4d bd 24 fd 77 3d 2b 83 51 3c bd 5d 2f be
       -0.050104063 0.060544148 0.012787621 -0.17125602
000250 e9 ec bf bd 30 bb 17 bd 97 ad d1 3d a7 c3 ca 3c
       -0.09371359 -0.03704375 0.10238188 0.024751497
000260 1f 56 af bd 3a d3 62 3d 5c 7b 0c bc 0a b6 d3 bd
       -0.08561348 0.055377223 -0.008574333 -0.103374556
000270 c5 58 7c bd a0 8c ce 3d 8a fe e9 3d 58 4b ce bd
       -0.061608095 0.10085416 0.114255026 -0.100729644
000280 b8 2d 5d 3d 2b 88 81 bc e3 9e ef 3d 89 a4 21 3e
       0.05399868 -0.015812 0.11700227 0.15785421
000290 b8 ee 0c bc 80 f4 7e 3c a2 c9 63 3d 3e c9 00 3d
       -0.008601837 0.015561223 0.055612214 0.03144192
0002a0 78 73 d7 3d 5a 9e 1a 3d 2e 08 55 3d c3 7c d3 bd
       0.10520071 0.037748672 0.052009754 -0.10326531
0002b0 c1 e8 eb bd 0e c7 7a bd 96 6d 92 3d 48 16 63 bc
       -0.11519004 -0.06122499 0.07149808 -0.013860293
0002c0 5d 0d 82 3d df d0 40 3d a6 99 c9 bd 64 4d 08 be
       0.06350205 0.047074195 -0.09843759 -0.13310772
0002d0 9e ed 6b bb b6 ae d1 3c f6 51 a8 3c 9b f0 98 3d
       -0.0035999785 0.025596004 0.020546895 0.07467767
0002e0 4a c3 66 3c 5b 15 c5 bd c0 1f f2 3d 3e 08 01 3d
       0.0140846465 -0.09623214 0.11822462 0.031502
0002f0 2c a6 b9 bd 5d 9b e6 bd 3e 18 a6 3d 44 8b 3a bd
       -0.09064898 -0.11260102 0.081100926 -0.04554297
000300 9c da 70 3e fe a0 77 3e c2 79 8e 3e cf ba 3e 3e
       0.23520893 0.24182507 0.2782727 0.1862595
000310 6c e7 b7 3d 00 18 74 3e 21 6f ce 3c 56 33 0d 3e
       0.08979687 0.2383728 0.025199475 0.13789114
000320 af f2 50 3e eb 6c 46 3e ec 72 47 3e 67 be 07 3e
       0.20405076 0.19377486 0.19477433 0.13256226
000330 d0 ee a9 3d c9 5c 57 3d 37 4f b3 3c 83 31 06 3e
       0.08297503 0.05257872 0.021888359 0.13104825
000340 66 78 69 3e e2 32 04 3e 8a bb 0b 3e e2 d4 bd 3d
       0.22799835 0.12910035 0.13645759 0.0926912
000350 f5 34 f1 3d 55 71 2b 3d 53 45 b4 bc 47 ae 40 3e
       0.11777679 0.04185613 -0.022005713 0.18816482
000360 ff 24 fb 3d 8a 59 a0 3d 32 a1 3f 3e 6d 14 25 3e
       0.12262916 0.07829578 0.18713835 0.16121073
000370 67 09 bc 3d 6d 3c 21 3e 11 5f 5b 3e 4f f2 22 3e
       0.09181481 0.15745707 0.21422984 0.15912746
000380 04 b6 7d 3e 3f 2d c3 3e ab aa 3a 3e 20 08 7e 3e
       0.24776465 0.38120458 0.18229167 0.24807787
000390 62 d4 53 3d 51 00 da 3d c3 dd 83 3e c2 14 64 3e
       0.051716216 0.106445916 0.25755128 0.22273543
0003a0 cf ff 7f 3d 8a 3e 71 3d 25 e0 77 3e e9 8e e7 3d
       0.062499817 0.058897533 0.24206598 0.11306555
0003b0 65 38 76 3e e7 2b 83 3e 8f 6a e0 3d d0 48 5c 3d
       0.2404495 0.25619432 0.109578244 0.053780377
0003c0 24 be 32 3e 7e 2c 2f 3e c7 45 c0 3d e3 6e 34 3d
       0.17455345 0.17106816 0.09388309 0.044051062
0003d0 14 3f b3 3d 3d 3d 20 3e df 84 c2 3d bd f5 7f 3e
       0.087522656 0.1564836 0.094979994 0.24996085
0003e0 69 ea 46 3e 9b 77 2c 3e 0d 25 b7 3d ec fd 1b 3e
       0.19425358 0.16842501 0.08942614 0.15233582
0003f0 8d 61 68 3e 5b 53 9e 3e c6 d2 94 3d 2e 7a ad 3e
       0.22693463 0.3092297 0.07266764 0.33882278

rnn_layer.rnn_layer.bias_hh_l0 f4 [256]
000000 b3 c0 b5 3d 2b f2 f7 3d 88 f1 21 3e af 8e 63 3e
       0.08874645 0.12106737 0.15814793 0.22222398
000010 d5 9a 5b 3d 77 65 00 3d 41 54 7a bd a8 18 3d 3e
       0.053614456 0.031346764 -0.061115507 0.18466437
000020 59 cf e6 3c 8a 6b 32 3e 67 0a bf 3c 85 d0 26 bd
       0.028175043 0.17423835 0.02332039 -0.040726203
000030 8c 8c c3 3c f4 62 23 3e 3f 63 36 3e af 5b 60 3e
       0.023870729 0.15955716 0.17811297 0.21909975
000040 4c c7 57 3b 57 ee ce 3c 2d 09 2c 3e fa 2a 3f 3b
       0.0032925187 0.025260134 0.16800375 0.0029169903
000050 34 31 35 3e 77 d3 43 3e cb a8 16 3b 81 90 39 bd
       0.17694551 0.19123636 0.0022988792 -0.045303825
000060 bb ce 6e 3e 95 9a 4b 3d 2e 66 0c 3e 20 c9 fb 3c
       0.23321049 0.049707968 0.13710853 0.030735552
000070 04 ff 43 3e 4f 2a c3 3d 0a a3 db bc 7c 14 fe 3d
       0.1914025 0.09529554 -0.026811142 0.12406251
000080 71 bf 94 3e f3 eb 81 3e 48 78 8c 3d b7 aa 6f 3d
       0.29052308 0.25375327 0.06858879 0.058512416
000090 93 df cd 3d 37 41 11 3d 58 7f e3 bc e5 26 be bd
       0.10052409 0.035462584 -0.027770683 -0.09284762
0000a0 25 54 1d bd 08 b3 1b 3e 6a e2 14 3e 30 34 a0 3d
       -0.038410325 0.15205014 0.14539495 0.07822454
0000b0 eb 12 fa 3d bc 36 8c 3d 2a d3 86 3a 36 84 8a 3c
       0.122106396 0.06846377 0.001028632 0.016908746
0000c0 f2 3a 6d 3e 39 c9 28 3e dc e4 44 bc 62 34 4d bd
       0.23167017 0.1648301 -0.012017455 -0.050098784
0000d0 ed 8a e8 3d 46 16 21 3e 34 5b b3 3d 56 4e e7 3d
       0.11354623 0.15731153 0.0875763 0.11294238
0000e0 8f 79 8d bd 49 68 10 3e 48 a2 50 3e b2 2b e7 3d
       -0.06907951 0.14102282 0.20374405 0.11287631
0000f0 e8 0f d1 bd b2 f3 10 3d 55 63 42 3b dd 83 c1 3d
       -0.10208112 0.035388656 0.0029661257 0.09448979
000100 07 f7 41 3e 0a 52 76 3b f1 d0 08 bd b6 cd 83 bb
       0.1894189 0.003758552 -0.033402387 -0.0040223254
000110 ca ee b7 bd 05 90 19 bd 45 85 2b 3d 52 73 c3 3c
       -0.08981092 -0.037490863 0.041875143 0.0238587
000120 19 47 11 3e 17 0c 72 bd 9a dd 0a 3e b5 57 2b 3d
       0.14187278 -0.05909356 0.13561097 0.04183169
000130 00 6f 32 bd cb c3 c0 3d 88 7a d2 bd 6d d9 33 3d
       -0.04356289 0.094123445 -0.10277277 0.043908525
000140 b3 81 8a 3c d7 33 e2 3d 0f 12 72 bd 7c 4f ce 3d
       0.016907549 0.11045044 -0.059099253 0.10073754
000150 52 92 1a bc 43 d9 35 3c 69 d9 45 3c 76 5e f5 3d
       -0.0094343 0.0110991625 0.01207576 0.119809076
000160 04 c1 1a 3e 92 02 03 3e 35 62 b5 3d e6 b2 29 3e
       0.15112692 0.12793949 0.08856622 0.1657215
000170 45 e9 ff 3d fd 87 06 3d fe fc 2a 3e 2c 19 0c 3e
       0.124956645 0.032844532 0.16698071 0.13681477
000180 76 ed 60 3d 16 b2 a5 3d 2e 23 29 3c 64 9a 56 3a
       0.05491396 0.08090608 0.010323329 0.0008186458
000190 38 7a 0a 3e c6 1c 5e 3d ea 19 09 bd 28 0e e3 3d
       0.13523185 0.05422666 -0.03347198 0.110866845
0001a0 bf 06 14 3d 97 c3 d2 3d 65 91 0e 3e 28 ac b2 3c
       0.036139246 0.10291212 0.13922651 0.021810606
0001b0 f0 d0 6a 3d 96 85 27 3d 0f 18 13 bd c7 1d 11 3e
       0.057328165 0.04089888 -0.035911616 0.14171515
0001c0 d5 9b b1 3c 0d 6c a1 bc 32 f9 11 bd c3 d3 11 3e
       0.021680752 -0.019704843 -0.03563804 0.14240937
0001d0 d1 7d 2b 3c d9 66 ac 3d 0d ac 30 3e 12 69 d5 3d
       0.010467009 0.08418054 0.17253132 0.10420431
0001e0 91 47 57 3e b3 24 18 3d 01 16 79 3e c9 53 82 3d
       0.21023394 0.037144374 0.243248 0.06363637
0001f0 b9 41 98 3d f6 ff 1b 3e 25 64 c2 bc d0 7a eb 3d
       0.074344106 0.1523436 -0.023729393 0.11498034
000200 03 65 ab 3c 90 5c 1d 3b df f0 e3 bd 80 67 d2 bd
       0.02092219 0.002401147 -0.11129927 -0.10273647
000210 44 db 10 be 1c 04 61 3d 8c 5e fe bd 42 99 57 bd
       -0.14146143 0.05493556 -0.12420377 -0.052636392
000220 79 89 a0 3d be a7 de bc 02 cf ed 3c 84 97 0c be
       0.07838721 -0.027179595 0.029029373 -0.13729674
000230 f9 4a f2 bd 2c b5 01 bd 22 74 fd bc 62 1b 9e 3d
       -0.11830706 -0.03166692 -0.030939166 0.077200666
000240 8c f1 8c bd ed aa 50 3d 1e 09 23 be 68 45 bb bc
       -0.06882009 0.050944258 -0.15921447 -0.022860244
000250 9d 30 40 3c 3a 6f 05 bd 5b fb 9c bd 48 22 32 3d
       0.01173034 -0.032576777 -0.0766513 0.043489724
000260 f2 a3 13 bd 97 e1 96 3d 74 6a 98 bd 61 de e7 3c
       -0.036045022 0.073672466 -0.07442179 0.02830428
000270 77 ca c7 3d 17 1a 6d 3d 0e f1 d0 bc d6 e8 02 be
       0.09755414 0.05788621 -0.025505569 -0.12784132
000280 0f f1 a5 bd f5 e6 0f 3d f3 18 a3 3d 10 78 9f bd
       -0.08102619 0.035132367 0.07963743 -0.07786572
000290 4a ee a3 bd db c4 a2 bd 58 ca 94 3d e5 58 e1 3c
       -0.080044344 -0.079477035 0.072651565 0.027508209
0002a0 89 c7 12 bd 3e d7 25 be 47 2e 07 3d 43 f4 e9 bd
       -0.035834823 -0.1619539 0.033003118 -0.11423542
0002b0 6c 8d 00 be a2 7c bd 3c c7 ea de bd a2 1e 85 bd
       -0.12553948 0.023130719 -0.10884624 -0.06499983
0002c0 ad af 7f bd 50 18 0c 3e b1 41 f2 bd d9 8c c2 3b
       -0.062423397 0.1368115 -0.11828936 0.0059372005
0002d0 6c ac c4 bd 58 fc b0 bc 6d a1 f7 bd 25 d0 db 3d
       -0.09603199 -0.021604702 -0.120913364 0.1073306
0002e0 5c ff 65 bc ce 46 81 bd 6e aa bc bc 28 d0 08 3e
       -0.014037933 -0.06312333 -0.023030486 0.13360655
0002f0 89 f4 c9 3c 51 32 0e bd b8 39 4f 3d b4 83 c5 bd
       0.024652736 -0.034715954 0.050592154 -0.09644261
000300 ef 39 2d 3e 1a 0d 24 3e 88 52 7c 3e 67 63 d3 3d
       0.16916631 0.16020623 0.24640858 0.10321694
000310 4e 14 f5 3c 29 d3 55 3e ba 7a 50 3e 77 11 db 3c
       0.029916909 0.20881332 0.20359316 0.026741726
000320 40 67 4f 3e 36 46 61 3e 29 d9 0c 3d 1b 27 68 3d
       0.2025423 0.2199944 0.034386788 0.05667792
000330 7d ed 00 3e b5 2f 2d 3e 6a 0f 3f 3d aa 61 97 3e
       0.12590595 0.1691273 0.04664556 0.295667
000340 45 ed 79 3e d4 ca 20 3e 4f dc a4 3d eb 36 4a 3d
       0.24406917 0.15702373 0.08049833 0.04936878
000350 72 55 56 3e 22 f2 88 3e f1 eb bc bc c2 00 12 3e
       0.20931032 0.26747233 -0.023061724 0.14258102
000360 21 b2 90 3e 0c e3 42 3e 11 d5 da 3d db 49 6f 3e
       0.28260902 0.19031924 0.106851704 0.23368017
000370 81 0d cb 3d 00 ea 88 3d 04 5d bb 3d 05 f0 df 3c
       0.09914685 0.06685257 0.09148601 0.02733613
000380 ca 75 7d 3e 8c 3c 36 3e 9a 2f 07 3e c5 b3 3d 3e
       0.24751964 0.17796534 0.13201752 0.18525608
000390 66 75 95 3d 1f f9 08 3e 36 c9 65 3e 08 13 6c 3e
       0.072977826 0.13376282 0.22440037 0.23054135
0003a0 50 25 a6 3d a5 55 78 3e e7 82 61 3e b1 71 99 bc
       0.081125855 0.24251421 0.22022592 -0.01873097
0003b0 92 83 3c 3e ac 5f 01 3e 27 97 3b 3e bc eb 7f 3d
       0.18409565 0.12634152 0.18319379 0.062480673
0003c0 2f c7 91 3e e6 35 aa 3e 80 7c 2f 3e b3 4a 05 3e
       0.28472278 0.33244246 0.17137337 0.13016777
0003d0 79 7c 4b 3e bd ba a1 3d 64 75 56 3e c8 0c 09 3e
       0.19871701 0.078969456 0.20943218 0.13383782
0003e0 df 9e a0 3c 0b cf 80 3d 30 43 8e 3d 52 5a ac 3d
       0.019607006 0.0628949 0.06946409 0.08415665
0003f0 12 6b d8 3d 75 d3 1d 3e 52 59 44 3e 77 46 32 3e
       0.10567297 0.15412696 0.19174698 0.17409693

rnn_layer.rnn_layer.weight_ih_l0_reverse f4 [256, 50]
000000 ae 88 e9 bd 99 29 6f 3c a8 3b 16 be a2 3e 50 bc
       -0.11403023 0.01459732 -0.14671195 -0.012710245
000010 14 c9 0e be b6 65 0b 3c ce 95 8e 3d 11 82 aa bc
       -0.13943893 0.0085081365 0.06962167 -0.020813974
000020 d8 59 21 3d a7 fa 00 bd 60 88 d9 3d 75 d8 c2 bd
       0.039392322 -0.03148904 0.106217146 -0.09513942
000030 76 69 93 3c 4e 93 c6 3d 59 25 3a 3e 26 c3 1e 3e
       0.017994624 0.09696065 0.1817831 0.1550413
000040 b7 bd be 3d 18 73 28 3e 5d c6 c9 3d b6 97 62 3c
       0.09313529 0.16450155 0.09852288 0.013830116
000050 99 4a 5f 3e db 91 c8 3d 17 9c 6e 3e cb f0 8e 3e
       0.218058 0.09793445 0.23301731 0.27918085
000060 37 49 a3 3d 53 e7 89 3d ab 9b 56 3d 3b f9 42 bd
       0.07972949 0.06733575 0.05239455 -0.047600966
000070 0e 29 db 3d 54 29 f6 bd 4f 94 89 3d 2f 97 39 3e
       0.1070119 -0.120196015 0.06717741 0.18124078
000080 b7 d1 89 3c d8 20 58 3e 29 4b 3a 3e e4 83 50 3e
       0.016823633 0.21106279 0.18192734 0.20362812
000090 b4 2a 69 3e 65 e2 67 3e ad 08 9c 3e 48 1c 0d 3e
       0.22770196 0.22644956 0.3047537 0.1378032
0000a0 76 f3 84 3e de 34 39 3e 92 ca 74 3e ef b3 8e 3e
       0.25966996 0.18086573 0.239054 0.27871653
0000b0 fc b1 94 3e 77 42 7d 3e 97 ae 4f 3e 64 aa 86 3e
       0.2904204 0.24732386 0.20281444 0.26301873
0000c0 8d d3 cc 3d bd 1c c7 3d 95 ec b5 bd 2b f3 4e bc
       0.100012876 0.09722278 -0.08883015 -0.012631218
0000d0 91 53 a8 bd 52 93 84 bd cd 70 14 3b 08 22 9e bd
       -0.08219064 -0.064734116 0.0022650242 -0.07721335
0000e0 a3 ea 44 bc a9 5a 55 bd 51 f8 c5 bd 87 56 d3 3c
       -0.012018832 -0.052088413 -0.09666503 0.025798095
0000f0 49 9f 4d 3d 1a be 9a bd 3b c1 d2 bd c4 95 d2 3d
       0.050200734 -0.0755579 -0.10290762 0.10282472
000100 27 2a 8f 3d 76 50 e9 bb d9 79 0a 3e e6 b6 14 3e
       0.06990462 -0.0071201874 0.13523044 0.14522895
000110 f5 31 d2 3d ae be f0 3d d1 db 77 3e a3 dc 5c 3e
       0.10263435 0.11755119 0.24204947 0.21568541
000120 55 1a 10 3e 2b 2c c0 bc 92 55 b2 3c 24 29 07 be
       0.14072545 -0.02345856 0.021769319 -0.13199288
000130 fb 9e ea bc 2c 96 81 be b4 8d 5f 3c 61 d0 60 bc
       -0.02864026 -0.25309885 0.0136446245 -0.013721556
000140 fb a3 03 be f1 b2 50 be 72 4d cf bd 3c 9f 0e be
       -0.12855522 -0.2038076 -0.101221934 -0.1392793
000150 3d 34 a8 bd 37 3a 58 be 8b c0 2c be ce 7f 3c be
       -0.08213089 -0.21115957 -0.16870324 -0.18408129
000160 be c4 5c bd 57 44 0d bd d9 bf 51 3d 07 22 fd 3d
       -0.053898565 -0.034489002 0.05120835 0.12360006
000170 e1 76 31 3e d3 ca 63 3e 3d da fc 3d 50 8c 24 3e
       0.17330505 0.2224534 0.12346313 0.1606915
000180 1d dd 86 3d 1e 57 8a 3d 47 87 c4 bd ca fc 1a 3d
       0.06585143 0.067548975 -0.095961146 0.037838735
000190 f6 38 ab 3c ee 38 9e bd d8 e3 b0 3c 30 6b 00 bc
       0.020901185 -0.07725702 0.02159302 -0.0078380555
0001a0 55 92 0e be d9 58 b0 bd 99 37 04 be 00 e4 ae bd
       -0.13923009 -0.08610696 -0.12911834 -0.08539581
0001b0 4b a8 59 be 86 e6 b7 ba ad 4a 18 be 38 b2 3e bd
       -0.21255605 -0.0014030493 -0.14872237 -0.04655668
0001c0 85 a5 12 bd f7 89 af 3d 33 89 67 3d 38 21 41 3e
       -0.035802383 0.085712366 0.056527328 0.18860328
0001d0 d7 bc ed 3c 2b 98 c1 3d ce 9b 46 3e a9 2c 58 3e
       0.02902071 0.09452852 0.19395372 0.21110786
0001e0 31 b4 58 3e 36 15 27 3e 6f 8e 57 3e 0d 66 4f 3d
       0.21162488 0.16316685 0.21050428 0.050634433
0001f0 12 ed e0 3d 22 73 29 bc f5 7a ed bd 66 75 d7 bd
       0.109827176 -0.010342391 -0.11595718 -0.10520439
000200 df 66 9e bd bd 84 d2 3b 9c 17 87 3d 2a 92 f4 bd
       -0.07734465 0.006424515 0.065963 -0.11941941
000210 c2 b8 05 3d 50 63 75 bd 2f d1 7e bd c4 d9 54 3d
       0.032646902 -0.059909165 -0.06221121 0.05196549
000220 13 15 d9 3b 87 58 4e bc 7a 28 39 b8 79 8e 9d 3d
       0.0066248267 -0.012594349 -4.4145134e-05 0.0769319
000230 34 47 89 3c 23 31 59 bc 6b 28 44 3e d0 a4 f2 3d
       0.016757585 -0.013256344 0.19156043 0.11847842
000240 70 9b 4d bc 8f 07 13 3d 99 c7 cc 3c be 70 ce bd
       -0.012549266 0.03589588 0.02499752 -0.100800976
000250 ca e0 a0 3d f7 ed 0e bd 4b a0 d5 bd 96 10 7c 3b
       0.07855375 -0.03489491 -0.10430964 0.0038462034
000260 78 ef b1 bd 41 49 18 be 25 c0 fe bd 4c 2f c4 bd
       -0.08688253 -0.14871694 -0.124389924 -0.09579334
000270 19 c2 cd bd e8 f7 45 be b3 cf 65 be 0c 16 33 be
       -0.10046787 -0.1933285 -0.22442512 -0.17488879
000280 c1 f8 17 be 05 c6 2a bd be 25 25 bd b4 0d 99 be
       -0.14840986 -0.041692752 -0.040319197 -0.29893267
000290 46 11 57 bd 77 ee fa 3c 3c d3 d2 bd e2 1b 31 3c
       -0.052506708 0.030631287 -0.10294196 0.01080987
0002a0 2e 22 4b bd e5 60 50 3d 04 0d 74 3e e3 c1 3a 3e
       -0.049593143 0.050873656 0.2383309 0.18238024
0002b0 ed 6c d2 3d d9 43 36 3e 61 c5 f4 3d b1 ad c9 bd
       0.10274682 0.1779932 0.119517095 -0.09847582
0002c0 a9 e2 03 bd ff 8c 83 ba 1e bc 0e be 31 67 e0 3c
       -0.03219858 -0.0010036527 -0.13938949 0.027392955
0002d0 b2 04 81 3b c3 be 02 3d aa c4 b2 bc e7 b8 61 bd
       0.0039373273 0.031920206 -0.021822292 -0.055107977
0002e0 a4 71 0a bd 40 95 eb bd 75 ec 1d be 0e 74 b6 bd
       -0.033799782 -0.115030766 -0.15422232 -0.089088544
0002f0 51 88 f0 bc ec cd e3 bb ee ab b7 3d 13 6c e6 3c
       -0.029361876 -0.006952038 0.0896834 0.028127706
000300 0b 90 a3 3a e8 42 03 be e5 b1 4e be 14 28 49 be
       0.0012478841 -0.12818491 -0.20185049 -0.19644195
000310 6f 2b 5e be 4d 66 2e be 7c 89 01 3c 94 ba 24 be
       -0.21696256 -0.17031212 0.007906314 -0.16086799
000320 90 bd a0 bd 4a c6 8b bd 9e 88 ff bd 81 13 13 be
       -0.07848656 -0.0682493 -0.124772295 -0.14362909
000330 8b 8d 30 be 38 4e 01 be 1b 09 18 be 2e 9c f7 bc
       -0.17241494 -0.12627494 -0.14847223 -0.03022584
000340 1c d4 b9 bd 6b 93 aa 3d 84 00 39 bd ee 17 75 3c
       -0.0907366 0.08328899 -0.045166507 0.014959319
000350 98 45 0f 3c 9b 9a ca 3d 76 01 11 3e c9 6f c8 3d
       0.00874462 0.0989277 0.14160714 0.09786946
000360 87 97 c8 3a 60 56 cc 3d cb 97 7e 3d 2a d6 6f 3c
       0.0015303948 0.09977412 0.06215648 0.014638463
000370 75 fa ce 3d b1 1e dd bc 07 b5 97 bc c0 b2 73 bd
       0.10106365 -0.026992174 -0.018518938 -0.05949664
000380 97 d2 9b bd 96 87 61 be c1 88 58 be ea 4a a1 be
       -0.07608526 -0.22024378 -0.21145917 -0.31502467
000390 30 5c e2 bd 0b 1d 02 be 9a c8 cd bd fd 6f 93 ba
       -0.110527396 -0.12706392 -0.10048027 -0.0011248585
0003a0 17 15 c0 3d d1 1c 63 3e 34 c7 e9 3c 2a 09 c8 3d
       0.093790226 0.22178961 0.02853737 0.09767373
0003b0 90 0b ed 3b 87 30 43 3e eb b4 21 3e 76 cb eb 3d
       0.0072340444 0.1906148 0.15791671 0.115134165
0003c0 79 31 29 3e 1e c7 41 3e e4 1b c9 3d 81 76 79 3e
       0.16522779 0.18923613 0.09819773 0.24361612
0003d0 34 13 44 3e 5f 9b b7 bc 3d d5 65 bc a4 a0 a2 bc
       0.1914795 -0.022412954 -0.014027891 -0.01985199
0003e0 60 43 a7 3d a4 2a 9d 3d df d0 ba bd 34 c8 91 bd
       0.08167148 0.07674149 -0.0912187 -0.07118264
0003f0 aa 68 20 3d 9d 3b bd 3b d8 7c 05 be 9b 24 70 bd
       0.039162315 0.0057749287 -0.13035905 -0.05862866

rnn_layer.rnn_layer.weight_hh_l0_reverse f4 [256, 64]
000000 0f f8 e1 bd ea 50 68 bd aa c3 41 be c2 5d f5 bd
       -0.110336415 -0.05671779 -0.18922296 -0.119807735
000010 54 9e 06 be 6e f4 6e be 8f 70 04 bc bc 94 5f be
       -0.13146335 -0.2333543 -0.008083477 -0.21834081
000020 d4 21 a0 bd 9a cf 8b bc 94 a6 5a be 47 6e 9b bd
       -0.07818952 -0.017066766 -0.21352607 -0.07589393
000030 7f 0f b1 bd de 47 de bd 2c 1d 4b be f3 bf ff 3d
       -0.08645534 -0.10853551 -0.19835347 0.12487783
000040 06 14 fb bd c0 bf f3 bc 44 cb 87 3d 99 7d da 3b
       -0.122596785 -0.02975452 0.06630567 0.0066678044
000050 18 35 21 3e c3 c0 22 be 4a a1 44 be 48 d7 54 bd
       0.1574291 -0.15893845 -0.19202152 -0.05196312
000060 56 3d 8b bd 8d 80 24 3d 13 f7 20 bd 58 c7 08 bd
       -0.06798808 0.040161658 -0.03929813 -0.033393234
000070 5d 88 d2 bd 0f 2d 46 bd 46 59 71 3d c4 ac c0 3d
       -0.102799155 -0.048382815 0.05892303 0.094079524
000080 91 19 05 3d b8 20 9f bd 0f b9 d2 bd f4 96 7a be
       0.032495085 -0.077699125 -0.102892034 -0.24471647
000090 c7 4c c8 bd 4b 3f f3 bc 62 5b f7 bd 68 14 d8 bd
       -0.09780269 -0.029693266 -0.12077977 -0.10550767
0000a0 72 0d 01 be 14 04 3e be a5 8f a8 bd 4d f7 fe 3c
       -0.12602785 -0.18556243 -0.08230523 0.031123782
0000b0 82 08 5c be e3 a9 39 be 4c f0 0d 3c df 8c 76 bd
       -0.2148762 -0.18131213 0.008663248 -0.06019294
0000c0 f3 b9 17 3e 80 8b 75 3d 6e c8 1e be d3 45 a3 ba
       0.14817028 0.05994749 -0.15506145 -0.0012456722
0000d0 2f b5 bc 3c 65 29 3e be 84 9f 4d be 17 99 45 3e
       0.023035614 -0.18570478 -0.20080382 0.1929668
0000e0 d7 a1 9b 3d ff 01 e9 3c a4 e5 47 be 95 01 0a be
       0.07599228 0.028443335 -0.19521195 -0.13477166
0000f0 82 4d cd bd 08 65 23 3e 50 6b 84 3d 4f 9a 90 bc
       -0.10024549 0.15956509 0.06465781 -0.017651705
000100 a4 8a 34 3e 10 ca 20 be 9e 2a f2 bd 31 4f 95 bd
       0.17631012 -0.1570208 -0.11824535 -0.07290495
000110 aa 99 5b 3d 9b 89 36 3d b2 53 bf 3d 7c 63 0b 3d
       0.053613342 0.044564825 0.093421355 0.034030423
000120 b6 f2 dc 3c 0e c8 05 bd ec 2d 51 bc a1 ed 3a 3e
       0.026971202 -0.03266149 -0.012767296 0.1825471
000130 c3 f8 01 3e db 2e 3f 3d b8 49 b7 3d 00 9c 3d 3e
       0.12692551 0.046675544 0.089496076 0.1851654
000140 d4 32 fb 3d d4 f8 9f 3d 09 3f 19 3e 0f dc 27 bd
       0.12265554 0.07811132 0.14965452 -0.04098135
000150 7e f3 25 3e 85 89 c8 bd 14 af 0a 3e d7 c1 79 3e
       0.16206166 -0.09791855 0.1354335 0.2439035
000160 92 e6 fb 3d 3d 8e f9 bd 92 0e 25 b9 65 b0 9f bc
       0.12299837 -0.12185333 -0.00015741054 -0.019493291
000170 b5 8e 0d 3d 17 83 8e 3d 1f d6 b2 3b 6f b2 8c 3d
       0.034559924 0.06958597 0.005457654 0.06869971
000180 2f fd 7a bc 92 15 69 3d 16 07 e5 3d 27 35 4b bd
       -0.015319153 0.056905337 0.11182992 -0.049611237
000190 ca 82 9b 3d 13 31 05 3e 94 72 86 3e bb 71 76 3e
       0.075933054 0.13007002 0.2625929 0.24066822
0001a0 77 7a 3c 3d 26 5f 0d bd 1b 77 f4 bc 2a 58 0b 3e
       0.04601523 -0.03451457 -0.02984195 0.1360785
0001b0 e0 26 9d 3d c6 0f c8 3d 8d 61 3d 3e 78 36 ab bc
       0.076734304 0.097686335 0.18494244 -0.020899996
0001c0 0e 4f 48 bc 40 d1 db 3a 80 2e b1 3e b8 2c 20 bd
       -0.012225879 0.0016770735 0.3460579 -0.039105147
0001d0 bf 97 de 3c bb ff 3b 3d 36 dc 5a 3e 55 1a 22 3d
       0.027171968 0.04589818 0.21373066 0.039575893
0001e0 c3 ce 37 3d 74 5a 36 3e a9 3e e1 bc c6 e5 50 3e
       0.044874918 0.17807943 -0.027495699 0.20400152
0001f0 5c 84 b4 3d fc 7b 8c 3d f0 d3 a9 3d eb 67 24 3d
       0.08814308 0.06859586 0.08292377 0.040138166
000200 ed 79 6d 3d f7 b4 a5 bd 97 26 a0 3d 5b 09 19 be
       0.057977606 -0.08091157 0.078198604 -0.14944975
000210 ba 89 dd 3b 85 a9 44 be db ac aa bd 48 d9 0b 3e
       0.006760803 -0.19205292 -0.08333751 0.13657105
000220 45 54 fa bd 17 31 41 3e e1 39 d7 bd 9f 9c 3c 3d
       -0.122231044 0.18866383 -0.105090864 0.046047803
000230 13 1d 06 be 3d 33 c2 bd 08 1a 19 be 08 c3 9f 3e
       -0.13097028 -0.09482429 -0.14951336 0.31203485
000240 e1 6f 17 3e c6 61 2d be 91 fb 0c 3e 8a 89 58 bc
       0.14788772 -0.16931829 0.1376784 -0.013216386
000250 1b f9 b9 3d 57 cb ee 3c 55 7c b0 3d 2e 65 c3 3a
       0.09080716 0.029149694 0.086174645 0.0014907473
000260 83 40 52 3d 5d 05 48 be 07 1f 06 bd 30 b0 87 bc
       0.051331054 -0.19533296 -0.032744434 -0.016563505
000270 0b 63 bd 3d b1 ba dd bd 6f a7 f7 3d ac fe db 3d
       0.092474066 -0.10826624 0.12092482 0.10741934
000280 d9 aa 82 bd 1b b8 65 bd 91 dd a0 bd eb fa af 3d
       -0.06380243 -0.05608378 -0.078547604 0.08592781
000290 d3 1a 8e bd 2e dd 1f 3e 3a 72 16 3e 28 c9 e4 3d
       -0.0693871 0.15611717 0.14692011 0.1117118
0002a0 54 db a0 bb e2 e2 be 3d 15 86 ea bd db be b2 bd
       -0.0049089584 0.09320618 -0.11451355 -0.08727809
0002b0 a9 7e 00 bd 8a ef c8 3d 01 84 7e 3e da 2e 3a bd
       -0.031370793 0.098113135 0.24855043 -0.045454837
0002c0 1e 51 4a be d3 bf 26 3e 56 53 03 3e bb 78 5e bd
       -0.19757506 0.16284113 0.12824759 -0.054314356
0002d0 17 6e 30 be 16 f6 4f bd 75 b9 3e 3e cc a6 f0 bd
       -0.17229496 -0.050771795 0.18625434 -0.11750564
0002e0 77 21 7d bd 73 fb 44 3e 36 51 92 bd d9 e8 11 3e
       -0.061799493 0.19236545 -0.07144396 0.1424898
0002f0 31 10 03 3e b4 e8 81 bc 57 11 2e 3e b9 13 3c bb
       0.12799145 -0.015858032 0.16998802 -0.002869828
000300 a1 a3 53 bc 96 23 14 be 09 52 eb bc 59 15 63 bd
       -0.01291743 -0.144667 -0.02872564 -0.05544028
000310 7a 78 e4 bc e6 99 01 be b4 9e bf 3d 77 67 05 3d
       -0.027889479 -0.12656364 0.09356442 0.032569375
000320 0f 1e b5 bd ca cf 57 bb 44 e8 49 be bd 03 f6 3d
       -0.08843624 -0.0032930248 -0.19717509 0.12012432
000330 46 c9 de 3d ac ba 1a 3d 48 f1 3d bd 2f f5 49 bd
       0.108782336 0.03777568 -0.04637268 -0.04930609
000340 3f a0 2b bd 8f 5e cf bd 42 ec 81 bc 9c 6a 40 bd
       -0.04190087 -0.101254575 -0.015859727 -0.04697667
000350 df 31 dd 3c 38 a5 39 3d e1 ca aa bd a1 77 29 bd
       0.02700132 0.04532358 -0.08339477 -0.041373853
000360 4f e9 ea bd 92 d0 40 bd c2 b2 5e bb 8b b0 cc bd
       -0.11470281 -0.04707391 -0.003398106 -0.099946104
000370 73 00 d5 bb 65 c5 0a be a7 22 b6 bc b4 97 42 bd
       -0.0065002977 -0.13551863 -0.02223332 -0.047507957
000380 31 61 12 3d 39 71 f4 b9 5c 94 4d be 9f 3d f9 bd
       0.03573722 -0.00046623664 -0.20076126 -0.121699564
000390 aa 3c f1 3b 13 6a 85 3d 35 0d 9b bd 77 08 3e be
       0.007361968 0.06514373 -0.075708784 -0.18557917
0003a0 0a 43 d5 bd bb c8 b3 bd b9 38 01 be c3 ce c8 bd
       -0.10413177 -0.08778521 -0.12619294 -0.09805062
0003b0 7b a2 1f bd 77 20 c5 3d e8 45 40 3c 31 00 13 be
       -0.038973313 0.09625333 0.011735417 -0.14355542
0003c0 f0 8e 38 be c4 06 03 3d 88 f7 61 bd 80 f1 f7 bd
       -0.18023276 0.031988874 -0.055167705 -0.12106609
0003d0 b7 8a 96 bd ef 3e 20 be 38 9d 14 3d ae 90 4e 3c
       -0.073506765 -0.15649007 0.036282748 0.0126077365
0003e0 fc 56 6a bd 33 ae c6 3d 4d 45 30 be a4 c3 12 bd
       -0.05721186 0.097011946 -0.17213936 -0.03583111
0003f0 98 7a b3 3d 79 88 dc bd e2 5a e2 3c 1a b5 09 be
       0.08763617 -0.107682176 0.027631227 -0.13447991

rnn_layer.rnn_layer.bias_ih_l0_reverse f4 [256]
000000 7b 4d 32 bd ee d2 19 3d 90 1a 82 3d 13 a7 1e 3e
       -0.043530922 0.037554674 0.06352723 0.15493421
000010 c9 65 6f 3d 55 25 b0 3d 7e fa 22 3e 76 d9 43 bd
       0.05844668 0.086008705 0.15915868 -0.04781481
000020 df 16 19 3e 29 7c b6 bc 6d f2 8c 3d e4 3d 87 3e
       0.14950131 -0.022276001 0.068821765 0.26414406
000030 70 22 08 3e a5 07 5f 3e fb cb 93 bc 2e b9 80 bc
       0.13294387 0.2178026 -0.018041601 -0.0157133
000040 80 58 1b 3e 0e 96 ec bc 54 96 7a 3e 2a 22 2b 3e
       0.15170479 -0.028880145 0.24471408 0.16712251
000050 91 8b 20 bc fe 68 09 3e 1f 6f c7 3c b7 c7 84 3e
       -0.0097989 0.13418958 0.024344979 0.2593362
000060 10 95 af 3b 03 82 31 3e 15 b8 29 bd 83 98 1d 3e
       0.005358346 0.17334752 -0.04143532 0.1539021
000070 28 b3 18 3e 08 76 02 3d bc d0 01 3e 30 a1 08 3e
       0.14912093 0.031850845 0.12677282 0.13342738
000080 c8 fd 52 3d 21 f9 6b 3d 40 f3 a8 3d 79 ca 9c 3d
       0.051511556 0.057610635 0.08249521 0.07655806
000090 b9 10 3a 3d 51 a8 e0 3d 03 16 40 3e de 24 82 3e
       0.045426104 0.10969604 0.18758397 0.25418752
0000a0 d0 4e 04 3e a2 24 be 3d e1 90 93 3c 23 69 4b 3e
       0.1292069 0.09284331 0.01801342 0.19864325
0000b0 7e 8e fa 3c 3f 34 a1 3d f0 14 71 3e 4d 88 76 3d
       0.030585524 0.07871293 0.23543143 0.06018858
0000c0 d1 7c 82 3d d1 ca 81 3d d8 7e 15 3e db fa 49 3e
       0.06371463 0.06337512 0.14599168 0.197246
0000d0 5f c2 75 bd 86 a6 9a bd ee 7a a8 3d 15 29 30 3e
       -0.05999982 -0.07551293 0.08226572 0.17203172
0000e0 58 34 35 3d f5 2f 2a 3e 6a c5 72 3e f4 18 3a 3b
       0.044239372 0.16619857 0.2370812 0.002839622
0000f0 19 cd 40 bd f8 98 97 3e 07 d5 a5 3d 78 93 18 3e
       -0.047070596 0.29608893 0.08097272 0.14900005
000100 1e 20 51 3d 6a 5e 7d 3e 76 5e 80 bc 99 ca 03 3e
       0.05105602 0.24743047 -0.015670042 0.12870254
000110 77 8b d5 3d 14 0e 86 bd a2 73 9a 3c 97 36 9b bd
       0.104269914 -0.06545654 0.018853966 -0.075787716
000120 07 a9 d5 3d 7b 44 df 3c 8c e7 be 3c b7 97 85 bd
       0.1043263 0.027254334 0.02330377 -0.06523078
000130 22 e3 ee bb ff 28 0e 3e f2 50 6b 3d d8 98 33 3e
       -0.00729026 0.13882826 0.057450242 0.17538774
000140 d6 2b 1f 3e 5a ae 07 3e 1b 21 e5 3d 96 9b 3f ba
       0.15544066 0.13250104 0.11187955 -0.0007309256
000150 80 2b ff bc 46 7c 17 bd 20 30 67 3d 30 50 f4 bd
       -0.031148672 -0.03698375 0.05644238 -0.11929357
000160 4d 31 5b 3d 78 53 28 3d 7a f1 a8 3c d4 05 20 3d
       0.053513814 0.041095227 0.020622957 0.039068058
000170 16 53 b4 bd 89 df 95 3d 49 00 53 3e 56 55 d1 3d
       -0.0880491 0.073180266 0.20605578 0.10221355
000180 7c 25 b8 3d dc 6e 5b 3d e7 38 37 bc ff ea f7 3c
       0.089915246 0.05357252 -0.011183 0.030263422
000190 9a 0a c1 3d 14 d9 4a bd 86 c2 23 3e 4c f2 17 be
       0.0942585 -0.049523428 0.15992174 -0.14838523
0001a0 82 b3 31 3d a6 87 99 bd fb 44 03 3d 88 c1 87 3c
       0.043384083 -0.07496576 0.032048207 0.016571775
0001b0 1f ea d8 3d a9 af 8d 3d 06 7a eb bc 2a 88 24 3b
       0.1059153 0.0691827 -0.028744709 0.0025105574
0001c0 63 d8 3b bd c4 05 86 bd 16 4b 3f 3e 4c 9c 31 3e
       -0.04586066 -0.065440685 0.18680987 0.17344779
0001d0 b9 3b 19 bb 4f 1b 6c 3e eb 5d 6c 3d 81 76 7f 3d
       -0.0023381545 0.23057292 0.057706755 0.062368874
0001e0 e2 1f e1 bc e0 d3 84 3b e4 ca ff 3d f9 44 84 bb
       -0.027481023 0.004053578 0.1248987 -0.0040365425
0001f0 1a e1 97 3d 5e 59 77 3d 7d 77 9c 3d 78 92 2d bd
       0.074159816 0.06038796 0.07639978 -0.04237601
000200 c3 2d 1f 3d 16 45 c8 bd 33 73 9b bd 1b b9 06 be
       0.038862 -0.09778802 -0.07590332 -0.1315655
000210 41 83 24 3d 26 68 f2 bd 21 95 b4 bd 3c 58 be 3d
       0.040164236 -0.11836271 -0.088175066 0.09294173
000220 55 0d 41 bd fc 56 0f be 37 33 99 3d 74 90 dc 3b
       -0.047131855 -0.13998026 0.074804716 0.0067310873
000230 57 d8 f0 bd 1c e8 6f 3c 4c 49 d0 bc 24 e5 da 3d
       -0.117600136 0.0146427415 -0.025425576 0.10688236
000240 7c 66 b7 bd 6b 1d df bd 1f f0 1c 38 68 8c 97 bd
       -0.08955094 -0.10894283 3.741693e-05 -0.07399827
000250 72 ad f1 bd 66 f1 e3 bd 84 ea ab bc 65 f7 b3 bc
       -0.1180066 -0.111300275 -0.02098585 -0.021968553
000260 bb b7 de ba 78 62 23 3c 6d f2 d8 bd d1 5e b2 bd
       -0.0016992012 0.009972207 -0.10593114 -0.08709491
000270 58 cb 9c 3d 20 b3 7a bd df 56 4c 3d aa 81 ff b9
       0.07655972 -0.061205983 0.049887534 -0.00048733997
000280 e1 ae af bc a6 c3 ae 3d 58 74 12 bd 3c 61 36 bd
       -0.021445693 0.08533411 -0.035755485 -0.044526324
000290 d9 dd ad bd 57 0f ae bc cc d0 c3 3c f1 31 dc 3c
       -0.0848958 -0.021247549 0.023903273 0.026879283
0002a0 38 7f 98 3d 0a bb a8 3c de cc e7 3c ca 44 3d bd
       0.0744614 0.020597 0.02829593 -0.04620818
0002b0 89 43 9c 3c 1c 92 49 3b 86 d4 b2 3d 99 08 a9 3d
       0.019075172 0.0030757254 0.08731942 0.08253593
0002c0 72 95 a0 bd 95 ef 1f bd 32 2c 4a bd cc a4 ad bd
       -0.078410044 -0.039046843 -0.049358554 -0.08478698
0002d0 1c 73 94 3d 08 5f ec 3d b1 2d 1d 3d 39 99 a0 3b
       0.07248518 0.11541563 0.038373653 0.004901078
0002e0 f1 ca ef bc 6c a3 91 3c 0a 37 c3 bb 12 c3 21 3b
       -0.029271575 0.017778121 -0.005957489 0.0024682921
0002f0 e0 8b 2a be 3e dd 24 3d 9b 98 1c 3c c7 7b b9 bc
       -0.1665492 0.040250055 0.009557868 -0.02264203
000300 e7 17 09 3e e7 2b 5d 3e 5c 35 41 3e 83 3b 1d 3d
       0.13388024 0.21598779 0.18868011 0.038386833
000310 fb 8c 55 3e 40 02 00 3d 9e 2c 4f bd 85 b7 79 3d
       0.20854561 0.031252146 -0.05057966 0.060966033
000320 22 10 19 bc 8d 1f f7 3d 77 70 3a 3e e4 c1 17 3e
       -0.009342225 0.12066565 0.18206964 0.14820057
000330 5c 32 19 3d 7e 4e b5 3d 17 cc fd 3d fa b1 ed 3d
       0.037401542 0.08852862 0.12392443 0.11606212
000340 59 33 65 3e 37 00 46 3e ad d5 8e 3e dd cc de 3d
       0.22382869 0.1933602 0.27897397 0.10878918
000350 9e 27 38 3d a7 5f cb 3c 67 b0 97 bd 3a c9 53 3e
       0.044959657 0.024825884 -0.07406693 0.2068223
000360 fd e0 9b 3d df 77 1c bb 33 2c 17 bd e1 a3 0c 3e
       0.076112725 -0.002387516 -0.036907386 0.1373439
000370 24 15 52 3e 69 85 90 3e 50 4f a2 3e e3 7b 51 3d
       0.20515877 0.28226784 0.31701136 0.05114354
000380 7e 90 d6 3c fd 68 28 3e 13 4b 25 3d 29 7e 27 3d
       0.026191946 0.164463 0.0403548 0.0408918
000390 57 7a 0a 3e be 0a b0 3d a0 2e 2d 3e d7 01 8a 3e
       0.13523231 0.08595799 0.16912317 0.2695453
0003a0 8b 09 3e 3e a9 cd 58 3d 73 8b d7 bc a9 5f 7a 3e
       0.18558328 0.052930508 -0.026311612 0.24450554
0003b0 aa 4d b7 bc 9b 57 e0 3d 01 55 f3 3d bf 76 5a 3e
       -0.0223759 0.109542094 0.118814476 0.2133436
0003c0 d5 d6 ab 3d c1 dc 0b 3e c6 d0 9f 3e 6c 72 6f 3e
       0.08390585 0.1365843 0.3121397 0.23383492
0003d0 bd 9d 98 3c 12 97 d6 3d 47 2f 0a 3e b8 8f d6 3d
       0.018629903 0.10478033 0.13494597 0.10476631
0003e0 52 62 85 3b 05 f7 52 3e 9f 31 73 3e 4d d5 7b 3d
       0.0040705586 0.20602043 0.23749398 0.061482716
0003f0 a1 d4 0c 3e 74 fa a7 3e 67 4a ba 3d 7c d9 ad 3d
       0.13752986 0.32808268 0.09096222 0.084887475
